best_model_AMPNet_fold_1.pth (torch, 7476 bytes, 5 tensors)

rgb_norm.weight f4 [192]
0	0x3f7f02d8	0.99613714
1	0x3f7ef953	0.9959919
2	0x3f8007f6	1.000243
3	0x3f8082fc	1.0039973
4	0x3f8081f3	1.0039657
5	0x3f7ef99d	0.9959963
6	0x3f7efdfa	0.9960629
7	0x3f8082fc	1.0039973
8	0x3f807efc	1.0038753
9	0x3f7ef99d	0.9959963
10	0x3f7f0777	0.99620765
11	0x3f8082fc	1.0039973
12	0x3f808257	1.0039777
13	0x3f7ef99d	0.9959963
14	0x3f7efe9f	0.9960727
15	0x3f8082fc	1.0039973
16	0x3f8072f2	1.0035079
17	0x3f7ef99d	0.9959963
18	0x3f7f085f	0.9962215
19	0x3f8082fc	1.0039973
20	0x3f808048	1.0039148
21	0x3f7ef99d	0.9959963
22	0x3f7f01e0	0.99612236
23	0x3f8082fc	1.0039973
24	0x3f802d28	1.001378
25	0x3f7ef99d	0.9959963
26	0x3f7efca1	0.9960423
27	0x3f8082fc	1.0039973
28	0x3f807b39	1.0037605
29	0x3f7ef99d	0.9959963
30	0x3f7f11d4	0.9963658
31	0x3f8082fc	1.0039973
32	0x3f806a00	1.0032349
33	0x3f7ef99d	0.9959963
34	0x3f7f0641	0.9961892
35	0x3f8082fc	1.0039973
36	0x3f807fcd	1.0039002
37	0x3f7ef99d	0.9959963
38	0x3f7eff81	0.9960862
39	0x3f8082fc	1.0039973
40	0x3f80805d	1.0039173
41	0x3f7ef99d	0.9959963
42	0x3f7efa46	0.99600637
43	0x3f8082fc	1.0039973
44	0x3f807d6c	1.0038276
45	0x3f7ef99d	0.9959963
46	0x3f7f155b	0.9964196
47	0x3f8082fc	1.0039973
48	0x3f807f40	1.0038834
49	0x3f7ef99d	0.9959963
50	0x3f7f0845	0.99621993
51	0x3f8082fc	1.0039973
52	0x3f80828c	1.003984
53	0x3f7ef99d	0.9959963
54	0x3f7f01e1	0.9961224
55	0x3f8082fc	1.0039973
56	0x3f807055	1.0034281
57	0x3f7ef99d	0.9959963
58	0x3f7efee2	0.9960767
59	0x3f8082fc	1.0039973
60	0x3f8082c3	1.0039905
61	0x3f7ef99d	0.9959963
62	0x3f7f0e77	0.99631447
63	0x3f8082fc	1.0039973
64	0x3f807408	1.003541
65	0x3f7ef99d	0.9959963
66	0x3f7f039a	0.9961487
67	0x3f8082fc	1.0039973
68	0x3f807eee	1.0038736
69	0x3f7ef99d	0.9959963
70	0x3f7f136b	0.99639004
71	0x3f8082fc	1.0039973
72	0x3f807cf4	1.0038133
73	0x3f7ef99d	0.9959963
74	0x3f7f0a37	0.9962496
75	0x3f8082fc	1.0039973
76	0x3f8077ac	1.0036521
77	0x3f7ef99d	0.9959963
78	0x3f7efa6a	0.9960085
79	0x3f8082fc	1.0039973
80	0x3f807ab9	1.0037452
81	0x3f7ef99d	0.9959963
82	0x3f7efc6f	0.99603933
83	0x3f8082fc	1.0039973
84	0x3f8077e2	1.0036585
85	0x3f7ef99d	0.9959963
86	0x3f7efd80	0.9960556
87	0x3f8082fc	1.0039973
88	0x3f807f16	1.0038784
89	0x3f7ef99d	0.9959963
90	0x3f7f0f56	0.99632776
91	0x3f8082fc	1.0039973
92	0x3f807ec3	1.0038685
93	0x3f7ef99d	0.9959963
94	0x3f7f0006	0.9960941
95	0x3f8082fc	1.0039973
96	0x3f8075f8	1.0036001
97	0x3f7ef99d	0.9959963
98	0x3f7f30c6	0.996838
99	0x3f8082fc	1.0039973
100	0x3f8081a2	1.0039561
101	0x3f7ef99d	0.9959963
102	0x3f7f24cd	0.9966553
103	0x3f8082fc	1.0039973
104	0x3f806c7c	1.0033107
105	0x3f7ef99d	0.9959963
106	0x3f7f011e	0.9961108
107	0x3f8082fc	1.0039973
108	0x3f807b68	1.0037661
109	0x3f7ef99d	0.9959963
110	0x3f7effd4	0.9960911
111	0x3f8082fc	1.0039973
112	0x3f807577	1.0035847
113	0x3f7ef99d	0.9959963
114	0x3f7f1390	0.99639225
115	0x3f8082fc	1.0039973
116	0x3f8080f1	1.003935
117	0x3f7ef99d	0.9959963
118	0x3f7f0b73	0.99626845
119	0x3f8082fc	1.0039973
120	0x3f8081fe	1.003967
121	0x3f7ef99d	0.9959963
122	0x3f7f18a1	0.99646956
123	0x3f8082fc	1.0039973
124	0x3f8082c2	1.0039904
125	0x3f7ef99d	0.9959963
126	0x3f7f3b29	0.99699646
127	0x3f8082fc	1.0039973
128	0x3f807de4	1.0038419
129	0x3f7ef99d	0.9959963
130	0x3f7f02bb	0.9961354
131	0x3f8082fc	1.0039973
132	0x3f8076b4	1.0036225
133	0x3f7ef99d	0.9959963
134	0x3f7f049b	0.996164
135	0x3f8082fc	1.0039973
136	0x3f8080a7	1.0039262
137	0x3f7ef99d	0.9959963
138	0x3f7f0b9a	0.9962708
139	0x3f8082fc	1.0039973
140	0x3f807d0c	1.0038161
141	0x3f7ef99d	0.9959963
142	0x3f7efb14	0.99601865
143	0x3f8082fc	1.0039973
144	0x3f808061	1.0039178
145	0x3f7ef99d	0.9959963
146	0x3f7eff39	0.9960819
147	0x3f8082fc	1.0039973
148	0x3f807e81	1.0038606
149	0x3f7ef99d	0.9959963
150	0x3f7f0428	0.99615717
151	0x3f8082fc	1.0039973
152	0x3f807bbe	1.0037763
153	0x3f7ef99d	0.9959963
154	0x3f7f230e	0.99662864
155	0x3f8082fc	1.0039973
156	0x3f807c6a	1.0037968
157	0x3f7ef99d	0.9959963
158	0x3f7fac08	0.99871874
159	0x3f8082fc	1.0039973
160	0x3f808072	1.0039198
161	0x3f7ef99d	0.9959963
162	0x3f7f0a1c	0.996248
163	0x3f8082fc	1.0039973
164	0x3f807fdf	1.0039023
165	0x3f7ef99d	0.9959963
166	0x3f7f15bc	0.9964254
167	0x3f8082fc	1.0039973
168	0x3f806ec1	1.00338
169	0x3f7ef99d	0.9959963
170	0x3f7f11da	0.99636614
171	0x3f8082fc	1.0039973
172	0x3f8081db	1.0039629
173	0x3f7ef99d	0.9959963
174	0x3f7f0a97	0.99625534
175	0x3f8082fc	1.0039973
176	0x3f807ebf	1.003868
177	0x3f7ef99d	0.9959963
178	0x3f7f0957	0.99623626
179	0x3f8082fc	1.0039973
180	0x3f807af4	1.0037522
181	0x3f7ef99d	0.9959963
182	0x3f7f1370	0.99639034
183	0x3f8082fc	1.0039973
184	0x3f806f0a	1.0033886
185	0x3f7ef99d	0.9959963
186	0x3f7f0823	0.9962179
187	0x3f8082fc	1.0039973
188	0x3f807f62	1.0038874
189	0x3f7ef9a1	0.99599653
190	0x3f7efb21	0.9960194
191	0x3f808304	1.0039983

rgb_norm.bias f4 [192]
0	0x3b7d2874	0.0038628848
1	0xbb835714	-0.0040081833
2	0xb97ecf80	-0.00024300627
3	0x3b82fb4e	0.003997243
4	0xbb81f2fa	-0.0039657326
5	0xbb83316f	-0.0040036957
6	0x3b8102d5	0.003937105
7	0x3b82fb47	0.0039972397
8	0xbb7df6e9	-0.0038751906
9	0xbb833170	-0.004003696
10	0x3b7888ff	0.0037923453
11	0x3b82fb48	0.00399724
12	0xbb825721	-0.0039776717
13	0xbb83316c	-0.0040036943
14	0x3b80b0c3	0.0039273216
15	0x3b82fb4c	0.003997242
16	0xbb65e2cb	-0.0035077806
17	0xbb833172	-0.004003697
18	0x3b77a098	0.003778493
19	0x3b82fb4d	0.0039972425
20	0xbb80481e	-0.003914847
21	0xbb833171	-0.0040036966
22	0x3b7e20da	0.0038776905
23	0x3b82fb4e	0.003997243
24	0xbab49ca4	-0.0013779593
25	0xbb83316f	-0.0040036957
26	0x3b81af69	0.003957678
27	0x3b82fb4c	0.003997242
28	0xbb767138	-0.0037604105
29	0xbb833170	-0.004003696
30	0x3b6e2bb2	0.0036341962
31	0x3b82fb4e	0.003997243
32	0xbb53fef4	-0.0032348009
33	0xbb833171	-0.0040036966
34	0x3b79be71	0.0038107897
35	0x3b82fb4a	0.003997241
36	0xbb7f9933	-0.0039001226
37	0xbb833170	-0.004003696
38	0x3b803f9e	0.0039138338
39	0x3b82fb4c	0.003997242
40	0xbb805c84	-0.0039172787
41	0xbb833170	-0.004003696
42	0x3b82dd11	0.0039936383
43	0x3b82fb4d	0.0039972425
44	0xbb7ad7fc	-0.003827571
45	0xbb833171	-0.0040036966
46	0x3b6aa532	0.003580403
47	0x3b82fb4d	0.0039972425
48	0xbb7e802f	-0.0038833728
49	0xbb833172	-0.004003697
50	0x3b77b9a8	0.0037799869
51	0x3b82fb4a	0.003997241
52	0xbb828bf8	-0.0039839707
53	0xbb833173	-0.0040036975
54	0x3b7e1ffc	0.0038776388
55	0x3b82fb4d	0.0039972425
56	0xbb60a8ea	-0.0034280368
57	0xbb833171	-0.0040036966
58	0x3b808e94	0.0039232466
59	0x3b82fb4c	0.003997242
60	0xbb82c206	-0.0039904146
61	0xbb833171	-0.0040036966
62	0x3b718856	0.0036854944
63	0x3b82fb4a	0.003997241
64	0xbb681116	-0.0035410575
65	0xbb833174	-0.004003698
66	0x3b7c667e	0.0038513239
67	0x3b82fb4e	0.003997243
68	0xbb7ddb22	-0.003873535
69	0xbb833172	-0.004003697
70	0x3b6c9457	0.003609916
71	0x3b82fb4f	0.0039972435
72	0xbb79e853	-0.003813286
73	0xbb833171	-0.0040036966
74	0x3b75c919	0.0037503897
75	0x3b82fb4b	0.0039972416
76	0xbb6f5654	-0.0036519961
77	0xbb833170	-0.004003696
78	0x3b82cb24	0.0039915014
79	0x3b82fb4d	0.0039972425
80	0xbb756f56	-0.0037450395
81	0xbb833170	-0.004003696
82	0x3b81c896	0.0039606793
83	0x3b82fb4d	0.0039972425
84	0xbb6fc5a8	-0.0036586318
85	0xbb83316e	-0.004003695
86	0x3b814067	0.003944445
87	0x3b82fb4e	0.003997243
88	0xbb7e2940	-0.003878191
89	0xbb833172	-0.004003697
90	0x3b70aa3e	0.0036722566
91	0x3b82fb4c	0.003997242
92	0xbb7d85be	-0.0038684453
93	0xbb833172	-0.004003697
94	0x3b7ffa4b	0.0039059098
95	0x3b82fb4a	0.003997241
96	0xbb6bef4f	-0.0036000793
97	0xbb83316e	-0.004003695
98	0x3b4f3a94	0.0031620609
99	0x3b82fb4c	0.003997242
100	0xbb81a276	-0.0039561344
101	0xbb833172	-0.004003697
102	0x3b5b338b	0.003344747
103	0x3b82fb4a	0.003997241
104	0xbb58f6e0	-0.0033106133
105	0xbb833173	-0.0040036975
106	0x3b7ee281	0.003889233
107	0x3b82fb4c	0.003997242
108	0xbb76d132	-0.0037661311
109	0xbb833173	-0.0040036975
110	0x3b8015e2	0.0039088586
111	0x3b82fb4c	0.003997242
112	0xbb6aeeb9	-0.0035847856
113	0xbb833172	-0.004003697
114	0x3b6c6f63	0.0036077134
115	0x3b82fb4b	0.0039972416
116	0xbb80f096	-0.00393493
117	0xbb833172	-0.004003697
118	0x3b748ccf	0.0037315374
119	0x3b82fb4c	0.003997242
120	0xbb81fe08	-0.0039670505
121	0xbb833170	-0.004003696
122	0x3b675f42	0.003530458
123	0x3b82fb4b	0.0039972416
124	0xbb82c219	-0.0039904234
125	0xbb833171	-0.0040036966
126	0x3b44d6ad	0.0030035183
127	0x3b82fb4a	0.003997241
128	0xbb7bc728	-0.0038418267
129	0xbb833172	-0.004003697
130	0x3b7d4428	0.003864536
131	0x3b82fb4d	0.0039972425
132	0xbb6d6789	-0.0036225042
133	0xbb833172	-0.004003697
134	0x3b7b64ed	0.0038359717
135	0x3b82fb4c	0.003997242
136	0xbb80a71e	-0.003926172
137	0xbb833172	-0.004003697
138	0x3b7465ff	0.003729224
139	0x3b82fb4f	0.0039972435
140	0xbb7a195b	-0.0038162086
141	0xbb833172	-0.004003697
142	0x3b8275ec	0.0039813425
143	0x3b82fb4e	0.003997243
144	0xbb806181	-0.0039178734
145	0xbb833172	-0.004003697
146	0x3b80636b	0.0039181015
147	0x3b82fb4e	0.003997243
148	0xbb7d0215	-0.0038605977
149	0xbb833171	-0.0040036966
150	0x3b7bd8e4	0.0038428837
151	0x3b82fb49	0.0039972407
152	0xbb7779a0	-0.0037761703
153	0xbb833170	-0.004003696
154	0x3b5cf18a	0.0033713304
155	0x3b82fb4e	0.003997243
156	0xbb78d533	-0.0037968874
157	0xbb833172	-0.004003697
158	0x3aa7eeb4	0.0012812228
159	0x3b82fb4a	0.003997241
160	0xbb80722f	-0.0039198617
161	0xbb833172	-0.004003697
162	0x3b75e3da	0.0037519843
163	0x3b82fb4d	0.0039972425
164	0xbb7fbc67	-0.0039022209
165	0xbb833170	-0.004003696
166	0x3b6a4396	0.003574585
167	0x3b82fb4a	0.003997241
168	0xbb5d823e	-0.0033799554
169	0xbb833170	-0.004003696
170	0x3b6e268e	0.0036338898
171	0x3b82fb4c	0.003997242
172	0xbb81dadd	-0.003962858
173	0xbb833173	-0.0040036975
174	0x3b75688f	0.0037446355
175	0x3b82fb4d	0.0039972425
176	0xbb7d7ced	-0.0038679198
177	0xbb833170	-0.004003696
178	0x3b76a8d5	0.0037637253
179	0x3b82fb4c	0.003997242
180	0xbb75e69a	-0.0037521482
181	0xbb83316f	-0.0040036957
182	0x3b6c8f80	0.0036096275
183	0x3b82fb4e	0.003997243
184	0xbb5e12c9	-0.0033885709
185	0xbb83316f	-0.0040036957
186	0x3b77dcff	0.0037820933
187	0x3b82fb49	0.0039972407
188	0xbb7ec2e0	-0.0038873479
189	0xbb832f15	-0.0040034153
190	0x3b826f55	0.003980557
191	0x3b8303ef	0.0039982717

thermal_norm.weight f4 [192]
0	0x3f807e65	1.0038573
1	0x3f7efca9	0.9960428
2	0x3f8005cd	1.000177
3	0x3f7efb10	0.9960184
4	0x3f7efca6	0.9960426
5	0x3f8082d6	1.0039928
6	0x3f7efce1	0.9960461
7	0x3f7efb10	0.9960184
8	0x3f7f0239	0.99612767
9	0x3f8082d6	1.0039928
10	0x3f7f085b	0.99622124
11	0x3f7efb10	0.9960184
12	0x3f7efc3e	0.9960364
13	0x3f8082d6	1.0039928
14	0x3f7eff90	0.9960871
15	0x3f7efb10	0.9960184
16	0x3f7f1a4f	0.9964952
17	0x3f8082d6	1.0039928
18	0x3f7f08da	0.9962288
19	0x3f7efb10	0.9960184
20	0x3f7eff0a	0.9960791
21	0x3f8082d6	1.0039928
22	0x3f7f01f5	0.9961236
23	0x3f7efb10	0.9960184
24	0x3f7fa66a	0.998633
25	0x3f8082d6	1.0039928
26	0x3f7efc27	0.99603504
27	0x3f7efb10	0.9960184
28	0x3f7f0b1a	0.99626315
29	0x3f8082d6	1.0039928
30	0x3f7f11a5	0.996363
31	0x3f7efb10	0.9960184
32	0x3f7f2d2f	0.9967832
33	0x3f8082d6	1.0039928
34	0x3f7f07f0	0.99621487
35	0x3f7efb10	0.9960184
36	0x3f7f00ad	0.99610406
37	0x3f8082d6	1.0039928
38	0x3f7f008c	0.9961021
39	0x3f7efb10	0.9960184
40	0x3f7f009b	0.996103
41	0x3f8082d6	1.0039928
42	0x3f7efac3	0.9960138
43	0x3f7efb10	0.9960184
44	0x3f7f0622	0.9961873
45	0x3f8082d6	1.0039928
46	0x3f7f15f3	0.99642867
47	0x3f7efb10	0.9960184
48	0x3f7f0332	0.9961425
49	0x3f8082d6	1.0039928
50	0x3f7f0771	0.9962073
51	0x3f7efb10	0.9960184
52	0x3f7efb07	0.9960179
53	0x3f8082d6	1.0039928
54	0x3f7f02d0	0.99613667
55	0x3f7efb10	0.9960184
56	0x3f7f2097	0.99659103
57	0x3f8082d6	1.0039928
58	0x3f7efffb	0.99609345
59	0x3f7efb10	0.9960184
60	0x3f7efa78	0.99600935
61	0x3f8082d6	1.0039928
62	0x3f7f10fa	0.9963528
63	0x3f7efb10	0.9960184
64	0x3f7f180d	0.99646074
65	0x3f8082d6	1.0039928
66	0x3f7f0374	0.99614644
67	0x3f7efb10	0.9960184
68	0x3f7f0266	0.99613035
69	0x3f8082d6	1.0039928
70	0x3f7f126e	0.99637496
71	0x3f7efb10	0.9960184
72	0x3f7f077b	0.9962079
73	0x3f8082d6	1.0039928
74	0x3f7f0c8b	0.99628514
75	0x3f7efb10	0.9960184
76	0x3f7f1231	0.9963713
77	0x3f8082d6	1.0039928
78	0x3f7efac0	0.99601364
79	0x3f7efb10	0.9960184
80	0x3f7f0aed	0.99626046
81	0x3f8082d6	1.0039928
82	0x3f7efc3f	0.99603647
83	0x3f7efb10	0.9960184
84	0x3f7f1089	0.99634606
85	0x3f8082d6	1.0039928
86	0x3f7efee2	0.9960767
87	0x3f7efb10	0.9960184
88	0x3f7f00ed	0.9961079
89	0x3f8082d6	1.0039928
90	0x3f7f0f10	0.9963236
91	0x3f7efb10	0.9960184
92	0x3f7f02f9	0.9961391
93	0x3f8082d6	1.0039928
94	0x3f7f00d8	0.9961066
95	0x3f7efb10	0.9960184
96	0x3f7f1625	0.99643165
97	0x3f8082d6	1.0039928
98	0x3f7f320d	0.99685746
99	0x3f7efb10	0.9960184
100	0x3f7efc4b	0.9960372
101	0x3f8082d6	1.0039928
102	0x3f7f23eb	0.9966418
103	0x3f7efb10	0.9960184
104	0x3f7f2988	0.99672747
105	0x3f8082d6	1.0039928
106	0x3f7f0200	0.99612427
107	0x3f7efb10	0.9960184
108	0x3f7f09b9	0.9962421
109	0x3f8082d6	1.0039928
110	0x3f7f002d	0.99609643
111	0x3f7efb10	0.9960184
112	0x3f7f169f	0.9964389
113	0x3f8082d6	1.0039928
114	0x3f7f1356	0.9963888
115	0x3f7efb10	0.9960184
116	0x3f7eff62	0.99608433
117	0x3f8082d6	1.0039928
118	0x3f7f0cae	0.9962872
119	0x3f7efb10	0.9960184
120	0x3f7efc5b	0.99603814
121	0x3f8082d6	1.0039928
122	0x3f7f1b5a	0.9965111
123	0x3f7efb10	0.9960184
124	0x3f7efa2d	0.9960049
125	0x3f8082d6	1.0039928
126	0x3f7f3b3c	0.9969976
127	0x3f7efb10	0.9960184
128	0x3f7f0642	0.99618924
129	0x3f8082d6	1.0039928
130	0x3f7f017f	0.9961166
131	0x3f7efb10	0.9960184
132	0x3f7f153b	0.9964177
133	0x3f8082d6	1.0039928
134	0x3f7f062c	0.9961879
135	0x3f7efb10	0.9960184
136	0x3f7effa7	0.99608845
137	0x3f8082d6	1.0039928
138	0x3f7f0d53	0.99629706
139	0x3f7efb10	0.9960184
140	0x3f7f0733	0.9962036
141	0x3f8082d6	1.0039928
142	0x3f7efb81	0.99602515
143	0x3f7efb10	0.9960184
144	0x3f7f00c9	0.99610573
145	0x3f8082d6	1.0039928
146	0x3f7f00bb	0.9961049
147	0x3f7efb10	0.9960184
148	0x3f7f0362	0.99614537
149	0x3f8082d6	1.0039928
150	0x3f7f053b	0.99617356
151	0x3f7efb10	0.9960184
152	0x3f7f0a6c	0.9962528
153	0x3f8082d6	1.0039928
154	0x3f7f2479	0.9966503
155	0x3f7efb10	0.9960184
156	0x3f7f0600	0.9961853
157	0x3f8082d6	1.0039928
158	0x3f7fad0a	0.9987341
159	0x3f7efb10	0.9960184
160	0x3f7efe4e	0.9960679
161	0x3f8082d6	1.0039928
162	0x3f7f0b02	0.9962617
163	0x3f7efb10	0.9960184
164	0x3f7f005d	0.9960993
165	0x3f8082d6	1.0039928
166	0x3f7f181c	0.99646163
167	0x3f7efb10	0.9960184
168	0x3f7f21bf	0.9966087
169	0x3f8082d6	1.0039928
170	0x3f7f1354	0.9963887
171	0x3f7efb10	0.9960184
172	0x3f7efcfe	0.99604785
173	0x3f8082d6	1.0039928
174	0x3f7f0a5a	0.9962517
175	0x3f7efb10	0.9960184
176	0x3f7f0345	0.99614364
177	0x3f8082d6	1.0039928
178	0x3f7f0a2e	0.9962491
179	0x3f7efb10	0.9960184
180	0x3f7f0a0a	0.99624693
181	0x3f8082d6	1.0039928
182	0x3f7f1321	0.99638563
183	0x3f7efb10	0.9960184
184	0x3f7f231c	0.9966295
185	0x3f8082d6	1.0039928
186	0x3f7f09eb	0.9962451
187	0x3f7efb10	0.9960184
188	0x3f7f0251	0.9961291
189	0x3f8082d3	1.0039924
190	0x3f7efb1f	0.9960193
191	0x3f7efae4	0.9960158

thermal_norm.bias f4 [192]
0	0x3b7cc8fc	0.0038571944
1	0xbb8311d3	-0.0039999275
2	0xb939b052	-0.0001770866
3	0x3b829072	0.0039845044
4	0xbb81ac33	-0.0039572953
5	0xbb82da94	-0.0039933417
6	0x3b8192ae	0.003954253
7	0x3b829066	0.003984499
8	0xbb7dc746	-0.0038723513
9	0xbb82da96	-0.0039933426
10	0x3b77a971	0.0037790204
11	0x3b829069	0.0039845
12	0xbb81dfdf	-0.003963455
13	0xbb82da8f	-0.0039933394
14	0x3b803a49	0.003913198
15	0x3b82906c	0.0039845016
16	0xbb65b028	-0.0035047624
17	0xbb82da98	-0.0039933436
18	0x3b772b12	0.003771488
19	0x3b829070	0.0039845034
20	0xbb807a53	-0.003920832
21	0xbb82da95	-0.003993342
22	0x3b7e0e99	0.0038766025
23	0x3b829070	0.0039845034
24	0xbab33741	-0.0013673083
25	0xbb82da93	-0.0039933412
26	0x3b81ef0d	0.0039652647
27	0x3b82906e	0.0039845025
28	0xbb74e389	-0.0037367067
29	0xbb82da96	-0.0039933426
30	0x3b6e6622	0.0036376794
31	0x3b829072	0.0039845044
32	0xbb52cf0c	-0.0032166867
33	0xbb82da95	-0.003993342
34	0x3b78176c	0.0037855757
35	0x3b82906c	0.0039845016
36	0xbb7f4f58	-0.0038957205
37	0xbb82da94	-0.0039933417
38	0x3b7f7851	0.0038981626
39	0x3b82906f	0.003984503
40	0xbb7f640a	-0.003896954
41	0xbb82da94	-0.0039933417
42	0x3b82a095	0.003986428
43	0x3b82906e	0.0039845025
44	0xbb79dcd6	-0.0038126013
45	0xbb82da95	-0.003993342
46	0x3b6a1044	0.0035715261
47	0x3b829070	0.0039845034
48	0xbb7ccc60	-0.0038573965
49	0xbb82da98	-0.0039933436
50	0x3b78933c	0.0037929555
51	0x3b82906c	0.0039845016
52	0xbb827b1c	-0.003981961
53	0xbb82da9a	-0.0039933445
54	0x3b7d33b1	0.0038635547
55	0x3b82906f	0.003984503
56	0xbb5f6846	-0.0034089251
57	0xbb82da96	-0.0039933426
58	0x3b80042e	0.0039067483
59	0x3b82906e	0.0039845025
60	0xbb82c336	-0.003990556
61	0xbb82da96	-0.0039933426
62	0x3b6f09b9	0.00364743
63	0x3b82906b	0.003984501
64	0xbb67f246	-0.003539221
65	0xbb82da9a	-0.0039933445
66	0x3b7c904a	0.0038538151
67	0x3b829070	0.0039845034
68	0xbb7d9759	-0.0038694947
69	0xbb82da96	-0.0039933426
70	0x3b6d9c7c	0.0036256602
71	0x3b829070	0.0039845034
72	0xbb7883da	-0.0037920387
73	0xbb82da95	-0.003993342
74	0x3b73798a	0.00371513
75	0x3b82906c	0.0039845016
76	0xbb6dcdc1	-0.003628597
77	0xbb82da97	-0.003993343
78	0x3b82a1ff	0.0039865966
79	0x3b829070	0.0039845034
80	0xbb75113c	-0.0037394306
81	0xbb82da96	-0.0039933426
82	0x3b81e2dd	0.003963812
83	0x3b82906e	0.0039845025
84	0xbb6f73e8	-0.0036537591
85	0xbb82da93	-0.0039933412
86	0x3b80918e	0.0039236015
87	0x3b82906f	0.003984503
88	0xbb7f0f75	-0.0038919125
89	0xbb82da97	-0.003993343
90	0x3b70f426	0.0036766618
91	0x3b82906e	0.0039845025
92	0xbb7d054c	-0.0038607894
93	0xbb82da98	-0.0039933436
94	0x3b7f339e	0.0038940678
95	0x3b82906c	0.0039845016
96	0xbb69d9be	-0.0035682763
97	0xbb82da91	-0.0039933403
98	0x3b4df6a2	0.0031427522
99	0x3b82906d	0.003984502
100	0xbb81d95f	-0.00396268
101	0xbb82da98	-0.0039933436
102	0x3b5c1958	0.0033584442
103	0x3b82906b	0.003984501
104	0xbb56766e	-0.0032724398
105	0xbb82da98	-0.0039933436
106	0x3b7e03dd	0.0038759627
107	0x3b82906e	0.0039845025
108	0xbb7644d4	-0.0037577646
109	0xbb82da9a	-0.0039933445
110	0x3b7fd81c	0.0039038723
111	0x3b82906e	0.0039845025
112	0xbb695d6c	-0.0035608662
113	0xbb82da96	-0.0039933426
114	0x3b6cb1ee	0.0036116797
115	0x3b82906c	0.0039845016
116	0xbb804d9c	-0.0039155018
117	0xbb82da98	-0.0039933436
118	0x3b7355dc	0.0037130034
119	0x3b82906d	0.003984502
120	0xbb81d158	-0.0039617233
121	0xbb82da95	-0.003993342
122	0x3b64ac45	0.003489272
123	0x3b82906d	0.003984502
124	0xbb82e8ca	-0.003995036
125	0xbb82da96	-0.0039933426
126	0x3b44cd4c	0.0030029593
127	0x3b82906c	0.0039845016
128	0xbb79bd20	-0.0038107112
129	0xbb82da96	-0.0039933426
130	0x3b7e86d1	0.003883768
131	0x3b829070	0.0039845034
132	0xbb6ac436	-0.0035822517
133	0xbb82da98	-0.0039933436
134	0x3b79d729	0.003812263
135	0x3b82906d	0.003984502
136	0xbb802bd6	-0.0039114757
137	0xbb82da97	-0.003993343
138	0x3b72af7b	0.0037030864
139	0x3b829070	0.0039845034
140	0xbb78cbb0	-0.0037963204
141	0xbb82da96	-0.0039933426
142	0x3b8242a0	0.0039752275
143	0x3b829070	0.0039845034
144	0xbb7f363a	-0.0038942234
145	0xbb82da96	-0.0039933426
146	0x3b7f48e9	0.003895337
147	0x3b829070	0.0039845034
148	0xbb7c9bff	-0.003854513
149	0xbb82da96	-0.0039933426
150	0x3b7acc62	0.0038268794
151	0x3b82906a	0.0039845007
152	0xbb7591b8	-0.0037470888
153	0xbb82da94	-0.0039933417
154	0x3b5b8a59	0.003349921
155	0x3b829070	0.0039845034
156	0xbb79fc29	-0.0038144684
157	0xbb82da97	-0.003993343
158	0x3aa5e4d4	0.0012656697
159	0x3b82906a	0.0039845007
160	0xbb80d804	-0.003932001
161	0xbb82da98	-0.0039933436
162	0x3b75025a	0.0037385435
163	0x3b82906f	0.003984503
164	0xbb7fa26e	-0.0039006728
165	0xbb82da94	-0.0039933417
166	0x3b67e8a8	0.0035386477
167	0x3b82906b	0.003984501
168	0xbb5e3e1e	-0.0033911536
169	0xbb82da95	-0.003993342
170	0x3b6cb02c	0.0036115749
171	0x3b82906d	0.003984502
172	0xbb817ffc	-0.0039520245
173	0xbb82da98	-0.0039933436
174	0x3b75ab4d	0.0037486136
175	0x3b82906f	0.003984503
176	0xbb7cba0c	-0.003856304
177	0xbb82da94	-0.0039933417
178	0x3b75d678	0.0037511867
179	0x3b82906e	0.0039845025
180	0xbb75f4b1	-0.003752988
181	0xbb82da94	-0.0039933417
182	0x3b6ce66c	0.0036148084
183	0x3b829070	0.0039845034
184	0xbb5ce1da	-0.0033703954
185	0xbb82da93	-0.0039933412
186	0x3b761962	0.003755175
187	0x3b82906b	0.003984501
188	0xbb7dad81	-0.0038708153
189	0xbb82d78a	-0.0039929794
190	0x3b8272e0	0.0039809793
191	0x3b829e88	0.0039861836

fusion_layer.0.weight f4 [1, 2, 1]
0	0xbf2065a8	-0.62655115
1	0xbcba05e2	-0.022707883
