best_model_AMPNet_fold_2.pth (torch, 7476 bytes, 5 tensors)

rgb_norm.weight f4 [192]
00000000: b7fb 7e3f 75f9 7e3f 2783 803f f282 803f
00000010: b8fc 7e3f c682 803f c77f 803f f282 803f
00000020: 06fb 7e3f c682 803f 2683 803f f282 803f
00000030: 3a01 7f3f c682 803f c37b 803f f282 803f
00000040: 2202 7f3f c682 803f a882 803f f282 803f
00000050: 6b0d 7f3f c682 803f ed82 803f f282 803f
00000060: 170a 7f3f c682 803f 0882 803f f282 803f
00000070: 0108 7f3f c682 803f 5480 803f f282 803f
00000080: c8fd 7e3f c682 803f e082 803f f282 803f
00000090: 64fa 7e3f c682 803f 1880 803f f282 803f
000000a0: b2fc 7e3f c682 803f 3680 803f f282 803f
000000b0: 29fb 7e3f c682 803f 5781 803f f282 803f
000000c0: 2614 7f3f c682 803f 4881 803f f282 803f
000000d0: 630a 7f3f c682 803f 437e 803f f282 803f
000000e0: 1601 7f3f c682 803f 1f83 803f f282 803f
000000f0: 4606 7f3f c682 803f 0e81 803f f282 803f
00000100: 8802 7f3f c682 803f 0c81 803f f282 803f
00000110: 68fa 7e3f c682 803f 6d80 803f f282 803f
00000120: 6114 7f3f c682 803f e07f 803f f282 803f
00000130: 19fa 7e3f c682 803f 4682 803f f282 803f
00000140: 4206 7f3f c682 803f ff82 803f f282 803f
00000150: 2f0b 7f3f c682 803f 4980 803f f282 803f
00000160: c1fd 7e3f c682 803f fa80 803f f282 803f
00000170: b3fa 7e3f c682 803f 9581 803f f282 803f
00000180: 8b04 7f3f c682 803f d981 803f f282 803f
00000190: 0d0a 7f3f c682 803f 6f80 803f f282 803f
000001a0: af0a 7f3f c682 803f 2480 803f f282 803f
000001b0: 55ff 7e3f c682 803f 7282 803f f282 803f
000001c0: 1709 7f3f c682 803f 7e81 803f f282 803f
000001d0: cea2 7f3f c682 803f 1081 803f f282 803f
000001e0: 6003 7f3f c682 803f fb7e 803f f282 803f
000001f0: bb42 7f3f c682 803f e782 803f f282 803f
00000200: 0a07 7f3f c682 803f b380 803f f282 803f
00000210: 2403 7f3f c682 803f a881 803f f282 803f
00000220: 8207 7f3f c682 803f 8881 803f f282 803f
00000230: cdfa 7e3f c682 803f 0f83 803f f282 803f
00000240: c8fe 7e3f c682 803f ee7d 803f f282 803f
00000250: 650c 7f3f c682 803f 5483 803f f282 803f
00000260: 0504 7f3f c682 803f 5081 803f f282 803f
00000270: 6ef9 7e3f c682 803f 1b83 803f f282 803f
00000280: 1efc 7e3f c682 803f 9d81 803f f282 803f
00000290: d407 7f3f c682 803f fa82 803f f282 803f
000002a0: 2908 7f3f c682 803f 4d82 803f f282 803f
000002b0: 11fa 7e3f c682 803f 2c7b 803f f282 803f
000002c0: a2f9 7e3f c682 803f bc81 803f f282 803f
000002d0: 5dfe 7e3f c682 803f 3d83 803f f282 803f
000002e0: 6706 7f3f c682 803f c781 803f f282 803f
000002f0: 4303 7f3f cd82 803f 3582 803f fa82 803f
0.99602836 0.9959939 1.0040025 1.0039961 0.9960437 1.0039909 1.0038995 1.0039961
0.9960178 1.0039909 1.0040023 1.0039961 0.99611247 1.0039909 1.0037769 1.0039961
0.9961263 1.0039909 1.0039873 1.0039961 0.9962985 1.0039909 1.0039955 1.0039961
0.9962477 1.0039909 1.0039682 1.0039961 0.9962159 1.0039909 1.0039163 1.0039961
0.9960599 1.0039909 1.003994 1.0039961 0.99600816 1.0039909 1.0039091 1.0039961
0.9960433 1.0039909 1.0039127 1.0039961 0.9960199 1.0039909 1.0039471 1.0039961
0.9964012 1.0039909 1.0039454 1.0039961 0.99625224 1.0039909 1.0038532 1.0039961
0.9961103 1.0039909 1.0040015 1.0039961 0.9961895 1.0039909 1.0039384 1.0039961
0.9961324 1.0039909 1.0039382 1.0039961 0.9960084 1.0039909 1.0039192 1.0039961
0.9964047 1.0039909 1.0039024 1.0039961 0.9960037 1.0039909 1.0039756 1.0039961
0.99618924 1.0039909 1.0039977 1.0039961 0.9962644 1.0039909 1.003915 1.0039961
0.9960595 1.0039909 1.003936 1.0039961 0.99601287 1.0039909 1.0039545 1.0039961
0.9961631 1.0039909 1.0039626 1.0039961 0.9962471 1.0039909 1.0039195 1.0039961
0.99625677 1.0039909 1.0039105 1.0039961 0.99608356 1.0039909 1.0039809 1.0039961
0.99623245 1.0039909 1.0039518 1.0039961 0.99857795 1.0039909 1.0039387 1.0039961
0.99614525 1.0039909 1.0038751 1.0039961 0.997112 1.0039909 1.0039948 1.0039961
0.99620116 1.0039909 1.0039276 1.0039961 0.9961417 1.0039909 1.0039568 1.0039961
0.9962083 1.0039909 1.003953 1.0039961 0.9960144 1.0039909 1.0039996 1.0039961
0.99607515 1.0039909 1.0038431 1.0039961 0.9962829 1.0039909 1.0040078 1.0039961
0.9961551 1.0039909 1.0039463 1.0039961 0.9959935 1.0039909 1.004001 1.0039961
0.9960345 1.0039909 1.0039555 1.0039961 0.9962132 1.0039909 1.0039971 1.0039961
0.99621826 1.0039909 1.0039765 1.0039961 0.9960032 1.0039909 1.0037589 1.0039961
0.9959966 1.0039909 1.0039592 1.0039961 0.9960688 1.0039909 1.0040051 1.0039961
0.99619144 1.0039909 1.0039605 1.0039961 0.9961435 1.0039917 1.0039736 1.0039971

rgb_norm.bias f4 [192]
00000000: 7e24 823b b545 83bb 2327 83bb ebf1 823b
00000010: 7ba4 813b fac6 823b 408c 7fbb e9f1 823b
00000020: ab7c 823b c0c6 823b cd25 83bb e4f1 823b
00000030: 28c6 7e3b bbc6 823b a583 77bb edf1 823b
00000040: 05df 7d3b afc6 823b aea7 82bb ebf1 823b
00000050: fa95 723b a9c6 823b 81ec 82bb eaf1 823b
00000060: 8fe9 753b a0c6 823b 6d07 82bb ecf1 823b
00000070: 3e00 783b a9c6 823b 9853 80bb eaf1 823b
00000080: f71b 813b aac6 823b 4ee0 82bb eff1 823b
00000090: b2cd 823b a4c6 823b 2118 80bb e9f1 823b
000000a0: 00a7 813b a3c6 823b f435 80bb f1f1 823b
000000b0: 136c 823b a8c6 823b 6256 81bb edf1 823b
000000c0: 64db 6b3b a4c6 823b e446 81bb e8f1 823b
000000d0: 6a9d 753b a1c6 823b b085 7cbb edf1 823b
000000e0: ebe9 7e3b acc6 823b 8a1e 83bb e8f1 823b
000000f0: c9ba 793b a6c6 823b a60d 81bb edf1 823b
00000100: 4a78 7d3b a6c6 823b d80b 81bb edf1 823b
00000110: fecb 823b a9c6 823b 0b6d 80bb ecf1 823b
00000120: ce9e 6b3b 9dc6 823b f3bf 7fbb eff1 823b
00000130: aff3 823b a8c6 823b 7245 82bb e8f1 823b
00000140: fabd 793b a4c6 823b e8fe 82bb eaf1 823b
00000150: b8d0 743b abc6 823b 2f49 80bb ebf1 823b
00000160: ce1f 813b a6c6 823b d6f8 80bb ecf1 823b
00000170: 6ea6 823b a7c6 823b 8694 81bb e9f1 823b
00000180: fd74 7b3b a2c6 823b c2d8 81bb eaf1 823b
00000190: 74f3 753b acc6 823b 2d6f 80bb f0f1 823b
000001a0: 8151 753b aec6 823b 0e24 80bb edf1 823b
000001b0: 9c55 803b 9dc6 823b 9171 82bb eef1 823b
000001c0: 7ce8 763b acc6 823b a47d 81bb ebf1 823b
000001d0: 2f5e ba3a aac6 823b 8a0f 81bb ecf1 823b
000001e0: b8a0 7c3b a0c6 823b caf4 7dbb ebf1 823b
000001f0: 5f45 3d3b acc6 823b 63e6 82bb eaf1 823b
00000200: f2f5 783b a0c6 823b e1b2 80bb ebf1 823b
00000210: f1db 7c3b afc6 823b d7a7 81bb f0f1 823b
00000220: d07e 783b a4c6 823b 6f87 81bb eaf1 823b
00000230: b999 823b abc6 823b d40e 83bb ecf1 823b
00000240: 289c 803b a8c6 823b c0dc 7bbb ebf1 823b
00000250: ac9b 733b acc6 823b 2d54 83bb ebf1 823b
00000260: fffa 7b3b a2c6 823b 2c50 81bb ebf1 823b
00000270: 4549 833b aac6 823b 0c1a 83bb eef1 823b
00000280: 78f1 813b a9c6 823b 449c 81bb ebf1 823b
00000290: 082c 783b a6c6 823b aff8 82bb ebf1 823b
000002a0: d7d6 773b a6c6 823b ce4b 82bb eff1 823b
000002b0: aef7 823b aec6 823b fe55 76bb e5f1 823b
000002c0: b22f 833b 98c6 823b 9cbb 81bb eff1 823b
000002d0: 7dd1 803b 9bc6 823b 073d 83bb ebf1 823b
000002e0: 9a99 793b a8c6 823b 6ac6 81bb eff1 823b
000002f0: 07bc 7c3b f9ce 823b b834 82bb 1efa 823b
0.0039716354 -0.0040061125 -0.004002468 0.003996124 0.003956375 0.003991005 -0.0038993508 0.003996123
0.0039821467 0.003990978 -0.004002309 0.0039961208 0.0038875435 0.0039909757 -0.0037767675 0.003996125
0.0038737666 0.00399097 -0.003987274 0.003996124 0.0037015663 0.0039909673 -0.0039954786 0.0039961236
0.0037523245 0.003990963 -0.0039681704 0.0039961245 0.0037841941 0.0039909673 -0.003916215 0.0039961236
0.0039401012 0.0039909678 -0.0039940244 0.003996126 0.003991806 0.003990965 -0.0039091264 0.003996123
0.0039566755 0.0039909645 -0.0039126817 0.003996127 0.0039801686 0.003990967 -0.003947065 0.003996125
0.0035988921 0.003990965 -0.0039452184 0.0039961226 0.003747786 0.0039909636 -0.0038531832 0.003996125
0.003889675 0.0039909687 -0.0040014433 0.0039961226 0.0038105717 0.003990966 -0.0039383946 0.003996125
0.0038676434 0.003990966 -0.0039381795 0.003996125 0.003991603 0.0039909673 -0.003919249 0.0039961245
0.003595281 0.0039909617 -0.0039024323 0.003996126 0.0039963345 0.003990967 -0.0039755637 0.0039961226
0.003810762 0.003990965 -0.0039976723 0.0039961236 0.0037355851 0.003990968 -0.003914974 0.003996124
0.003940559 0.003990966 -0.0039359136 0.0039961245 0.003987125 0.0039909664 -0.003954473 0.003996123
0.003836929 0.003990964 -0.003962607 0.0039961236 0.0037529143 0.0039909687 -0.003919503 0.0039961264
0.0037432613 0.0039909696 -0.003910548 0.003996125 0.0039164554 0.0039909617 -0.0039808233 0.0039961254
0.0037675193 0.0039909687 -0.003951745 0.003996124 0.0014218743 0.0039909678 -0.00393862 0.0039961245
0.0038547944 0.003990963 -0.0038750642 0.003996124 0.002888046 0.0039909687 -0.0039947494 0.0039961236
0.0037988392 0.003990963 -0.003927574 0.003996124 0.0038583244 0.00399097 -0.0039567756 0.0039961264
0.0037917383 0.003990965 -0.0039529125 0.0039961236 0.0039856103 0.003990968 -0.0039995704 0.0039961245
0.0039248653 0.003990967 -0.0038431138 0.003996124 0.0037171645 0.0039909687 -0.0040078373 0.003996124
0.0038449166 0.003990964 -0.003946325 0.003996124 0.004006537 0.0039909678 -0.0040009078 0.0039961254
0.003965553 0.0039909673 -0.003955396 0.003996124 0.0037868042 0.003990966 -0.0039969306 0.003996124
0.0037817264 0.003990966 -0.003976322 0.003996126 0.003996811 0.0039909696 -0.0037587876 0.003996121
0.0040034885 0.0039909594 -0.0039591324 0.003996126 0.003931223 0.003990961 -0.0040050778 0.003996124
0.0038085938 0.003990967 -0.0039604204 0.003996126 0.0038564221 0.003991958 -0.0039735697 0.0039971014

thermal_norm.weight f4 [192]
00000000: c4fb 7e3f 3483 803f bef9 7e3f e982 803f
00000010: cbfc 7e3f be82 803f 8400 7f3f e982 803f
00000020: 03fb 7e3f be82 803f bff9 7e3f e982 803f
00000030: 3501 7f3f be82 803f a908 7f3f e982 803f
00000040: 2b02 7f3f be82 803f b4fa 7e3f e982 803f
00000050: 970d 7f3f be82 803f 33fa 7e3f e982 803f
00000060: 1d0a 7f3f be82 803f f7fb 7e3f e982 803f
00000070: 2b08 7f3f be82 803f 72ff 7e3f e982 803f
00000080: b0fd 7e3f be82 803f 4dfa 7e3f e982 803f
00000090: 71fa 7e3f be82 803f edff 7e3f e982 803f
000000a0: bcfc 7e3f be82 803f a8ff 7e3f e982 803f
000000b0: 31fb 7e3f be82 803f 5afd 7e3f e982 803f
000000c0: 4d14 7f3f be82 803f 82fd 7e3f e982 803f
000000d0: 730a 7f3f be82 803f 8403 7f3f e982 803f
000000e0: 1f01 7f3f be82 803f caf9 7e3f e982 803f
000000f0: 3306 7f3f be82 803f d7fd 7e3f e982 803f
00000100: a702 7f3f be82 803f f2fd 7e3f e982 803f
00000110: 5cfa 7e3f be82 803f 12ff 7e3f e982 803f
00000120: 7f14 7f3f be82 803f 6100 7f3f e982 803f
00000130: 1afa 7e3f be82 803f 8bfb 7e3f e982 803f
00000140: 5206 7f3f be82 803f 0cfa 7e3f e982 803f
00000150: 250b 7f3f be82 803f 74ff 7e3f e982 803f
00000160: b8fd 7e3f be82 803f 2dfe 7e3f e982 803f
00000170: adfa 7e3f be82 803f ecfc 7e3f e982 803f
00000180: ab04 7f3f be82 803f 5ffc 7e3f e982 803f
00000190: 040a 7f3f be82 803f 3eff 7e3f e982 803f
000001a0: c70a 7f3f be82 803f c7ff 7e3f e982 803f
000001b0: 57ff 7e3f be82 803f 23fb 7e3f e982 803f
000001c0: 3109 7f3f be82 803f 1cfd 7e3f e982 803f
000001d0: dda2 7f3f be82 803f f4fd 7e3f e982 803f
000001e0: 8103 7f3f be82 803f 2502 7f3f e982 803f
000001f0: d742 7f3f be82 803f 3afa 7e3f e982 803f
00000200: 1607 7f3f be82 803f b0fe 7e3f e982 803f
00000210: 2203 7f3f be82 803f c9fc 7e3f e982 803f
00000220: 8407 7f3f be82 803f dffc 7e3f e982 803f
00000230: dcfa 7e3f be82 803f d7f9 7e3f e982 803f
00000240: e7fe 7e3f be82 803f 1e04 7f3f e982 803f
00000250: 7d0c 7f3f be82 803f 5ff9 7e3f e982 803f
00000260: 2b04 7f3f be82 803f 70fd 7e3f e982 803f
00000270: 6bf9 7e3f be82 803f d6f9 7e3f e982 803f
00000280: 2afc 7e3f be82 803f d7fc 7e3f e982 803f
00000290: ca07 7f3f be82 803f 0efa 7e3f e982 803f
000002a0: 1608 7f3f be82 803f 7afb 7e3f e982 803f
000002b0: 1cfa 7e3f be82 803f db09 7f3f e982 803f
000002c0: 9cf9 7e3f be82 803f a0fc 7e3f e982 803f
000002d0: 59fe 7e3f be82 803f 8cf9 7e3f e982 803f
000002e0: 6f06 7f3f be82 803f 76fc 7e3f e982 803f
000002f0: 3b03 7f3f c682 803f a8fb 7e3f f182 803f
0.99602914 1.004004 0.99599826 1.0039951 0.9960448 1.0039899 0.9961016 1.0039951
0.99601763 1.0039899 0.9959983 1.0039951 0.99611217 1.0039899 0.9962259 1.0039951
0.99612683 1.0039899 0.9960129 1.0039951 0.9963011 1.0039899 0.99600524 1.0039951
0.99624807 1.0039899 0.9960322 1.0039951 0.9962184 1.0039899 0.9960853 1.0039951
0.99605846 1.0039899 0.9960068 1.0039951 0.99600893 1.0039899 0.9960926 1.0039951
0.9960439 1.0039899 0.9960885 1.0039951 0.9960204 1.0039899 0.99605334 1.0039951
0.9964035 1.0039899 0.9960557 1.0039951 0.9962532 1.0039899 0.9961474 1.0039951
0.99611086 1.0039899 0.995999 1.0039951 0.99618834 1.0039899 0.9960608 1.0039951
0.9961342 1.0039899 0.9960624 1.0039951 0.9960077 1.0039899 0.99607956 1.0039951
0.9964065 1.0039899 0.99609953 1.0039951 0.99600375 1.0039899 0.99602574 1.0039951
0.9961902 1.0039899 0.9960029 1.0039951 0.9962638 1.0039899 0.9960854 1.0039951
0.99605894 1.0039899 0.9960659 1.0039951 0.9960125 1.0039899 0.9960468 1.0039951
0.996165 1.0039899 0.9960384 1.0039951 0.9962466 1.0039899 0.9960822 1.0039951
0.9962582 1.0039899 0.99609035 1.0039951 0.9960837 1.0039899 0.99601954 1.0039951
0.996234 1.0039899 0.99604964 1.0039951 0.99857885 1.0039899 0.9960625 1.0039951
0.9961472 1.0039899 0.9961265 1.0039951 0.99711365 1.0039899 0.99600565 1.0039951
0.9962019 1.0039899 0.9960737 1.0039951 0.99614155 1.0039899 0.9960447 1.0039951
0.9962084 1.0039899 0.996046 1.0039951 0.9960153 1.0039899 0.99599975 1.0039951
0.996077 1.0039899 0.9961566 1.0039951 0.9962843 1.0039899 0.9959926 1.0039951
0.99615735 1.0039899 0.99605465 1.0039951 0.9959933 1.0039899 0.9959997 1.0039951
0.9960352 1.0039899 0.99604553 1.0039951 0.9962126 1.0039899 0.99600303 1.0039951
0.99621713 1.0039899 0.9960247 1.0039951 0.99600387 1.0039899 0.99624413 1.0039951
0.99599624 1.0039899 0.99604225 1.0039951 0.99606854 1.0039899 0.9959953 1.0039951
0.9961919 1.0039899 0.99603975 1.0039951 0.99614304 1.0039909 0.99602747 1.003996

thermal_norm.bias f4 [192]
00000000: 5f1e 82bb 5241 833b 7a21 833b 98ea 82bb
00000010: e19a 81bb 8cbe 82bb 1e7c 7f3b 96ea 82bb
00000020: 397e 82bb 50be 82bb 2b20 833b 91ea 82bb
00000030: ceca 7ebb 4bbe 82bb 3f57 773b 9aea 82bb
00000040: d6d4 7dbb 3ebe 82bb f9a5 823b 98ea 82bb
00000050: b768 72bb 39be 82bb 6de6 823b 97ea 82bb
00000060: 28e3 75bb 2fbe 82bb 6d04 823b 99ea 82bb
00000070: 03d5 77bb 3abe 82bb 3d47 803b 96ea 82bb
00000080: 0328 81bb 3bbe 82bb 65d9 823b 9cea 82bb
00000090: 5dc7 82bb 32be 82bb 8c09 803b 97ea 82bb
000000a0: fda1 81bb 32be 82bb 1e2c 803b 9eea 82bb
000000b0: 5567 82bb 38be 82bb 7553 813b 9aea 82bb
000000c0: 84b3 6bbb 34be 82bb 333f 813b 94ea 82bb
000000d0: d38c 75bb 30be 82bb a77c 7c3b 9bea 82bb
000000e0: 8ce1 7ebb 3bbe 82bb f91a 833b 94ea 82bb
000000f0: 99cc 79bb 35be 82bb f614 813b 9aea 82bb
00000100: fc58 7dbb 36be 82bb 3d07 813b 9aea 82bb
00000110: fed1 82bb 38be 82bb 1977 803b 9aea 82bb
00000120: 1181 6bbb 2cbe 82bb f29e 7f3b 9cea 82bb
00000130: 2af3 82bb 38be 82bb 8a3a 823b 95ea 82bb
00000140: e2ad 79bb 34be 82bb 2ffa 823b 97ea 82bb
00000150: d8da 74bb 3bbe 82bb 3446 803b 98ea 82bb
00000160: 2624 81bb 35be 82bb dfe9 803b 9aea 82bb
00000170: 38a9 82bb 37be 82bb f789 813b 96ea 82bb
00000180: 0455 7bbb 31be 82bb 98d0 813b 97ea 82bb
00000190: 72fc 75bb 3abe 82bb 1761 803b 9bea 82bb
000001a0: 5038 75bb 3ebe 82bb 8e1c 803b 99ea 82bb
000001b0: 3654 80bb 2cbe 82bb 1f6f 823b 9cea 82bb
000001c0: f8cf 76bb 3cbe 82bb 9471 813b 98ea 82bb
000001d0: 3048 baba 3abe 82bb 5e06 813b 99ea 82bb
000001e0: d87e 7cbb 2fbe 82bb d1db 7d3b 98ea 82bb
000001f0: d829 3dbb 3bbe 82bb 76e3 823b 97ea 82bb
00000200: 31ea 78bb 30be 82bb 02a8 803b 98ea 82bb
00000210: 06dd 7cbb 3fbe 82bb bb9b 813b 9eea 82bb
00000220: cf7b 78bb 34be 82bb 9490 813b 97ea 82bb
00000230: 2492 82bb 3bbe 82bb 8d14 833b 98ea 82bb
00000240: 9d8c 80bb 38be 82bb 4de3 7b3b 98ea 82bb
00000250: 7383 73bb 3bbe 82bb b450 833b 98ea 82bb
00000260: 27d5 7bbb 32be 82bb a748 813b 99ea 82bb
00000270: e849 83bb 3abe 82bb f614 833b 9bea 82bb
00000280: a4ea 81bb 39be 82bb 0595 813b 98ea 82bb
00000290: bc35 78bb 36be 82bb 16f9 823b 99ea 82bb
000002a0: 47e9 77bb 35be 82bb 6343 823b 9cea 82bb
000002b0: 88f2 82bb 3dbe 82bb dc24 763b 91ea 82bb
000002c0: ea31 83bb 27be 82bb 88b0 813b 9aea 82bb
000002d0: 66d3 80bb 2cbe 82bb e239 833b 98ea 82bb
000002e0: c890 79bb 36be 82bb f8c4 813b 9cea 82bb
000002f0: d4c4 7cbb bcc6 82bb ba2b 823b 06f3 82bb
-0.0039709057 0.0040055895 0.0040017935 -0.003995251 -0.0039552306 -0.00399 0.0038983892 -0.00399525
-0.003982332 -0.003989972 0.0040016375 -0.0039952477 -0.0038878205 -0.00398997 0.0037741212 -0.003995252
-0.0038731596 -0.003989964 0.0039870706 -0.003995251 -0.0036988684 -0.0039899615 0.003994754 -0.0039952504
-0.003751943 -0.003989957 0.0039678128 -0.0039952514 -0.0037816174 -0.003989962 0.0039147423 -0.00399525
-0.0039415373 -0.0039899624 0.0039932006 -0.003995253 -0.003991051 -0.003989958 0.003907388 -0.0039952504
-0.003956078 -0.003989958 0.003911509 -0.0039952537 -0.0039796033 -0.003989961 0.0039467164 -0.003995252
-0.0035965154 -0.003989959 0.0039443015 -0.003995249 -0.003746797 -0.0039899573 0.0038526447 -0.0039952523
-0.003889176 -0.0039899624 0.004001018 -0.003995249 -0.0038116334 -0.0039899596 0.0039392663 -0.003995252
-0.0038657775 -0.00398996 0.0039376304 -0.003995252 -0.003992318 -0.003989961 0.0039204475 -0.003995252
-0.0035935084 -0.0039899554 0.003900465 -0.003995253 -0.0039962726 -0.003989961 0.0039742636 -0.0039952495
-0.0038098027 -0.003989959 0.0039971094 -0.0039952504 -0.0037361886 -0.0039899624 0.003914619 -0.003995251
-0.003941077 -0.0039899596 0.0039341296 -0.003995252 -0.0039874576 -0.0039899605 0.0039532143 -0.00399525
-0.0038350234 -0.0039899577 0.003961634 -0.0039952504 -0.0037534502 -0.003989962 0.003917824 -0.0039952523
-0.0037417598 -0.003989964 0.003909654 -0.0039952514 -0.0039162887 -0.0039899554 0.003980532 -0.003995253
-0.003766058 -0.003989963 0.003950307 -0.003995251 -0.0014212187 -0.003989962 0.0039375266 -0.0039952514
-0.0038527753 -0.003989957 0.0038735757 -0.003995251 -0.0028864052 -0.0039899624 0.0039944006 -0.0039952504
-0.0037981386 -0.0039899573 0.003926278 -0.003995251 -0.0038583889 -0.0039899643 0.003955332 -0.0039952537
-0.0037915593 -0.003989959 0.0039540026 -0.0039952504 -0.0039847065 -0.0039899624 0.0040002526 -0.003995251
-0.0039230124 -0.003989961 0.0038435042 -0.003995251 -0.0037157207 -0.0039899624 0.0040074233 -0.003995251
-0.003842661 -0.003989958 0.0039454284 -0.0039952514 -0.004006613 -0.003989962 0.0040003015 -0.0039952523
-0.003964739 -0.0039899615 0.003954532 -0.003995251 -0.0037873825 -0.00398996 0.0039969785 -0.0039952514
-0.0037828253 -0.0039899596 0.0039753183 -0.003995253 -0.003996197 -0.0039899633 0.003755859 -0.0039952477
-0.004003753 -0.003989953 0.0039578117 -0.003995252 -0.0039314507 -0.0039899554 0.004004703 -0.003995251
-0.003808068 -0.00398996 0.003960248 -0.003995253 -0.0038569467 -0.003990976 0.003972498 -0.003996256

fusion_layer.0.weight f4 [1, 2, 1]
00000000: e77d 21bf 09aa 143f
-0.63082737 0.58071953
