model_paths/AMPNet.pth (torch, 7435 bytes, 5 tensors)

rgb_norm.weight f4 [192]
00000000: 25dd be3e 8c15 273f e9cf 153f f0a4 2e3f
00000010: db39 183f a9ba 7f3f 54f9 833f 4a15 683f
00000020: bb7d 663f 9f53 6e3f abbf 663f baf7 563f
00000030: 434d 543f d270 853f b54c 7e3f 0024 903f
00000040: 1fb8 8b3f 7cf0 8c3f dbd3 833f 6ed7 853f
00000050: 4d3c 853f d4ea 883f 5a89 803f 23cd 7c3f
00000060: d793 6d3f d1a1 7d3f 2273 763f 8acc 853f
00000070: d178 833f 83b5 8a3f 4945 823f bc0f 863f
00000080: ccec 803f e660 8c3f 37b7 823f 5850 873f
00000090: c7a1 823f b443 893f 39ad 813f 4cac 8d3f
000000a0: cffd 883f 920b 8d3f 6f22 853f 7d4f 873f
000000b0: 7383 843f 7b91 833f c6f0 7d3f 2273 863f
000000c0: 0e24 813f 4eba 883f 4a5d 793f 4ec8 763f
000000d0: 7e60 713f b586 883f 3e4d 833f 63fd 8a3f
000000e0: 8569 843f 1832 8c3f 4f20 883f 7be5 8f3f
000000f0: eefa 893f 79f0 8f3f bc83 853f 647e 873f
00000100: 1259 843f 066c 873f bae6 7b3f b128 823f
00000110: 3c2a 823f 9a97 893f 303c 873f d6ef 8c3f
00000120: 9db2 863f adc0 8d3f 50e5 853f 8cb9 893f
00000130: 34d2 853f 4f8e 853f 4868 7c3f d74f 843f
00000140: de5f 7f3f 6387 893f e4a8 843f d34e 8b3f
00000150: c7f9 863f 3774 8c3f e568 843f 6fb3 8d3f
00000160: d051 883f d4e3 8c3f 4db6 813f 7d5d 833f
00000170: 6dda 7f3f ed81 8a3f 6409 853f 5128 8e3f
00000180: cd43 893f 0e43 903f 9b4b 883f a157 8a3f
00000190: c21b 863f 9bf4 8c3f b6e2 7f3f be1b 7c3f
000001a0: c1d8 6d3f 3a3f 763f 809f 753f 0066 7c3f
000001b0: e1a8 813f 54e4 883f f15a 813f 766f 863f
000001c0: 3780 7f3f 5fec 833f a29e 7a3f edab 843f
000001d0: 68c7 823f f601 8c3f c742 833f 9f16 883f
000001e0: 7b5b 823f 2c17 873f 7b00 793f e4c1 813f
000001f0: d523 7f3f 8e41 893f 640e 863f 289e 883f
00000200: 99d8 7d3f dbf3 7f3f 8f23 743f 81ed 833f
00000210: c9db 7f3f 8d9c 883f 28d1 803f 3ca3 823f
00000220: 44e6 7e3f 52d0 843f e317 833f 53aa 883f
00000230: d818 853f bd70 873f 3cd7 783f 3321 793f
00000240: 6bcf 6f3f 9e00 853f 5573 823f 2736 913f
00000250: cb0c 8f3f 89ef 943f 8da1 863f 9fd2 833f
00000260: d0eb 763f 8502 833f 003a 7d3f a5c4 883f
00000270: bab5 833f d439 8a3f 330e 833f 959c 893f
00000280: 5ecb 8a3f e46a 933f a992 8d3f 46ca 903f
00000290: a441 8a3f e2d2 8e3f 82fe 8a3f 277b 8b3f
000002a0: 2269 883f f495 8e3f 4cf1 823f 9088 833f
000002b0: afc3 7b3f ad7a 803f dd91 783f 0ae4 7a3f
000002c0: f791 703f aea5 633f 080b 513f 2f37 603f
000002d0: 0715 513f 2c19 523f 1eae 4f3f c58b 6c3f
000002e0: 1712 7f3f 97e0 8f3f 969a 8b3f f8ad 8e3f
000002f0: 020d 963f c7ab 8d3f 751d 833f d0ae 0b3f
0.37278095 0.6526725 0.5852037 0.68220425 0.5946328 0.99894196 1.0310464 0.90657485
0.900356 0.93096346 0.9013621 0.8397175 0.8293039 1.0425055 0.99335796 1.1260986
1.0915564 1.101089 1.0299028 1.0456369 1.0409027 1.0696664 1.0041916 0.98750514
0.9280371 0.9907504 0.9626943 1.0453045 1.0271245 1.0836643 1.0177394 1.0473552
1.0072265 1.0967071 1.0212163 1.0571394 1.020562 1.0723786 1.0130988 1.1068206
1.0702456 1.1019156 1.0401133 1.0571133 1.0352615 1.0278772 0.99195516 1.0503886
1.0089128 1.0681856 0.9740797 0.9639939 0.9428786 1.0666109 1.0257947 1.0858577
1.0344702 1.0952787 1.063486 1.1241907 1.0779703 1.1245261 1.0430827 1.0585446
1.0339682 1.0579841 0.98398936 1.0168668 1.0169139 1.074939 1.0565243 1.1010692
1.0523258 1.1074425 1.0460606 1.075975 1.0454774 1.0434054 0.9859662 1.0336865
0.99755657 1.0744442 1.0364041 1.088343 1.0544976 1.0972966 1.0344511 1.1070384
1.0649967 1.1007028 1.0133759 1.0262905 0.99942666 1.08209 1.0393491 1.1106054
1.0723816 1.1270463 1.0648073 1.0807992 1.0477221 1.1012148 0.9995531 0.9847983
0.92908865 0.96190226 0.959465 0.9859314 1.0129663 1.069468 1.0105878 1.0502765
0.99805015 1.030651 0.97898304 1.0364968 1.0217104 1.0938098 1.0254754 1.0631903
1.0184168 1.0553946 0.9726636 1.0137296 0.9966405 1.0723131 1.0473142 1.0673265
0.99158627 0.9998147 0.9536676 1.0306855 0.9994474 1.0672776 1.006383 1.0206065
0.9957011 1.0376074 1.0241665 1.0676979 1.0398207 1.058128 0.9720342 0.97316283
0.9367587 1.0390813 1.0191447 1.1344651 1.1175779 1.16356 1.0518051 1.0298651
0.9645357 1.0235144 0.98916626 1.0685011 1.0289834 1.0798898 1.0238708 1.075091
1.0843313 1.1516995 1.1060382 1.1311729 1.0801282 1.1158106 1.085892 1.0896958
1.0657084 1.1139512 1.0229888 1.027605 0.98345464 1.0037438 0.9709757 0.9800421
0.93972725 0.8892468 0.8165746 0.87584203 0.8167271 0.8206966 0.81125057 0.9240077
0.9963698 1.1240414 1.0906551 1.1146841 1.172272 1.1068047 1.0243365 0.5456362

rgb_norm.bias f4 [192]
00000000: 4873 143d e01b 1fbc ebc3 acbc 9913 f1bd
00000010: f008 ebbd 3753 aa3e d6bc 313f 0b26 073f
00000020: 1dce e53e 53ee 543e d0d1 58bd 5b72 b5be
00000030: 031f d5be 8d3a 4bbe ee8f 84be 3db3 3a3c
00000040: 40ff cdbd 30e2 643d b415 1a3c dd7c 973e
00000050: 189f 023e 31bf 2e3e a6f1 5d3d 6804 fd3d
00000060: 6817 77bd 7471 e83c 7f72 52bd 95d4 df3d
00000070: 7d0a 94bd 80c3 313d b9b1 26bd a0bd 033e
00000080: de65 8bbd a966 0f3d 7b0a 12bd b7c9 323e
00000090: 12d4 553c 5843 053e 7fe7 313d db34 5f3e
000000a0: c85b 2cbc a8d3 603d 5a1e 6abd 256e b93d
000000b0: c11a c7bd 43ef 2d3c 2a7a 80bd cbff de3d
000000c0: d8d1 b6bd 35fa 94bb 5fd5 f8bd a77d 9c3c
000000d0: 3a73 18be d1d5 9dbc 425a 54bd 8bc2 323e
000000e0: d97d e13c 4a04 153e 0488 973d a2d6 6a3e
000000f0: a300 5cba 7985 933d 755e 17bd e602 f53d
00000100: 60bb 97bd 2c21 1e3d 0344 0abd 818b 143e
00000110: a7fe 91bc 0419 bb3d 9d8e 803b 7eab 2f3e
00000120: b689 35bd ecaa 373d 1bd1 54bd 54d9 ff3d
00000130: a320 8bbd 2665 313d 4e14 39bd e527 063e
00000140: 67e8 61bd f78f 1a3d ae7d 2abd d54d 153e
00000150: cb10 3bbd 782f 963d c2fc 31bc f0de 233e
00000160: f512 74bd f058 8e3d ac32 9dbc 1746 1a3e
00000170: 39ec debc 642d ca3d 01b1 c43b 7752 3c3e
00000180: b804 0bbd f534 a73d d2fe bebc 20a8 203e
00000190: a220 3bbd fd91 253d d955 75bd 284f c93d
000001a0: ab2f bdbd 4cff a7bb c52c 9dbd dfb2 c63d
000001b0: a8fd 63bd 970a 5e3d c278 88bc c1a0 1e3e
000001c0: 1e74 28bd b53e 0a3d 9b43 5dbd 6a09 ca3d
000001d0: 4f55 d7bd f6d2 c5bb 9dad 98bd 04db f63d
000001e0: 230a 29bd 5dd6 943d 12a2 5dbb 00cc 253e
000001f0: 5204 c0bc d7c8 783d 2558 1dbd b7d5 003e
00000200: 0a25 a9bd 9eaa c13b 954b 84bd 2404 fa3d
00000210: 873a 2fbd d7b7 983d bee6 75bb a74c 2a3e
00000220: b70d c2bb 826a cf3d 784b 5c3c 8eeb 403e
00000230: d957 c7bc 39a9 8c3d 0188 38bd 536a c33d
00000240: 9c45 babd af62 11bc a065 afbd c04f e03d
00000250: 1fca dabd 326e ae3c 74b8 9dbd 15fd a63d
00000260: 6b82 08be 6856 7cbd 0477 00be 88b1 983d
00000270: e999 a0bd 8079 923d 0f80 703c 5f0a 413e
00000280: 5f65 a4bc e5e1 983d 9490 03bd de38 183e
00000290: 38e2 42bd 255d a53d 5b25 d73c b08d 503e
000002a0: e32b 343c 74b0 da3d 7155 3b3c da20 253e
000002b0: b3d6 f1bc 351e 24be 7796 90be fd35 5fbe
000002c0: 5556 a7be 847d ecbe db59 13bf 1e09 fbbe
000002d0: f741 0fbf 4abd 16bf d668 2abf 3c4f f4be
000002e0: 1464 acbe 0add 2ebe 63d4 87bd 78df 613e
000002f0: 9a53 9a3e 6333 473d 272c edbc 303a f63b
0.036242753 -0.009711236 -0.021089515 -0.11771316 -0.11476314 0.33266613 0.69428766 0.52792424
0.44883814 0.20794038 -0.052934468 -0.3543881 -0.41625223 -0.19846554 -0.2589106 0.011395273
-0.10058451 0.05587977 0.0094045885 0.2958745 0.12756002 0.17065121 0.054185532 0.12354356
-0.060325056 0.028374411 -0.051378723 0.10929219 -0.07228563 0.043399334 -0.040696833 0.12865305
-0.06806539 0.035010014 -0.035654526 0.1745976 0.01305105 0.13013971 0.043433663 0.21797507
-0.010519929 0.05488935 -0.05715785 0.090542115 -0.097219 0.0106161265 -0.06273301 0.108886324
-0.08926743 -0.0045464286 -0.12150072 0.019102884 -0.14887705 -0.019266995 -0.05184389 0.17457025
0.02752583 0.14552417 0.0739899 0.22933438 -0.0008392429 0.07203192 -0.036955316 0.119634435
-0.07408786 0.038605854 -0.033756267 0.14506342 -0.017821623 0.09135631 0.003923251 0.17155263
-0.044320785 0.04484074 -0.05195723 0.12492624 -0.06793334 0.043309353 -0.04518538 0.13101156
-0.055153277 0.03773495 -0.041623764 0.14580472 -0.045670312 0.07333273 -0.010863485 0.16003013
-0.05958839 0.06950557 -0.019189201 0.150658 -0.02721225 0.09871939 0.006002546 0.18390833
-0.033940047 0.081643976 -0.023314867 0.15689135 -0.045685418 0.04042243 -0.059896324 0.09829551
-0.092376076 -0.0051268693 -0.07674555 0.09702086 -0.055661827 0.054209318 -0.016659144 0.1549101
-0.041126363 0.03375121 -0.05401955 0.09865077 -0.10514318 -0.0060371114 -0.07454989 0.12053493
-0.041269433 0.07267449 -0.0033818525 0.16191101 -0.02343956 0.06073841 -0.03841414 0.12581526
-0.08259018 0.0059102317 -0.06459729 0.12207821 -0.042780425 0.0745694 -0.0037521566 0.16630803
-0.005922045 0.10127737 0.0134457275 0.18839857 -0.024333881 0.06868214 -0.04505158 0.09541764
-0.09095308 -0.008873626 -0.08564305 0.10952711 -0.10683083 0.02129278 -0.07701197 0.0815374
-0.13331 -0.06160584 -0.12545401 0.074557364 -0.07841856 0.071520805 0.014678969 0.18851613
-0.020067869 0.07464961 -0.032120302 0.14865443 -0.04757902 0.080744065 0.02626293 0.2036655
0.0109967915 0.10678187 0.011433945 0.16125813 -0.029521322 -0.16027148 -0.28239796 -0.21797939
-0.32683054 -0.4618951 -0.57558984 -0.49030393 -0.5596003 -0.5888258 -0.66566217 -0.477167
-0.33670104 -0.17076507 -0.066323064 0.22057903 0.30141908 0.04863299 -0.028951718 0.0075142607

thermal_norm.weight f4 [192]
00000000: 58ab 3a3f b1de 623f 05e1 643f c2d3 6b3f
00000010: 0bed 613f dd9b 873f 5a69 9f3f ab77 7b3f
00000020: f474 633f 674b 873f 4f22 953f b657 893f
00000030: dd50 833f 428e 863f 2873 653f ecf7 783f
00000040: e138 6f3f c1da 7f3f c481 7e3f 73fa 7b3f
00000050: 86b2 663f 55a9 7a3f 4346 813f 70b1 753f
00000060: 3a7a 693f 8500 843f a828 823f 6cf9 7a3f
00000070: 815c 673f f61a 873f 800a 853f fa33 7c3f
00000080: 4c90 5d3f 72ba 843f 0e1c 803f e63d 7c3f
00000090: 1eff 6c3f c99a 8a3f 02b1 8e3f 3c43 823f
000000a0: 4dcf 633f 458b 593f 2cd0 6f3f f382 803f
000000b0: 2e70 7b3f 0c28 853f f917 833f 83a7 7e3f
000000c0: 8d1e 693f 2db4 823f b606 873f 3c2b 873f
000000d0: a0eb 733f cd92 923f 8000 8c3f f337 823f
000000e0: d071 6e3f b60b 893f 2fda 883f 4c75 823f
000000f0: 75ff 603f 5a00 713f 557c 783f 0f6f 6d3f
00000100: f7b4 643f 5673 783f a32b 883f 8ca9 923f
00000110: 9968 7d3f e748 813f 5d85 763f 3385 803f
00000120: 0895 663f 6b77 873f 91a2 853f a8ff 7e3f
00000130: f1d1 6e3f df75 843f 3843 843f d140 6f3f
00000140: 378c 6b3f 7a08 7a3f a0a3 823f 0d9d 813f
00000150: 1b88 7e3f c117 853f 090d 6f3f 67fe 6c3f
00000160: 3b5d 563f d126 783f 31de 7d3f c6d9 7f3f
00000170: 4ab4 713f 6301 7a3f 5caa 853f 5c35 833f
00000180: e6ec 5f3f 88aa 8e3f 4f50 883f c174 813f
00000190: be87 6c3f 5657 673f 851d 6a3f bc66 723f
000001a0: 6b2b 673f 53ea 7c3f 786c 753f 6848 7b3f
000001b0: d1f2 823f 8655 8e3f 23ff 853f 3599 833f
000001c0: 6bd6 5e3f 9194 7b3f 7528 7c3f b13f 6a3f
000001d0: 8f23 573f 574d 5f3f 743a 663f 3572 6e3f
000001e0: 1ee2 5c3f 8f73 7e3f 6a1c 833f 2d2e 833f
000001f0: 04ce 753f 48b1 8e3f def0 863f bdb9 8a3f
00000200: 9a0a 7a3f eefd 893f 5091 8e3f fab3 8e3f
00000210: c2d4 853f cf48 843f 49b6 853f af59 793f
00000220: 8d3f 583f b358 6a3f 6f8d 673f fb53 633f
00000230: 864d 593f 92be 803f dca1 813f 358c 863f
00000240: 7766 7a3f 6376 803f 5cc3 863f 6b0e 843f
00000250: 9a50 763f f06d 843f f75c 823f 5c04 7f3f
00000260: e107 5c3f 2ef4 833f 095f 7d3f 01e0 6f3f
00000270: b3be 633f d1a6 7d3f a999 813f e712 7b3f
00000280: 732b 663f 3b0e 783f 887e 7c3f c6db 783f
00000290: e455 743f 456f 853f e300 813f b231 823f
000002a0: 4cd3 713f ebd8 8c3f e374 903f cc0d 923f
000002b0: 1e84 733f fe17 753f ca28 683f 62a6 713f
000002c0: 7806 663f a340 803f 00bf 7a3f 3d31 7a3f
000002d0: 406e 803f 6fa2 8a3f f7ff 883f fb2c 6b3f
000002e0: 0e5a 7e3f 64c6 7f3f ebef 6d3f b718 8a3f
000002f0: af1e 883f 3e15 823f 3e3f 5f3f ae59 333f
0.729177 0.8862105 0.8940585 0.9211999 0.88252324 1.0594441 1.2454026 0.98229474
0.8885033 1.0569886 1.1651095 1.0729892 1.0259053 1.0512164 0.8962884 0.972533
0.93446165 0.99943167 0.99416757 0.9842903 0.90116155 0.9791463 1.0099567 0.95973873
0.9120213 1.0312659 1.0168657 0.9803684 0.90375525 1.0555103 1.0393829 0.9851681
0.86548305 1.0369399 1.0008562 0.9853195 0.9257678 1.0828487 1.1147768 1.0176768
0.8898819 0.84978133 0.9367702 1.0039963 0.9821805 1.0402846 1.0241691 0.9947435
0.9106224 1.0211235 1.0548923 1.0560069 0.9528141 1.145105 1.0937653 1.0173324
0.93142414 1.0706699 1.0691584 1.0192046 0.87889796 0.9414116 0.97064716 0.92747587
0.8933863 0.9705099 1.0638317 1.1457992 0.9898773 1.0100373 0.96297246 1.0040649
0.90071154 1.0583318 1.0440236 0.9960885 0.93289095 1.0348471 1.0333014 0.93458277
0.92010826 0.97669184 1.0206184 1.0126053 0.9942643 1.0397874 0.93379265 0.9257569
0.8373601 0.9693423 0.9916716 0.9994167 0.94415724 0.97658366 1.0442615 1.0250659
0.87470853 1.1145792 1.0649508 1.0113755 0.92394626 0.9036764 0.91451293 0.9468801
0.90300626 0.9879505 0.95868635 0.9815736 1.0230352 1.111985 1.0468487 1.028113
0.87045926 0.9827357 0.9849923 0.91503435 0.84038633 0.87227386 0.8993294 0.93143016
0.8628253 0.9939508 1.0243046 1.0248467 0.9601748 1.1147852 1.0542257 1.0837933
0.97672427 1.0780618 1.1138096 1.1148674 1.0455554 1.033472 1.0446254 0.9740247
0.8447197 0.91541594 0.90450186 0.8880002 0.84883916 1.0058157 1.012752 1.0511538
0.978126 1.0036129 1.0528369 1.03169 0.9621674 1.034605 1.0184621 0.99616027
0.8594952 1.0308893 0.9897314 0.9370118 0.8896286 0.99082667 1.0125018 0.9807572
0.8991005 0.96896714 0.9863057 0.9721035 0.9544356 1.0424582 1.0078396 1.0171416
0.9446304 1.1003698 1.1285671 1.141046 0.9512347 0.95739734 0.9068724 0.94394505
0.8985362 1.0019726 0.9794769 0.9773138 1.0033646 1.0830821 1.0703114 0.9186551
0.9935616 0.99912095 0.9294421 1.0788792 1.0634364 1.0162733 0.87205875 0.70058715

thermal_norm.bias f4 [192]
00000000: ac2a 933d 05ba 5c3d 304b 303d 58b4 12bd
00000010: fc9e 98bc a857 c63d 36de 863e 5b2d 553e
00000020: 41f9 c93d 5748 993d e2b4 743c cfde 0fbe
00000030: 58e9 20be f799 38bd 293b a6bd 725e 163d
00000040: d08a ecbc 8f2e 5e3d 8c53 dd3c 9bcc eb3d
00000050: dd6f 373c 3f64 703d 11cf 823c c433 533d
00000060: b4e3 3dbd fe21 4d3c c310 92bc acbc 2c3d
00000070: 4f75 59bd 30ca 0d3c 34f6 c2bc 2ba9 523d
00000080: 6a61 4abd 1294 523c fdca 25bc 8675 993d
00000090: e47a 9cbb 1b1c 753d b52e bc3c b93a d03d
000000a0: 242c cebc b116 ae3c a16c febc ca2c e03c
000000b0: bcc8 75bd 1694 093b 865a dcbc 5f4c 4f3d
000000c0: 279b 31bd 40f1 e23a cbcc 0bbd d70a 3ebb
000000d0: d779 b0bd 18ad 88bc 951b 22bd 0181 893d
000000e0: c89b 15bc 30e2 8c3d e327 293d e1e5 cd3d
000000f0: d83d 9cbc 5950 113d cb58 22bc 3f78 213d
00000100: f8d8 45bd 47a2 7a3c 8803 5eba ffca 903d
00000110: 81e8 69bc 738d e43c 2ab0 dfba dc13 833d
00000120: e6fd ebbc dc8f a83c a95a 9bbc e84d 543d
00000130: aa2e 1bbd b707 cf3c 4b40 80bc 95ae 933d
00000140: 1696 08bd 50c3 013d a153 15bb 6657 873d
00000150: d2fe c6bc a56b 133d 53e1 133b 0a18 743d
00000160: f291 56bd 3902 cd3c 153f 05bc e706 843d
00000170: 2513 c3bc 5dce 1f3d 937b ea3b 98cd a73d
00000180: 095b 37bc 124e 733d 70c9 de3c a7b1 a23d
00000190: 04a8 c1bc b0dc fd3c e553 a4bc 3d88 1d3d
000001a0: 1d40 59bd f1a0 80bc a875 e2bc c798 393d
000001b0: 0f37 0fbd 7972 cd3c aab7 5abc 0ad3 8f3d
000001c0: fcad d8bc 484f bb3c ff9a 9abc 1aa8 283d
000001d0: c72b 66bd ff2b 693c ccc9 ddbc 16d6 5e3d
000001e0: de9a febc 2ddd 423d 7577 643b 40b5 ab3d
000001f0: dcc5 b3bc 5018 f63c c582 e6bc 73c3 2c3d
00000200: b9c8 59bd e247 44bb 6bad a9bc 3862 8f3d
00000210: 2538 1abd baec 153d e3f7 25bc f489 893d
00000220: 006b c3bc 4f35 3d3d e4ae 903c 390d b43d
00000230: a3bb e8bc 656d 2f3d 0867 64bc f6b0 283d
00000240: 76e0 49bd 2962 df3b 0c4a 9dbc cfe1 563d
00000250: d75d 41bd 4b02 bd3c 3759 87bc 75d0 473d
00000260: c4e8 70bd 16b1 b4bc 147a 5cbd 30d4 d13c
00000270: 039b 60bd ba6e 103d ec48 463c 4bf0 8e3d
00000280: 53e0 bebc fce3 0a3d c203 37bc eed5 543d
00000290: 281b 36bd 28c1 363d 525a a83c 3403 b93d
000002a0: c926 5fb9 831e 6f3d 9cab 833c beba 9a3d
000002b0: 27ea 22bd fae7 83bd 16e7 d3bd d51a 9ebd
000002c0: 91e2 febd 1c11 3dbe 206f 6bbe e904 46be
000002d0: 8a2b 6cbe b5d9 79be 9599 94be c792 4cbe
000002e0: e697 ddbd 24b5 2ebd 2c01 87bc 3426 413d
000002f0: a694 353d 9a94 2e3d bfe4 593d 6786 de3d
0.071858734 0.05388834 0.043040454 -0.03581652 -0.018630497 0.09684688 0.26341408 0.20818083
0.098619945 0.07484501 0.014935704 -0.14049838 -0.15714014 -0.045068707 -0.08116753 0.036711164
-0.028874785 0.05424362 0.027017377 0.11513635 0.011196104 0.058689352 0.015967878 0.05156304
-0.046359733 0.012520311 -0.017830258 0.04217212 -0.05309039 0.008654162 -0.02379904 0.051430862
-0.049409308 0.0128526855 -0.010119197 0.07493119 -0.004775392 0.059841257 0.02297149 0.101674505
-0.025167532 0.021251054 -0.031057658 0.027365107 -0.06000589 0.0020992807 -0.026898634 0.050609943
-0.043360855 0.001731433 -0.034130853 -0.002899816 -0.08616989 -0.0166841 -0.039577086 0.06714059
-0.009131379 0.06879079 0.041297805 0.100536115 -0.019072458 0.035477016 -0.009908865 0.039421316
-0.04830262 0.015297479 -0.0008469154 0.070699684 -0.014276625 0.02789948 -0.0017066051 0.06400272
-0.028807592 0.02057641 -0.018964129 0.05183211 -0.0378863 0.025272233 -0.015655657 0.07211033
-0.033346258 0.031680405 -0.0022785442 0.06608467 -0.02429143 0.03599133 0.0022564724 0.059593238
-0.052385278 0.025025474 -0.008132716 0.06446629 -0.02381284 0.039015163 0.0071558445 0.08193511
-0.011191138 0.059400626 0.027195662 0.07944041 -0.023639686 0.030989021 -0.020059535 0.038460005
-0.05303966 -0.015701743 -0.027643993 0.045311715 -0.034964617 0.025078999 -0.013349453 0.070226744
-0.02645015 0.022864953 -0.018872736 0.04117594 -0.056194093 0.014231681 -0.027073763 0.054403387
-0.031079706 0.04757421 0.003486124 0.0838418 -0.021944933 0.03004089 -0.028138528 0.042178582
-0.05316994 -0.0029950072 -0.020712575 0.070011556 -0.0376512 0.036602713 -0.010129902 0.067157656
-0.023854733 0.046193417 0.01766152 0.087915845 -0.028409785 0.042828936 -0.01394058 0.041184388
-0.04928633 0.0068171215 -0.019200347 0.05246144 -0.047208633 0.023072382 -0.016522033 0.048782784
-0.058815733 -0.022057097 -0.05382736 0.025613874 -0.05483533 0.035261847 0.012102347 0.06979426
-0.023300325 0.03390883 -0.0111703295 0.05196183 -0.044459492 0.044617802 0.02055088 0.09033814
-0.00021281386 0.058378708 0.01607304 0.075551495 -0.039774086 -0.064407304 -0.103468105 -0.077199616
-0.12445558 -0.18463558 -0.2299161 -0.1933781 -0.23063484 -0.24399455 -0.29023424 -0.19977866
-0.10819988 -0.042653218 -0.016480051 0.047155574 0.044331215 0.042622186 0.053196665 0.10865479

fusion_layer.0.weight f4 [1, 2, 1]
00000000: 1a1d 443e 31ba ae3c
0.19151726 0.021329017
