model_paths/best_model_RTrPPG_fold_1.pth (torch, 871746 bytes, 37 tensors)

Conv1.0.weight f4 [16, 3, 1, 5, 5]
0.10996088 0.021944555 -0.022483047 0.064929396 -0.0076601976 -0.055524457 -0.0196211 0.07631616
0.062428124 0.016638149 0.0946629 -0.018231524 0.06257105 -0.04678322 -0.018211449 -0.0564698
0.112145685 -0.0621967 0.09310215 0.090369225 0.022099968 -0.08634243 0.0150227295 0.068100646
0.10908587 -0.04196846 0.07244396 -0.10235051 -0.10197499 0.067496344 0.09360416 -0.10306234
0.037853986 0.1091768 0.025499199 -0.07894889 0.019059755 0.0075753243 -0.10728879 0.05284758
0.047700856 -0.09474608 0.04979623 -0.100461565 -0.09131948 0.08966832 -0.03887153 -0.0072704614
-0.095846936 0.07698046 -0.0070270468 0.07697626 0.10629822 0.08586988 -0.08036971 -0.02241053
-0.10966224 -0.005397467 -0.055962294 -0.0507592 0.08075904 0.0744916 -0.000695184 0.028356887
0.10667667 0.06948398 -0.05096051 0.03395935 0.008422553 -0.10304444 -0.07055591 0.08535633
0.06953464 0.04190105 -0.053178467 0.07744935 0.10583737 0.06485064 -0.03293552 0.09639489
0.0076460633 -0.08485189 -0.044978622 -0.07535421 -0.004863206 0.001411291 0.106685385 0.09765427
-0.05319408 -0.07431285 0.04437555 0.05459376 -0.07018592 0.09777087 -0.028914588 -0.09498106
0.046137568 -0.023256894 -0.09091139 0.025063217 0.0072307545 0.09896375 0.022195395 0.062160928
0.10086995 -0.010013929 -0.110569105 -0.0924787 -0.08522506 0.0942602 0.009025959 0.028558735
0.01929788 -0.010686836 -0.012255418 0.032535926 -0.09232257 -0.043136157 -0.009746087 -0.018499304
0.00895912 0.10921399 0.1030022 0.029810034 -0.009141825 0.046082724 0.006556272 0.03512288
-0.028778601 0.060569167 -0.011387557 0.10995519 -0.033734437 -0.099478446 0.016299652 0.027948372
0.045599192 0.075312346 0.082558654 -0.029681833 0.048739113 0.075057596 0.0031681168 0.077901796
0.09579195 0.048793986 -0.021242747 0.09772267 -0.110771336 -0.11032133 -0.030371763 0.05189065
0.007746081 0.105963714 0.03996861 0.05844687 0.10340546 0.052712265 0.10440676 -0.03736515
-0.105046645 -0.10991399 -0.10213359 -0.09460825 -0.013043439 -0.02727726 0.044569895 -0.03163508
-0.07273422 0.07662907 0.011879261 0.08903048 -0.0836305 0.042966906 0.061395533 -0.06933641
0.10304363 -0.0059113023 -0.035282817 0.016885934 -0.08256725 0.113674514 -0.02415134 -0.074540965
-0.01739752 -0.0026560172 -0.035324313 -0.05176155 0.1089403 -0.0017536981 0.037773017 0.008501652
-0.007838273 -0.09616586 0.10339852 -0.044629846 -0.05511556 0.041382737 -0.04824415 -0.10427913
-0.0019596585 0.021779193 -0.04342464 -0.075765185 0.00406935 -0.05910872 -0.040097363 0.01292472
-0.028795455 -0.011880101 -0.013768265 -0.07273403 0.028201593 -0.0519627 -0.09932128 -0.04068927
0.021824645 -0.062145237 0.02981183 0.007822039 -0.04462607 0.065606594 0.063382335 -0.0024117867
-0.102246776 0.044280365 0.108680084 -0.027041934 0.07571245 0.06878903 0.040567636 -0.0133500425
-0.024834624 0.023662554 -0.1011213 0.11124549 0.053610057 0.0065908544 0.031117147 -0.024432804
-0.08342291 0.091366515 0.10509225 0.037850227 0.07631814 0.057629168 -0.07894491 -0.019279826
-0.072273284 -0.0029652768 -0.06733519 -0.028222276 0.0074044275 -0.090189055 0.075731575 -0.11360207
00000000: 2b33 e13d 11c5 b33c 5e2e b8bc b4f9 843d
00000010: 6502 fbbb 9d6d 63bd 6ebc a0bc a64b 9c3d
00000020: a2b4 7f3d ba4c 883c 9fde c13d 475a 95bc
00000030: 4025 803d c39f 3fbd 2d30 95bc e14c 67bd
00000040: a3ac e53d f8c1 7ebd 57ac be3d 8013 b93d
00000050: fe0a b53c 4dd4 b0bd e521 763c 5a78 8b3d
00000060: 6a68 df3d 1fe7 2bbd 805d 943d 259d d1bd
00000070: 43d8 d0bd 863b 8a3d 8ab3 bf3d 5912 d3bd
00000080: c80c 1b3d 1698 df3d b2e3 d03c f5af a1bd
00000090: 3423 9c3c 6d3a f83b 3aba dbbd b476 583d
000000a0: f961 433d 3c0a c2bd 22f7 4b3d cbbe cdbd
000000b0: b505 bbbd 06a4 b73d c137 1fbd 0d3d eebb
000000c0: 664b c4bd eea7 9d3d 2443 e6bb bba5 9d3d
000000d0: e2b2 d93d 8cdc af3d e098 a4bd 4a96 b7bc
000000e0: 9996 e0bd 3cdd b0bb b838 65bd e1e8 4fbd
000000f0: ff64 a53d 0d8f 983d 023d 36ba b44c e83c
00000100: 4c79 da3d 9e4d 8e3d f8bb 50bd f618 0b3d
00000110: bffe 093c f708 d3bd 9e7f 90bd 4dcf ae3d
00000120: 2d68 8e3d 6fa0 2b3d aad1 59bd c49d 9e3d
00000130: 43c1 d83d 6ad0 843d 65e7 06bd af6a c53d
00000140: d48b fa3b d4c6 adbd 813b 38bd 4f53 9abd
00000150: 875b 9fbb 11fb b83a de7d da3d f6fe c73d
00000160: 09e2 59bd 5631 98bd 23c3 353d b59d 5f3d
00000170: a3bd 8fbd 183c c83d 49de ecbc 6e85 c2bd
00000180: bffa 3c3d 3e85 bebc c02f babd 6051 cd3c
00000190: f7ef ec3b 82ad ca3d 1ed3 b53c 759c 7e3d
000001a0: e894 ce3d 7611 24bc 0e72 e2bd 7965 bdbd
000001b0: 7a8a aebd 7e0b c13d 9ee1 133c 02f4 e93c
000001c0: 9616 9e3c d717 2fbc f3ca 48bc 6444 053d
000001d0: 9e13 bdbd 8aaf 30bd 0dae 1fbc da8b 97bc
000001e0: 46c9 123c 96ab df3d d1f2 d23d 2c34 f43c
000001f0: 98c7 15bc 3dc1 3c3d ffd5 d63b 02dd 0f3d
00000200: 1ac1 ebbc 6017 783d e092 3abc 3030 e13d
00000210: 1f2d 0abd 5bbb cbbd d986 853c fcf3 e43c
00000220: 38c6 3a3d 5c3d 9a3d 8314 a93d 5127 f3bc
00000230: aaa2 473d ccb7 993d 2ea0 4f3b fa8a 9f3d
00000240: 922e c43d 34dc 473d 4505 aebc d322 c83d
00000250: 15dc e2bd 26f0 e1bd 34ce f8bc 4a8b 543d
00000260: d6d2 fd3b 8103 d93d 20b6 233d fc65 6f3d
00000270: 3ec6 d33d d1e8 573d 36d3 d53d 330c 19bd
00000280: b222 d7bd 961a e1bd 6a2b d1bd f8c1 c1bd
00000290: 26b4 55bc 8f74 dfbc ec8e 363d c993 01bd
000002a0: aef5 94bd b4ef 9c3d 3ba1 423c 9d55 b63d
000002b0: 7846 abbd 11fe 2f3d e279 7b3d 3f00 8ebd
000002c0: 8a08 d33d 99b3 c1bb b784 10bd 5f54 8a3c
000002d0: 0519 a9bd 2fce e83d 08d9 c5bc efa8 98bd
000002e0: 3e85 8ebc 9310 2ebb 3ab0 10bd eb03 54bd
000002f0: 181c df3d 58dc e5ba e1b7 1a3d 834a 0b3c
00000300: 1a6c 00bc 9bf2 c4bd 9ac2 d33d c9cd 36bd
00000310: dac0 61bd f280 293d a89b 45bd 4c90 d5bd
00000320: 9d6d 00bb 476a b23c 09de 31bd c72a 9bbd
00000330: 2f58 853b fc1b 72bd 223d 24bd 34c2 533c
00000340: 72e4 ebbc c1a4 42bc 4a94 61bc 94f5 94bd
00000350: 0707 e73c d7d6 54bd f568 cbbd cba9 26bd
00000360: 99c9 b23c 018c 7ebd f037 f43c 0228 003c
00000370: d3c9 36bd c05c 863d 99ce 813d 110f 1ebb
00000380: c266 d1bd 545f 353d aa93 de3d 0c87 ddbc
00000390: 210f 9b3d 43e1 8c3d 402a 263d 23ba 5abc
000003a0: fb71 cbbc f9d7 c13c af18 cfbd add4 e33d
000003b0: 3896 5b3d 18f8 d73b 63e9 fe3c 4e27 c8bc
000003c0: a1d9 aabd 5e1e bb3d 9b3a d73d d708 1b3d
000003d0: af4c 9c3d 900c 6c3d dead a1bd baf0 9dbc
000003e0: 0404 94bd 1755 42bb 08e7 89bd 6732 e7bc
000003f0: d7a0 f23b 0ab5 b8bd 2819 9b3d 34a8 e8bd

Conv1.0.bias f4 [16]
0.016487334 -0.10409081 0.009989837 0.09667559 0.024175335 -0.074518636 -0.0044320915 -0.054734834
-0.10514366 -0.03701696 -0.037869822 0.048408147 -0.06662426 0.06536909 0.090536185 0.041104045
00000000: 7210 873c 902d d5bd 6aac 233c dafd c53d
00000010: 5a0b c63c 3a9d 98bd 143b 91bb a231 60bd
00000020: 8f55 d7bd 199f 17bd 631d 1bbd 9f47 463d
00000030: 4d72 88bd 3be0 853d 096b b93d b75c 283d

Conv1.1.weight f4 [16]
0.9999093 0.9998684 1.0025421 1.0016874 0.9982699 1.0003091 0.99925524 0.99811554
0.999412 0.99953645 0.9993065 0.9989206 0.9983761 1.0012302 1.0000079 1.0019202
00000000: 0efa 7f3f 60f7 7f3f 4d53 803f 4b37 803f
00000010: 9e8e 7f3f 210a 803f 31cf 7f3f 8084 7f3f
00000020: 77d9 7f3f 9fe1 7f3f 8dd2 7f3f 43b9 7f3f
00000030: 9395 7f3f 5028 803f 4200 803f ec3e 803f

Conv1.1.bias f4 [16]
-0.000198911 0.00018108253 0.001958762 0.0012016784 -0.0011566511 -0.00054305873 0.00089555944 -0.0021954416
0.0011036507 0.0013293456 -0.00039236603 -0.0021006067 -0.0015787766 0.00046356357 0.00041613053 0.0016850908
00000000: c492 50b9 f9e0 3d39 935e 003b a381 9d3a
00000010: c59a 97ba 0e5c 0eba fac3 6a3a 66e1 0fbb
00000020: 5fa8 903a 703d ae3a 7ab6 cdb9 55aa 09bb
00000030: f4ee ceba 730a f339 182c da39 44de dc3a

Conv1.1.running_mean f4 [16]
0.17613226 0.17121963 -0.14938462 0.20968176 0.056291994 0.10959807 -0.0076917876 0.0182099
-0.08803045 -0.23991014 -0.2757193 0.14923184 0.13637938 -0.12842509 -0.10059227 0.27195588
00000000: 045c 343e 3354 2f3e 48f8 18be d1b6 563e
00000010: 6f92 663d f474 e03d 640b fcbb ee2c 953c
00000020: 4f49 b4bd 01ab 75be 152b 8dbe 3bd0 183e
00000030: 09a7 0b3e de81 03be 5203 cebd cd3d 8b3e

Conv1.1.running_var f4 [16]
0.4942957 0.49435434 0.49091288 0.49369758 0.4952386 0.49409992 0.4954917 0.49322224
0.49306837 0.4925671 0.4923045 0.49115297 0.4939993 0.49321488 0.49464676 0.49533588
00000000: 5314 fd3e 031c fd3e ef58 fb3e eec5 fc3e
00000010: ea8f fd3e aafa fc3e 17b1 fd3e a087 fc3e
00000020: 7573 fc3e c131 fc3e 560f fc3e 6778 fb3e
00000030: 7aed fc3e a986 fc3e 5742 fd3e aa9c fd3e

Conv2.0.weight f4 [32, 16, 1, 5, 5]
-0.04874755 0.04111656 0.008731649 0.03336966 0.015888195 -0.03544983 -0.013506024 0.030279376
0.04286664 -0.033698928 0.0318797 0.019492496 -0.012965945 0.02943861 0.004505048 0.023065912
0.03751227 -0.014458323 0.007521433 -0.0016185327 -0.010685014 0.023624763 -0.032171022 -0.023224073
-0.025924508 -0.035597492 0.046786904 0.025460552 -0.042292323 0.012218343 -0.01179543 -0.02449799
0.040420264 0.01689307 -0.037923206 -0.0283111 0.0084051555 -0.005751662 0.017137937 -0.042047475
0.0061598383 0.011662474 0.041807678 0.019486133 0.047175232 0.04770954 -0.028173883 0.00030384172
0.040802747 -0.013237012 0.03551737 -0.020789357 0.019301806 -0.030561155 0.0019802938 0.00051421457
-0.03786607 -0.009349471 -0.014391863 0.017333262 0.01326315 0.012018188 -0.036428012 -0.038348567
-0.0029908575 -0.014265601 0.033162955 -0.043182924 0.035263296 -0.021163613 -0.04076672 0.01590733
-0.027466895 -0.011401507 -0.025974946 -0.014023174 0.027787236 0.023894332 -0.023840094 0.037263837
0.037702046 0.04662966 0.009740609 -0.02121745 -0.013328483 0.029426284 0.043852106 0.0100083565
0.0134476945 0.03979185 -0.025743 -0.014453326 -0.041482594 -0.03418789 -0.048053876 0.048543256
0.024367446 0.003599646 0.0050564157 0.035106786 0.0166658 0.038213596 0.022108216 0.03752138
-0.018941183 0.024347706 0.044281967 -0.030601142 0.017657448 0.0485285 -0.044735946 -0.026603037
0.037157897 0.011789221 0.04211951 -0.025404679 0.04313979 0.051372893 -0.05038236 -0.0052673244
0.036658634 -0.042968385 -0.015689703 -0.014207554 -0.037178516 -0.04894367 0.025513597 0.0059484574
0.012328221 -0.00013541986 0.00977659 -0.0024923743 -0.023231884 0.017610136 0.03030429 -0.0049797874
-0.031599898 -0.03688611 0.02608585 0.03874426 -0.049458843 0.005085359 0.035422307 -0.020448584
0.026667325 0.021376891 0.043991067 -0.017835889 0.033065908 -0.030098014 -0.011884041 -0.021133162
-0.048060197 0.038603168 -0.041490827 -0.028994951 0.045674834 -0.017090186 -0.035792165 -0.02873823
0.044809114 -0.04191832 -0.00027943566 -0.04719071 -0.004921136 0.032439284 -0.010381496 -0.02077018
-0.04333012 -0.019204974 -0.038214304 0.03731817 0.03147745 0.032782227 -0.02784736 -0.031271636
0.01187964 -0.023452213 -0.021003263 -0.040784955 -0.04855278 -0.047835678 0.04010703 -0.046356846
0.02332688 0.020105554 0.047484457 -0.026294101 0.01576168 0.03941606 0.0013360042 0.007446136
-0.023120005 0.046916723 0.02543076 -0.033387467 0.04104033 -0.0075865784 -0.018657135 -0.041483063
0.031011445 -0.015608135 0.03472908 0.034512453 -0.014440149 -0.03954492 -0.016986359 -0.019839825
-0.043422867 0.04391718 -0.022451146 -0.027545288 0.0253709 -0.04408614 0.039896566 -0.029248405
-0.04008865 0.0044105668 0.019179625 -0.008029045 0.0040049925 0.037333235 0.033408742 0.010186301
0.041715 0.0038329212 0.013440698 -0.044374943 0.022449126 -0.043921124 -0.034163762 0.008396098
-0.015170842 0.050339855 -0.0029780462 0.0075716516 -0.017200854 -0.039511047 0.035302404 -0.0052591222
0.028613482 0.042775456 -0.04639828 -0.04592037 0.016917411 -0.016806401 0.024183437 -0.045010082
-0.032827135 -0.03012644 0.026539376 -0.035037745 -0.020996315 0.043200053 0.029716615 0.031499058
00000000: 83ab 47bd d769 283d 310f 0f3c a0ae 083d
00000010: f627 823c d733 11bd 5f48 5dbc 740c f83c
00000020: ee94 2f3d e307 0abd 4a94 023d baae 9f3c
00000030: 1d6f 54bc 3d29 f13c 159f 933b b9f4 bc3c
00000040: 77a6 193d 9ae2 6cbc 5a76 f63b f224 d4ba
00000050: 3210 2fbc b888 c13c c3c5 03bd 6940 bebc
00000060: a25f d4bc adce 11bd a0a3 3f3d a692 d03c
00000070: b73a 2dbd 722f 483c 9f41 41bc 02b0 c8bc
00000080: b88f 253d 5663 8a3c 5d55 1bbd aeec e7bc
00000090: c7b5 093c 7078 bcbb dc64 8c3c f939 2cbd
000000a0: 78d8 c93b f613 3f3c 873e 2b3d 62a1 9f3c
000000b0: d13a 413d 146b 433d eacc e6bc f24c 9f39
000000c0: c820 273d 0de0 58bc a97a 113d 714e aabc
000000d0: d21e 9e3c 635b fabc d1c7 013b 5bcc 063a
000000e0: 7419 1bbd 862e 19bc d9cb 6bbc 7cfe 8d3c
000000f0: af4d 593c efe7 443c 8a35 15bd 6313 1dbd
00000100: 4302 44bb 44ba 69bc e1d5 073d 94e0 30bd
00000110: 3f70 103d 505f adbc 01fb 26bd 1750 823c
00000120: 4102 e1bc 63cd 3abc 69c9 d4bc 74c1 65bc
00000130: 0fa2 e33c 0cbe c33c 4d4c c3bc f7a1 183d
00000140: 766d 1a3d befe 3e3d 1397 1f3c 38d0 adbc
00000150: b65f 5abc 640f f13c 449e 333d 17fa 233c
00000160: b853 5c3c c7fc 223d fce2 d2bc a5cd 6cbc
00000170: a7e9 29bd 9a08 0cbd 24d4 44bd 4bd5 463d
00000180: 3d9e c73c 0ae8 6b3b 4ab0 a53b 22cc 0f3d
00000190: b786 883c dc85 1c3d 4a1c b53c 05b0 193d
000001a0: 8a2a 9bbc d774 c73c 0261 353d 3faf fabc
000001b0: 5aa6 903c d2c5 463d 0a3d 37bd 9dee d9bc
000001c0: e132 183d 9427 413c 8285 2c3d 791d d0bc
000001d0: 59b3 303d 626c 523d bc5d 4ebd 8599 acbb
000001e0: 5d27 163d 9eff 2fbd b187 80bc cdc6 68bc
000001f0: 8048 18bd 2879 48bd e401 d13c 47eb c23b
00000200: 4ffc 493c 7eff 0db9 fe2d 203c 1a57 23bb
00000210: cb50 bebc 2243 903c b440 f83c 7c2d a3bb
00000220: e56e 01bd e415 17bd feb1 d53c 4db2 1e3d
00000230: 5b95 4abd 15a3 a63b fb16 113d ca83 a7bc
00000240: 6f75 da3c 971e af3c fa2f 343d 921c 92bc
00000250: 1e70 073d 1c90 f6bc 48b5 42bc 741f adbc
00000260: c5da 44bd 5b1e 1e3d 49f2 29bd d286 edbc
00000270: 8915 3b3d b800 8cbc ce9a 12bd 706c ebbc
00000280: c389 373d 8bb2 2bbd 3881 92b9 0c4b 41bd
00000290: 7b41 a1bb 0edf 043d 2617 2abc 3926 aabc
000002a0: ed7a 31bd c053 9dbc 9a86 1cbd f0da 183d
000002b0: 80ee 003d a846 063d 2620 e4bc b016 00bd
000002c0: d2a2 423c db1e c0bc 090f acbc 200e 27bd
000002d0: 48df 46bd 58ef 43bd 4547 243d ade0 3dbd
000002e0: 0318 bf3c 67b4 a43c 107f 423d ba66 d7bc
000002f0: a41e 813c bc72 213d dd1c af3a b7fe f33b
00000300: 2a66 bdbc c02b 403d 2b54 d03c 4cc1 08bd
00000310: e819 283d d598 f8bb d9d6 98bc 25ea 29bd
00000320: b70b fe3c 43b9 7fbc 1440 0e3d ee5c 0d3d
00000330: 6096 6cbc dbf9 21bd fa26 8bbc 2187 a2bc
00000340: 2ddc 31bd 80e2 333d 77eb b7bc a8a6 e1bc
00000350: a2d6 cf3c ab93 34bd 956a 233d 5a9a efbc
00000360: ff33 24bd 8486 903b 971e 9d3c 418c 03bc
00000370: 503c 833b bcea 183d 9bd7 083d 71e4 263c
00000380: 59dd 2a3d bf31 7b3b 6036 5c3c 80c2 35bd
00000390: 3be7 b73c a3e6 33bd 4def 0bbd ca8f 093c
000003a0: 208f 78bc 2a31 4e3d 532b 43bb 9e1b f83b
000003b0: cee8 8cbc 56d6 21bd 4199 103d b754 acbb
000003c0: d266 ea3c 5135 2f3d 1f0c 3ebd ff16 3cbd
000003d0: 6296 8a3c 94ad 89bc 581c c63c 7e5c 38bd
000003e0: bf75 06bd b9cb f6bc 1b69 d93c bd83 0fbd
000003f0: 7700 acbc 8af2 303d 4270 f33c 2805 013d

Conv2.0.bias f4 [32]
-0.028211264 0.031788822 -0.02874254 0.02893583 -0.03355504 0.0021657126 -0.011572538 -0.0065526757
-0.01354463 0.043308686 0.01659457 -0.03954418 0.011889376 0.014979651 0.006777231 -0.037115116
0.018366884 0.014901453 -0.0010975428 0.042991053 0.037204854 -0.024048625 -0.046438724 -0.005429773
0.024844544 -0.024148284 0.04648966 -0.03815933 0.026185026 -0.01194646 -0.02787503 0.033917416
00000000: 4f1b e7bc ff34 023d 7a75 ebbc d50a ed3c
00000010: 0271 09bd a1ee 0d3b be9a 3dbc d4b7 d6bb
00000020: 4cea 5dbc 7364 313d 56f1 873c 14f9 21bd
00000030: a8cb 423c 366d 753c 8913 de3b 0506 18bd
00000040: 2676 963c 3925 743c 6ddb 8fba 6317 303d
00000050: 1e64 183d 9f01 c5bc 8836 3ebd 3dec b1bb
00000060: c986 cb3c 9fd2 c5bc f16b 3e3d f54c 1cbd
00000070: fb81 d63c 16bb 43bc 2d5a e4bc fdec 0a3d

Conv2.1.weight f4 [32]
1.0008365 1.0002124 0.9998905 1.000681 0.9980181 1.0021427 1.0003492 0.99826086
1.0005764 0.99772805 0.99935013 0.99911803 0.9988508 1.0001633 1.0018581 1.0012505
0.9983493 1.0024594 0.9977643 0.99829894 0.99918604 0.99813086 0.9972121 0.9996488
0.99785423 0.9997418 0.9993036 1.0015906 0.99952465 1.0013081 0.99819875 1.0024103
00000000: 691b 803f f606 803f d3f8 7f3f 5116 803f
00000010: 1d7e 7f3f 3646 803f 710b 803f 068e 7f3f
00000020: e312 803f 1b6b 7f3f 69d5 7f3f 33c6 7f3f
00000030: b0b4 7f3f 5a05 803f e33c 803f fa28 803f
00000040: d293 7f3f 9750 803f 7b6d 7f3f 8590 7f3f
00000050: a8ca 7f3f 8185 7f3f 4b49 7f3f fce8 7f3f
00000060: 6073 7f3f 14ef 7f3f 5cd2 7f3f 1f34 803f
00000070: d9e0 7f3f dd2a 803f f489 7f3f fb4e 803f

Conv2.1.bias f4 [32]
0.0005241832 -0.0011490071 -0.0005200276 0.00055967394 -0.0015803997 0.002110151 -0.00034386083 -0.0019458497
-0.0013106191 -0.0024582657 -0.00090075994 -0.0012627591 -0.001380872 -0.0012756567 0.002258058 0.0011753432
-0.0018564964 0.0022598174 -0.0023078397 -0.001895799 0.0022618445 -0.0023967705 -0.0026377453 -0.0007228438
-0.002225688 -0.00037256602 -0.0011389987 -0.0015257746 -0.002474119 -0.0022314354 -0.0019577965 5.290004e-05
00000000: 5769 093a 489a 96ba 7652 08ba 15b7 123a
00000010: 6a25 cfba 764a 0a3b 3848 b4b9 e20b ffba
00000020: 14c9 abba db1a 21bb fa20 6cba 2a83 a5ba
00000030: 60fe b4ba f033 a7ba edfb 133b f90d 9a3a
00000040: af55 f3ba 7219 143b 203f 17bb 757c f8ba
00000050: 743b 143b 2313 1dbb 06de 2cbb 3a7d 3dba
00000060: d9dc 11bb f754 c3b9 744a 95ba 80fc c7ba
00000070: d424 22bb 463d 12bb 604e 00bb fce0 5d38

Conv2.1.running_mean f4 [32]
0.12586828 0.054882586 -0.2335735 -0.088255845 -0.6381292 -0.2542063 -0.03751885 0.22887647
-0.66850924 0.032993674 0.85821897 -0.69185036 0.22201502 -0.31401107 -0.7487014 -0.19197828
0.37494814 0.2900266 -0.17432585 0.4415861 -0.51172173 0.8349465 0.09505552 -0.7974883
0.078315265 -0.5086955 -0.30521762 -0.7104401 -0.62314993 -0.65835536 0.3275048 0.12534457
00000000: 9de3 003e 90cc 603d e42d 6fbe 7bbf b4bd
00000010: 6f5c 23bf 5427 82be 5ead 19bd 985e 6a3e
00000020: 6c23 2bbf 6024 073d 3db4 5b3f 1b1d 31bf
00000030: e857 633e 0fc6 a0be e5aa 3fbf f495 44be
00000040: 34f9 bf3e 5e7e 943e 7a82 32be 9317 e23e
00000050: 3200 03bf 0ebf 553f 78ac c23d 3128 4cbf
00000060: c163 a03d de39 02bf 7c45 9cbe 67df 35bf
00000070: c186 1fbf fa89 28bf b6ae a73e 545a 003e

Conv2.1.running_var f4 [32]
0.54840815 0.5419181 0.5464938 0.536752 0.60129535 0.55542433 0.57369673 0.5581067
0.5939896 0.5358024 0.5700981 0.56037366 0.5595347 0.5444564 0.585036 0.53803873
0.55762833 0.5493962 0.5495032 0.5752888 0.5663578 0.58961654 0.5636164 0.57164496
0.55116165 0.5746017 0.552757 0.57521886 0.5896476 0.5868936 0.5767388 0.54019326
00000000: 7a64 0c3f 25bb 0a3f 05e7 0b3f 9468 093f
00000010: 7eee 193f 4a30 0e3f cadd 123f 15e0 0e3f
00000020: b40f 183f 592a 093f f3f1 113f a674 0f3f
00000030: ab3d 0f3f 7f61 0b3f ebc4 153f e8bc 093f
00000040: bbc0 0e3f 3ba5 0c3f 3eac 0c3f 2046 133f
00000050: d3fc 103f 1cf1 163f 2a49 103f 5357 123f
00000060: ee18 0d3f 1919 133f 7c81 0d3f 8b41 133f
00000070: 25f3 163f a93e 163f 27a5 133f 1b4a 0a3f

Conv3.0.weight f4 [64, 32, 3, 3, 3]
-0.030239744 0.024819408 0.017637052 -0.008291361 0.02739585 0.0003949271 0.027754115 0.020787008
-0.027195094 -0.03148782 -0.025404504 0.0011262142 0.020640781 0.018161153 0.030808732 -0.0045673563
0.0069632716 -0.026015026 0.013345853 -0.008801823 0.014658599 0.025218258 -0.027326591 -0.018374901
0.0063574887 -0.028643364 0.011691872 0.014492213 0.00833567 -0.019631427 0.03376965 0.00021898975
0.0038409363 -0.013234998 0.0040469235 -0.030011551 0.0237483 0.0030337228 -0.0047222516 0.021182692
0.014274424 0.032992296 0.028221088 0.032421093 0.031225631 0.0071078492 -0.0064218235 -0.01752163
0.0057133483 0.018089935 0.010816433 -0.033099636 -5.9458645e-05 0.0050413236 -0.032573935 -0.024762122
0.00017659715 0.00901182 0.016010305 -0.0182001 -0.004573431 0.030741675 0.0140753 0.00331171
-0.019115755 0.0027694236 0.0035848848 0.015340794 -0.025418228 -0.0059127575 0.025095448 -0.024704846
0.0067817736 -0.026524158 -0.030971192 0.028422495 -0.03493233 0.028410956 -0.020760134 -0.008669187
0.02856652 0.018530168 -0.031478092 0.0033604943 -0.017306969 0.024875334 0.007954534 -0.019442363
0.02336057 0.021444505 0.010911797 -0.0031788063 0.02688417 0.004779715 0.0042596846 0.023338119
-0.011064464 0.007386634 0.032540992 -0.00338101 0.0028769178 -0.0033655763 -0.030233039 -0.004500316
-0.031296432 -0.012823684 -0.03380386 0.02714561 0.020534366 -0.025109202 -0.013769357 0.019582389
-0.029309172 0.013537722 -0.003174209 -0.031176917 -0.020986313 -0.015678078 0.030270873 0.013024539
0.015618062 0.020885255 0.014303678 0.01641269 -0.015065573 -0.027745463 0.006493357 -0.009145994
-0.019650776 -0.008836023 4.4372253e-05 -0.006414893 0.006736777 0.02950565 0.019194826 -0.016554948
-0.01673039 0.0019840864 0.0119962385 -0.032726776 0.029947927 -0.025981616 -0.009644787 -0.01372651
-0.031324554 -0.013325311 -0.013456661 -0.022800772 0.0015025834 -0.008422273 0.0058626425 0.03276531
0.012750982 -0.02036511 -0.033868343 0.029405566 0.010595102 -0.030026259 -0.010859784 -0.0055155763
-0.026245132 -0.025218124 -0.026128788 -0.006789327 0.017183721 -0.009382124 -0.031076837 -0.03205412
0.027059445 -0.015736299 -0.021699173 0.009000426 -0.032347623 -0.010991983 0.010741092 -0.023570448
0.004278987 0.034299653 0.0037664114 0.003509486 0.0028392144 -0.031073628 -0.014817478 0.023122126
-0.008268401 -0.004893095 0.014091803 -0.025959188 0.025909483 -0.008461354 0.030794784 0.024200024
0.025341056 -0.00088282046 0.025096253 -0.03182662 0.006629182 -0.022446672 0.025106559 -0.0024662658
-0.0058723427 0.03051859 0.028562954 0.021739451 -0.022790592 0.0314687 -0.0023043356 -0.02528406
0.017468065 -0.0010825322 -0.0010011911 -0.0065084384 0.0057690553 0.009469364 0.026489632 0.02814887
-0.02813672 -0.017045507 -0.023497418 -0.020002523 0.033562083 0.016722271 -0.027988752 0.025940536
-0.02087539 0.024074284 0.025984297 0.030326283 -0.007131536 -0.014329814 0.031154316 0.021562018
0.010775132 0.03380606 0.031276457 -0.033194277 -0.034920417 -0.025059791 -0.024427256 0.01808212
0.031382192 0.022104504 -0.006736577 -0.00501996 -0.018754737 -0.0039031608 0.021055324 0.007416016
-0.0023088474 -0.024869867 -0.01430825 -0.021625493 0.030462854 0.026742721 0.015511205 0.034479987
00000000: 57b9 f7bc 1252 cb3c 947b 903c 7dd8 07bc
00000010: 436d e03c 380e cf39 995c e33c 8449 aa3c
00000020: 3fc8 debc 5ff9 00bd 1b1d d0bc 7a9d 933a
00000030: db16 a93c b3c6 943c 9862 fc3c c3a9 95bb
00000040: 282c e43b 771d d5bc 91a8 5a3c 8535 10bc
00000050: 9f2a 703c 8596 ce3c 04dc dfbc f686 96bc
00000060: 7b52 d03b 7da5 eabc 448f 3f3c bf70 6d3c
00000070: 5692 083c 16d2 a0bc 0b52 0a3d 9da0 6539
00000080: 38b8 7b3b 9bd7 58bc 0e9c 843b c9da f5bc
00000090: cb8b c23c 6cd1 463b 1ebd 9abb 5387 ad3c
000000a0: 46df 693c ee22 073d e92f e73c fbcb 043d
000000b0: e5cc ff3c f6e8 e83b 296e d2bb 8589 8fbc
000000c0: 0a37 bb3b 5831 943c 6837 313c 7c93 07bd
000000d0: 3c63 79b8 b031 a53b 3f6c 05bd efd9 cabc
000000e0: f02c 3939 50a6 133c 0b28 833c 6018 95bc
000000f0: b8dc 95bb f7d5 fb3c 169c 663c 4609 593b
00000100: a598 9cbc 387f 353b 63f0 6a3b f457 7b3c
00000110: e339 d0bc cebf c1bb f894 cd3c d161 cabc
00000120: a439 de3b 3149 d9bc 4cb7 fdbc 4bd6 e83c
00000130: 3415 0fbd 18be e83c 2811 aabc 3509 0ebc
00000140: 5604 ea3c 94cc 973c 2cef 00bd bd3b 5c3b
00000150: 58c7 8dbc 5bc7 cb3c bc53 023c 9745 9fbc
00000160: ab5e bf3c 63ac af3c 65c7 323c 8553 50bb
00000170: 313c dc3c 289f 9c3b d394 8b3b 952f bf3c
00000180: ba47 35bc 940b f23b b449 053d ef93 5dbb
00000190: ac8a 3c3b 0091 5cbb 47ab f7bc 6377 93bb
000001a0: b030 00bd 6e1a 52bc eb75 0abd 7860 de3c
000001b0: b037 a83c d0b1 cdbc df98 61bc 3f6b a03c
000001c0: ca19 f0bc 52cd 5d3c 6406 50bb bc66 ffbc
000001d0: 7deb abbc 506f 80bc 9ffa f73c e064 553c
000001e0: e6e2 7f3c 8e17 ab3c f959 6a3c e873 863c
000001f0: 98d5 76bc 744a e3bc 3ac6 d43b 14d9 15bc
00000200: aafa a0bc f7c4 10bc 581c 3a38 0634 d2bb
00000210: 2ec0 dc3b d5b5 f13c 783e 9d3c 3e9e 87bc
00000220: 2c0e 89bc 7207 023b df8b 443c 830c 06bd
00000230: 5b55 f53c 66d7 d4bc 2b05 1ebc 28e5 60bc
00000240: 2d4e 00bd 6852 5abc 5479 5cbc afc8 babc
00000250: 55f2 c43a 93fd 09bc 691b c03b eb34 063d
00000260: 7fe9 503c bbd4 a6bc 88b9 0abd f1e3 f03c
00000270: 1497 2d3c a1f9 f5bc 3ced 31bc 02bc b4bb
00000280: 0800 d7bc 3d96 cebc 0a0c d6bc 0179 debb
00000290: e0c4 8c3c 7bb7 19bc da94 febc 2e4b 03bd
000002a0: c5ab dd3c 69e9 80bc 77c2 b1bc 8676 133c
000002b0: f17e 04bd b817 34bc 68fb 2f3c d016 c1bc
000002c0: bf36 8c3b cb7d 0c3d e6d5 763b 68ff 653b
000002d0: 1d12 3a3b 1f8e febc 02c5 72bc 9d6a bd3c
000002e0: 3078 07bc 4256 a0bb 4ee1 663c 5da8 d4bc
000002f0: 2040 d43c 7ea1 0abc 5845 fc3c 213f c63c
00000300: 0c98 cf3c 146d 67ba a896 cd3c a15c 02bd
00000310: 9c39 d93b 15e2 b7bc 45ac cd3c 13a1 21bb
00000320: c86c c0bb 1f02 fa3c dbfc e93c ef16 b23c
00000330: 56b3 babc 53e5 003d 5604 17bb 8420 cfbc
00000340: 3019 8f3c c1e3 8dba 663a 83ba bd44 d5bb
00000350: 580a bd3b 6425 1b3c c900 d93c 7698 e63c
00000360: fb7e e6bc 05a3 8bbc a87d c0bc 55dc a3bc
00000370: 6578 093d 25fd 883c ab48 e5bc 3f81 d43c
00000380: de02 abbc 6f37 c53c 05dd d43c d36e f83c
00000390: a9af e9bb 99c7 6abc 5637 ff3c d4a2 b03c
000003a0: 2e8a 303c 3978 0a3d be1b 003d b9f6 07bd
000003b0: b608 0fbd 314a cdbc ab1b c8bc f420 943c
000003c0: 9d8a 003d 8114 b53c 81be dcbb 7a7e a4bb
000003d0: 89a3 99bc 2ccc 7fbb 377c ac3c 0d02 f33b
000003e0: 0850 17bb e4bb cbbc 266d 6abc f227 b1bc
000003f0: 3c8d f93c 8d13 db3c b622 7e3c e33a 0d3d

Conv3.0.bias f4 [64]
-0.025097173 -0.012325778 -0.014074866 -0.01593043 -0.03352529 0.0030424546 0.008119287 0.024191314
-0.031224696 -0.0032471663 -0.002889406 0.015368441 -0.013405124 -0.0011074592 -0.031847052 -0.0010432934
-0.030522821 0.005037763 0.006753191 0.013668423 -0.033670563 0.0021496988 0.00032303066 0.026271617
-0.015490679 -0.013456474 -0.015973467 0.0017687079 0.0039864574 0.027486201 -0.009336791 -0.01982523
0.006985692 -0.01047612 0.021289425 0.0286747 -0.020237062 -0.025566269 -0.008516249 -0.007967937
-0.02292989 0.0061099697 0.034573838 -0.009916862 -0.02347911 -0.013861015 0.00024321358 0.01661552
0.011870775 -0.03012504 0.032532316 -0.005953002 -0.003592568 0.018790588 -0.010130947 -0.017891534
-0.026457775 -0.03136888 -0.0011990977 -0.01415722 -0.0144528905 0.008182494 -0.0030633572 -0.023638552
00000000: 9698 cdbc 0ff2 49bc 449a 66bc 8880 82bc
00000010: d151 09bd eb63 473b c206 053c dd2c c63c
00000020: efca ffbc 69ce 54bb 305c 3dbb eacb 7b3c
00000030: 2aa1 5bbc 2a28 91ba 0e72 02bd 1ebf 88ba
00000040: ff0a fabc d213 a53b df49 dd3b 85f1 5f3c
00000050: 25ea 09bd f6e1 0c3b 715c a939 9337 d73c
00000060: 9ecc 7dbc 8b78 5cbc cada 82bc fdd3 e73a
00000070: d4a0 823b be2a e13c 57f9 18bc 8568 a2bc
00000080: 3be8 e43b 08a4 2bbc 2967 ae3c 34e7 ea3c
00000090: 32c8 a5bc 5a70 d1bc bd87 0bbc f38b 02bc
000000a0: 77d7 bbbc 2436 c83b 4c9d 0d3d 557a 22bc
000000b0: 4357 c0bc 5019 63bc 2607 7f39 451d 883c
000000c0: a47d 423c cac8 f6bc 9b40 053d 6611 c3bb
000000d0: 4a71 6bbb b8ee 993c 46fc 25bc 4491 92bc
000000e0: fabd d8bc a87c 00bd 0b2b 9dba aff3 67bc
000000f0: d1cb 6cbc de0f 063c 9bc2 48bb a3a5 c1bc

Conv3.1.weight f4 [64]
1.0017644 0.9983714 1.0000736 1.0001826 0.9989569 1.0010469 1.0022354 1.0001323
1.0008353 1.0013669 0.99929523 0.998799 1.0011553 1.0010118 1.0008487 1.0001658
0.997632 1.0019242 0.9997709 0.9997262 1.0022995 0.99973786 0.9992095 0.9988201
1.0006374 1.0002936 0.99925685 1.0010116 1.0009483 0.9986148 1.0000889 1.002328
1.0016674 1.0016254 0.99914634 0.99994755 1.0030545 1.0001519 1.0013026 1.0014603
1.0009383 0.99872935 1.000237 1.0004678 0.99785024 1.0009581 1.0011194 1.0002801
0.9986115 0.99844885 0.99857086 1.0013813 0.99910873 1.0005356 0.99908334 0.99948406
1.0026551 1.0008433 1.0024207 0.9990216 0.99813986 0.9985792 1.0013847 0.9985731
00000000: d139 803f 4595 7f3f 6902 803f fc05 803f
00000010: a4bb 7f3f 4e22 803f 4049 803f 5604 803f
00000020: 5f1b 803f ca2c 803f d0d1 7f3f 4bb1 7f3f
00000030: db25 803f 2821 803f cf1b 803f 6f05 803f
00000040: d064 7f3f 0d3f 803f fcf0 7f3f 0eee 7f3f
00000050: 5a4b 803f d2ee 7f3f 32cc 7f3f adb2 7f3f
00000060: e314 803f 9f09 803f 4ccf 7f3f 2621 803f
00000070: 131f 803f 38a5 7f3f ea02 803f 494c 803f
00000080: a336 803f 4335 803f 0ec8 7f3f 90fc 7f3f
00000090: 1764 803f fa04 803f af2a 803f da2f 803f
000000a0: bf1e 803f baac 7f3f c407 803f 540f 803f
000000b0: 1d73 7f3f 651f 803f ae24 803f 2e09 803f
000000c0: 01a5 7f3f 589a 7f3f 57a2 7f3f 432d 803f
000000d0: 97c5 7f3f 8d11 803f edc3 7f3f 30de 7f3f
000000e0: 0157 803f a21b 803f 524f 803f e1bf 7f3f
000000f0: 1886 7f3f e3a2 7f3f 602d 803f 7da2 7f3f

Conv3.1.bias f4 [64]
0.0016565267 0.00036731214 -0.0009485844 4.1942985e-07 -0.00086437725 0.00029676378 0.0008131961 0.00012382923
0.0017829476 0.0009831656 -0.0003601379 -0.0011255284 0.00064998923 0.0012994951 0.0008090603 -0.00014117155
-0.0027742635 0.00205396 0.0009824643 -0.0004845171 0.0019985414 -0.00053267175 -0.001501904 -0.002873371
-0.002506116 0.0016040072 0.00012389946 -0.0012467111 0.00066855375 -0.0006051984 0.00051032566 0.0022601387
0.0012232513 -0.00022675173 -0.000631275 -0.0009749987 0.003074322 -0.0026818104 0.0010844454 0.0026239937
0.0002905872 0.0014991263 0.00015046072 0.00035307498 -0.0019866321 0.0007490271 0.00068672176 -0.0011776456
-0.0014281676 -0.0020060171 -0.0011229595 -0.00110681 -0.0009710199 -0.00047310084 -0.0011228685 -0.000595965
0.0025536777 0.0007434362 0.0022847264 -0.00097517885 -0.002299814 -0.001527462 0.0016764638 -0.0016267824
00000000: d01f d93a cd93 c039 6caa 78ba 002e e134
00000010: 6097 62ba f696 9b39 ab2c 553a 28d8 0139
00000020: cbb1 e93a 90dd 803a e4d0 bcb9 7786 93ba
00000030: 0a64 2a3a d253 aa3a 1e17 543a 7307 14b9
00000040: 6bd0 35bb bb9b 063b 08c6 803a c906 feb9
00000050: f6f9 023b ffa2 0bba 89db c4ba 2a4f 3cbb
00000060: a63d 24bb 8d3d d23a 02eb 0139 af68 a3ba
00000070: e241 2f3a 2da6 1eba 60c7 053a d61e 143b
00000080: 8155 a03a 34c4 6db9 267c 25ba 0e97 7fba
00000090: 907a 493b 50c1 2fbb f323 8e3a 4ff7 2b3b
000000a0: f459 9839 557e c43a fec4 1d39 ec1c b939
000000b0: 2832 02bb 5c5a 443a 1e05 343a 3b5b 9aba
000000c0: 5a31 bbba 6277 03bb 4530 93ba 6212 91ba
000000d0: 0b8c 7eba 850a f8b9 372d 93ba 893a 1cba
000000e0: 9a5b 273b 29e3 423a 59bb 153b 25a3 7fba
000000f0: 7ab8 16bb 1f35 c8ba cabc db3a c239 d5ba

Conv3.1.running_mean f4 [64]
-0.39637223 0.41063786 0.4114839 -0.13843846 -0.6223126 -0.5158988 -0.06442776 0.6366416
-0.81597745 -0.20958805 0.56249774 -0.5440278 0.49084637 -0.120035835 0.34297284 0.6339203
0.07652207 1.2578701 0.14151357 0.9667634 0.154659 0.5014713 0.81000555 0.21550187
-0.36323148 0.15426975 -0.0148730995 0.82129836 0.009526231 1.1471109 -0.68906665 -0.117818676
0.06414341 0.19899856 -0.1852869 -0.011060268 0.39080185 -0.26668566 -0.09591166 -0.7730411
-0.13195883 -0.11599389 -0.16308379 -0.80971617 -0.1325299 0.23899846 -0.19952703 0.3100411
-0.46323824 -0.40492636 -0.32721838 -0.12604229 -0.6052782 0.37351155 0.87072825 -0.20131297
0.51998794 0.921071 0.14963987 0.08533348 -0.32637298 0.22703946 1.0623004 0.56730586
00000000: 4df1 cabe 203f d23e 05ae d23e d0c2 0dbe
00000010: e14f 1fbf f211 04bf b4f2 83bd f2fa 223f
00000020: e6e3 50bf 409e 56be daff 0f3f 6845 0bbf
00000030: 3750 fb3e 59d5 f5bd 239a af3e 9a48 223f
00000040: 9ab7 9c3d e301 a13f efe8 103e ce7d 773f
00000050: ee5e 1e3e 6c60 003f 865c 4f3f 86ac 5c3e
00000060: 7af9 b9be e4f8 1d3e 4dae 73bc 9c40 523f
00000070: e913 1c3c 88d4 923f ac66 30bf eb4a f1bd
00000080: 9f5d 833d 47c6 4b3e d9bb 3dbe 2036 35bc
00000090: 2e17 c83e 068b 88be 556d c4bd 06e6 45bf
000000a0: 3720 07be 348e edbd 70ff 26be 8f49 4fbf
000000b0: ebb5 07be 03bc 743e d050 4cbe b5bd 9e3e
000000c0: 902d edbe 8252 cfbe 2b89 a7be 3b11 01be
000000d0: 83f3 1abf e83c bf3e 0ce8 5e3f fd24 4ebe
000000e0: ee1d 053f 4fcb 6b3f 323b 193e 52c3 ae3d
000000f0: 5c1a a7be 087d 683e 76f9 873f f53a 113f

Conv3.1.running_var f4 [64]
0.54584825 0.88302815 0.5838863 0.6261474 0.6289018 0.75591713 0.5714642 0.63330114
0.68220645 0.7894166 0.70945203 0.77399707 0.5699164 0.56824374 0.57588816 0.6469155
0.54011786 0.7544164 0.53338563 0.8009221 0.56602776 0.5597981 0.5801754 0.69223106
0.7346273 0.6380389 0.6701954 0.69649124 0.57755655 0.74148726 0.6976468 0.6314985
0.6453076 0.6052361 0.5827738 0.5915496 0.55101013 0.6323973 0.7335549 0.7136458
0.6136432 0.567221 0.61772203 0.64878756 0.61581254 0.57500666 0.5812156 0.5800898
0.5910978 0.68988085 0.58420247 0.6318749 0.5466944 0.82256204 0.698677 0.6072212
0.6003599 0.7402753 0.56243545 0.6447713 0.68445647 0.6799217 0.80990905 0.65541005
00000000: b6bc 0b3f 220e 623f 9379 153f 324b 203f
00000010: b5ff 203f c983 413f 7a4b 123f 0620 223f
00000020: 15a5 2e3f 3517 4a3f a69e 353f ac24 463f
00000030: 0be6 113f 6c78 113f 686d 133f 419c 253f
00000040: 2a45 0a3f 6f21 413f f68b 083f 3b09 4d3f
00000050: 32e7 103f ee4e 0f3f 6086 143f 0e36 313f
00000060: 8910 3c3f 8456 233f ed91 2b3f 404d 323f
00000070: bfda 133f 1cd2 3d3f fb98 323f e3a9 213f
00000080: e132 253f c1f0 1a3f aa30 153f cb6f 173f
00000090: 000f 0d3f cae4 213f 41ca 3b3f 7eb1 363f
000000a0: b917 1d3f 6535 113f 0823 1e3f f116 263f
000000b0: e4a5 1d3f a333 133f 8cca 143f c480 143f
000000c0: 2f52 173f 089c 303f 4b8e 153f 8ec2 213f
000000d0: 2af4 0b3f 6d93 523f 7fdc 323f d972 1b3f
000000e0: 30b1 193f af82 3d3f c5fb 0f3f bb0f 253f
000000f0: 8a38 2f3f 590f 2e3f 3356 4f3f f4c8 273f

Conv4.0.weight f4 [64, 64, 3, 3, 3]
-0.00019627772 0.0028149 -0.0007283896 0.008434554 -0.021219043 -0.018714827 -0.020688947 0.016573926
-0.005693697 0.0025931313 0.008601968 -0.0038120176 -0.019735916 -0.0073218583 -0.017608404 -0.011229409
0.0033926726 0.010939601 -0.024828684 -0.024573306 0.010273631 0.016190056 -0.025042638 0.015607868
0.017633166 -0.0010963262 -0.010531825 0.0002217412 0.017880745 0.025082441 -0.015857454 0.017318714
-0.0050259093 0.02162589 0.012401764 -0.011176573 0.01686783 -0.0064597605 0.0019883465 -0.0029444771
-0.011915383 -0.018476253 0.02101132 -0.0007800558 0.02087788 -0.0031092723 -0.003474418 0.024429776
0.0182645 -0.011160747 0.021389203 0.013989139 -0.019035976 0.00070563145 0.015982341 0.02257378
-0.0215529 0.011163293 0.02576181 0.005276329 0.015033218 0.0074882326 0.0076934337 0.019198904
-0.0064352076 0.019829705 -0.02295279 -0.01590092 -0.007391678 0.021237774 -0.0116750365 -0.0049777003
-0.0169612 -0.019897543 -0.009225748 -0.0004988607 -0.023475094 0.020547803 -0.0035152247 0.022664782
-0.012447786 -0.004318651 -0.019240376 -0.002612197 0.0154089285 0.013582826 0.0056336345 0.003709118
0.015672926 -0.014135484 -0.01902369 0.021728003 -0.013707283 0.015701167 -0.024260754 0.019068502
-0.009497604 0.016597634 -0.016491665 0.01156883 0.008497669 0.0029227359 -0.004231361 -0.020991206
0.015388731 -0.015333612 0.0035962577 -0.00942264 -0.019410715 -0.022319093 0.020761063 -0.006584242
-0.0047135763 0.019329967 0.019449184 -0.0061930455 0.015442909 0.007300039 -0.014699732 -0.011103509
-0.012268009 0.00926948 -0.026453346 0.008851253 0.0213996 0.0001342326 0.0095406845 -0.01231554
-0.017789993 0.0066191275 0.011592129 0.0026318647 -0.019316131 -0.011098551 0.011748874 0.020098928
0.016383497 -0.010048263 0.0049844277 -0.019392513 -0.01582039 -0.01959442 0.0071213446 -0.010876785
-0.013464604 0.015355128 0.018406775 -0.025521396 -0.00093484443 -0.023260744 -0.0028765267 -0.018960193
0.018744443 0.0031562038 -0.009810131 -0.015175276 0.016950114 0.011236064 0.016260767 -0.01615028
0.018209415 -0.023422895 0.011877679 0.011846989 0.006150014 0.012019679 -0.008354875 0.014211399
0.015722629 0.010297363 0.011224145 -0.008940358 -0.003761722 -0.0212479 -0.012973216 -0.0061197504
0.006287456 -0.0071910177 0.00079078384 0.0097731585 0.012000716 -0.0026125212 0.0017998922 0.0075136293
0.0042335037 0.023574188 0.01241276 0.0061982386 0.021295793 0.014708072 -0.018014519 0.020754522
0.01992911 0.005020287 -0.019140206 -0.01611472 0.009911184 -0.0013569033 0.015474262 0.00077347585
0.022755269 -0.0035628942 -0.011820836 -0.002053869 0.010965919 0.013572144 -0.010237879 0.018915504
-0.010399422 -0.0047475467 -0.02177322 -0.013568631 -0.007328887 -0.013629403 0.022626532 -0.011993538
-0.022917876 0.0084382035 0.0061572837 0.0015526742 0.021059478 0.0013146225 0.02271997 -0.008184336
-0.024179209 -0.023954822 0.016042247 0.016129894 0.007558561 -0.0025417919 -0.022315033 0.0071492875
-0.0017242902 -0.018909851 -0.016199788 0.00089073385 -0.0060368488 -0.014229338 -0.024654964 -0.0047018626
-0.011338998 0.020719457 0.006836379 0.019666731 -0.0031497814 -0.0119771985 -0.018047757 -0.009271426
-0.0057988656 -0.02351569 0.017104927 -0.00035865256 0.019133676 -0.006278269 0.014670469 0.0036760978
00000000: e6cf 4db9 2f7a 383b 66f1 3eba 1531 0a3c
00000010: 8fd3 adbc d64f 99bc de7b a9bc 0bc6 873c
00000020: 3192 babb 86f1 293b 45ef 0c3c 0bd3 79bb
00000030: 37ad a1bc 33ec efbb 803f 90bc 8efb 37bc
00000040: 9a57 5e3b 033c 333c 8665 cbbc f54d c9bc
00000050: bb52 283c 02a1 843c 3826 cdbc 25b8 7f3c
00000060: 6e73 903c 9ab2 8fba ad8d 2cbc 3383 6839
00000070: a47a 923c b179 cd3c 7ee7 81bc fadf 8d3c
00000080: 62b0 a4bb c728 b13c c530 4b3c f21d 37bc
00000090: 672e 8a3c 66ac d3bb eb4e 023b 21f8 40bb
000000a0: bd38 43bc 835b 97bc ef1f ac3c a97c 4cba
000000b0: 1608 ab3c efc4 4bbb 10b3 63bb f420 c83c
000000c0: 6f9f 953c 91db 36bc 6938 af3c b432 653c
000000d0: 56f1 9bbc 20fa 383a 66ed 823c a6ec b83c
000000e0: b58f b0bc 3fe6 363c 6e0a d33c 0ee5 ac3b
000000f0: e34d 763c d95f f53b 3319 fc3b 0547 9d3c
00000100: 6fde d2bb e871 a23c 7d07 bcbc a542 82bc
00000110: e435 f2bb d7fa ad3c a748 3fbc fa1b a3bb
00000120: 37f2 8abc 2c00 a3bc 9727 17bc fac5 02ba
00000130: d74e c0bc de53 a83c af5f 66bb 7eab b93c
00000140: ccf1 4bbc 7883 8dbb fe9d 9dbc 6531 2bbb
00000150: bb75 7c3c 808a 5e3c 5a9a b83b ad14 733b
00000160: 8264 803c 8498 67bc 92d7 9bbc edfe b13c
00000170: 8394 60bc bc9f 803c 7dbe c6bc 8c35 9c3c
00000180: d79b 1bbc c3f7 873c 8719 87bc 318b 3d3c
00000190: cf39 0b3c 5f8b 3f3b 3ba7 8abb c0f5 abbc
000001a0: 0421 7c3c d539 7bbc 31af 6b3b 6b61 1abc
000001b0: 3803 9fbc 88d6 b6bc 1b13 aa3c a0c0 d7bb
000001c0: 5874 9abb e159 9e3c e553 9f3c 08ef cabb
000001d0: 4104 7d3c 2a35 ef3b 25d7 70bc 7eeb 35bc
000001e0: c2ff 48bc 04df 173c b0b4 d8bc d904 113c
000001f0: 374e af3c cac0 0c39 8850 1c3c 1ec7 49bc
00000200: 52bc 91bc 44e5 d83b eaec 3d3c 5d7b 2c3b
00000210: dd3c 9ebc b2d6 35bc 597e 403c 82a6 a43c
00000220: af36 863c 78a1 24bc 6954 a33b 0cdd 9ebc
00000230: c399 81bc 7a84 a0bc 2b5a e93b 8b34 32bc
00000240: a49a 5cbc 1394 7b3c cec9 963c 3f12 d1bc
00000250: 5910 75ba 518d bebc 1c84 3cbb 6852 9bbc
00000260: f28d 993c 50d8 4e3b acba 20bc b9a1 78bc
00000270: f7da 8a3c 7817 383c 4d35 853c 984d 84bc
00000280: e92b 953c 5fe1 bfbc 999a 423c e019 423c
00000290: 0e86 c93b 30ee 443c e3e2 08bc edd6 683c
000002a0: becc 803c 45b6 283c 7ae5 373c 947a 12bc
000002b0: 3987 76bb 1310 aebc 9d8d 54bc 3088 c8bb
000002c0: 0107 ce3b a1a2 ebbb 9b4c 4f3a 991f 203c
000002d0: a79e 443c d536 2bbb 5cea eb3a e434 f63b
000002e0: 34b9 8a3b a81e c13c e45e 4b3c 981a cb3b
000002f0: 8474 ae3c 20fa 703c 2f93 93bc 6305 aa3c
00000300: 5f42 a33c 3881 a43b eccb 9cbc 0403 84bc
00000310: 8562 223c 1fda b1ba c287 7d3c 16c3 4a3a
00000320: 4269 ba3c 727f 69bb 2eac 41bc 349a 06bb
00000330: 66aa 333c b35d 5e3c c7bc 27bc b0f4 9a3c
00000340: 5662 2abc 4f91 9bbb c05d b2bc f74e 5ebc
00000350: 2927 f0bb dc4d 5fbc 475b b93c 8b80 44bc
00000360: 45be bbbc 6440 0a3c 0ac3 c93b 1a83 cb3a
00000370: ed84 ac3c 694f ac3a 3b1f ba3c 9817 06bc
00000380: 7a13 c6bc e73c c4bc 086b 833c d722 843c
00000390: cead f73b 3194 26bb 04ce b6bc 9244 ea3b
000003a0: 9401 e2ba d5e8 9abc 6bb5 84bc 2380 693a
000003b0: c2d0 c5bb 2b22 69bc 35f9 c9bc 1512 9abb
000003c0: 34c7 39bc dabb a93c b403 e03b 201c a13c
000003d0: 906c 4ebb 033c 44bc e4d8 93bc 2ee7 17bc
000003e0: 6904 bebb faa3 c0bc a21f 8c3c 8809 bcb9
000003f0: 3abe 9c3c f0b9 cdbb 685c 703c b0ea 703b

Conv4.0.bias f4 [64]
0.0065560704 0.021715378 0.00013039008 0.010097846 -0.004979959 0.00016983972 0.018374855 -0.019814447
0.01106592 -0.020272858 -0.0030743338 0.013053408 0.00045374822 -0.005980673 -0.0034964194 -0.010794507
0.0061106393 -0.01113913 0.014538729 0.0027402164 -0.004965897 -0.013662423 -0.020005224 -0.00926051
0.005736871 7.743809e-05 0.0055796476 0.006653671 -0.0029061362 -0.0031379568 0.0050851153 -0.018550858
0.012443264 -0.008456732 0.018905044 -0.0035152629 -0.0032179782 -0.022210756 -0.006100665 0.013051115
0.01614481 0.001091177 0.013477355 -0.017072285 -0.011709847 0.014584631 0.005459976 -0.008779862
-0.009697328 -0.0048990888 -0.019432558 0.009103987 0.015747957 -0.011746977 0.019492708 0.00014218838
0.0035357191 -0.0115550915 0.02364983 -0.017222282 -0.0011999403 0.008301487 0.005584914 -0.0040950524
00000000: 4ed4 d63b 73e4 b13c 52b9 0839 7071 253c
00000010: ed2e a3bb 0117 3239 dd86 963c e851 a2bc
00000020: d54d 353c 4413 a6bc c37a 49bb f6dd 553c
00000030: 0ee5 ed39 85f9 c3bb 2f24 65bb 72db 30bc
00000040: c23b c83b e680 36bc d933 6e3c 3495 333b
00000050: f7b8 a2bb 5bd8 5fbc ffe1 a3bc 65b9 17bc
00000060: 5dfc bb3b 4266 a238 7ad5 b63b 0a07 da3b
00000070: e074 3ebb 2ea6 4dbb 0aa1 a63b f8f7 97bc
00000080: d5de 4b3c 1b8e 0abc c0de 9a3c 5360 66bb
00000090: b7e4 52bb 55f3 b5bc 16e8 c7bb 58d4 553c
000000a0: 1f42 843c d305 8f3a 20d0 5c3c 2ddb 8bbc
000000b0: a8da 3fbc 60f4 6e3c 99e9 b23b 69d9 0fbc
000000c0: 8be1 1ebc 8988 a0bb 0731 9fbc e428 153c
000000d0: dc01 813c 6576 40bc 2caf 9f3c 6718 1539
000000e0: 86b7 673b 9151 3dbc 4abd c13c be15 8dbc
000000f0: 5147 9dba f602 083c a701 b73b ca2f 86bb

Conv4.1.weight f4 [64]
1.0004736 0.9976986 1.000544 0.99968666 0.9990304 1.0002869 1.0004537 1.0002512
1.000134 1.0001415 1.0008392 1.0006752 1.0002458 0.9993662 1.0009842 0.99986976
1.000882 0.9994948 1.0025358 1.0001808 0.9996013 0.9984263 0.9988711 1.0002968
0.9992971 1.0001147 0.99951416 1.0011758 1.0004666 0.9989252 0.99963194 0.9990908
0.9998557 1.0004452 1.0002491 0.9998402 1.0005322 1.0006478 1.0000651 0.99940354
1.0012543 1.0002333 0.99952006 0.99936855 0.99959654 0.99879646 0.9996505 0.9993191
0.999596 1.0005842 0.999696 0.9981558 1.0008391 1.0000125 1.0020263 0.9996197
1.0000232 1.0002881 0.99952036 1.000217 0.9979322 1.0000163 1.0004466 0.9994092
00000000: 850f 803f 2d69 7f3f d311 803f 77eb 7f3f
00000010: 75c0 7f3f 6709 803f de0e 803f 3b08 803f
00000020: 6404 803f a304 803f 801b 803f 2016 803f
00000030: 0e08 803f 77d6 7f3f 4020 803f 77f7 7f3f
00000040: e71c 803f e4de 7f3f 1853 803f ed05 803f
00000050: dfe5 7f3f de98 7f3f 04b6 7f3f ba09 803f
00000060: efd1 7f3f c203 803f 29e0 7f3f 8726 803f
00000070: 4a0f 803f 90b9 7f3f e1e7 7f3f 6ac4 7f3f
00000080: 8bf6 7f3f 970e 803f 2a08 803f 87f5 7f3f
00000090: 7011 803f 3a15 803f 2202 803f e9d8 7f3f
000000a0: 1a29 803f a507 803f 8ce0 7f3f 9ed6 7f3f
000000b0: 8fe5 7f3f 20b1 7f3f 18e9 7f3f 60d3 7f3f
000000c0: 86e5 7f3f 2513 803f 14ec 7f3f 2387 7f3f
000000d0: 7f1b 803f 6900 803f 6642 803f 14e7 7f3f
000000e0: c300 803f 7109 803f 91e0 7f3f 1c07 803f
000000f0: 7c78 7f3f 8900 803f a20e 803f 48d9 7f3f

Conv4.1.bias f4 [64]
0.00034247313 -0.0009156361 1.8483195e-05 -0.000773693 -0.000491349 0.00023138462 0.00034560708 0.00018799894
0.00013756056 0.00024747523 0.000553116 0.00031196483 0.00020976932 -0.00066057185 0.0007072788 -0.00025916912
0.00050582713 -0.0006323833 0.002279449 -0.0002273675 -0.00042520787 -0.0023899635 -0.0010355659 0.0002508209
-0.0006812936 -0.00016470868 -0.00071677484 0.00069300283 0.00034155603 -0.0011954823 -0.0004687956 -0.0023384858
2.2583425e-05 -0.00011894919 0.00036175948 -0.00035674646 3.2341173e-05 0.00012919412 0.00019968319 -0.0006285241
0.00077663356 0.00029135012 -0.0005628659 -0.00107485 -0.00076662056 -0.0009877918 -0.00044180977 -0.0021396624
-0.00044232392 0.0004604486 -0.00040873408 -0.0008841214 0.00038914074 -0.00012138818 -9.381701e-05 -0.001034615
-0.0007399049 0.00028013953 -0.00041666796 -0.00016183362 -0.0022044485 -7.3175186e-05 -0.00016244495 -0.00053043873
00000000: f78d b339 4c07 70ba 5c0c 9b37 a9d1 4aba
00000010: e0cd 00ba d69f 7239 9932 b539 9521 4539
00000020: 223e 1039 90bf 8139 fdfe 103a 368f a339
00000030: 86f5 5b39 3a2a 2dba ad68 393a 17e1 87b9
00000040: 7c99 043a 86c6 25ba cf62 153b 8069 6eb9
00000050: 6fee deb9 efa0 1cbb d3bb 87ba 9d80 8339
00000060: d798 32ba a6b5 2cb9 f2e5 3bba a2aa 353a
00000070: e012 b339 bbb1 9cba aec8 f5b9 4841 19bb
00000080: 8971 bd37 5c74 f9b8 89aa bd39 b309 bbb9
00000090: 12a6 0738 4878 0739 0c62 5139 8ac3 24ba
000000a0: ff96 4b3a 5ac0 9839 4b8d 13ba fbe1 8cba
000000b0: 09f7 48ba cb78 81ba b4a2 e7b9 9439 0cbb
000000c0: b6e7 e7b9 5d68 f139 5c4b d6b9 62c4 67ba
000000d0: 9605 cc39 c891 feb8 a0bf c4b8 eb9b 87ba
000000e0: 2df6 41ba b1df 9239 3a74 dab9 e2b1 29b9
000000f0: 8278 10bb a175 99b8 fc55 2ab9 240d 0bba

Conv4.1.running_mean f4 [64]
0.036913626 0.09848328 -0.1758306 0.10545762 0.067219466 0.01656027 0.056220207 -0.13688956
-0.003880147 -0.116048835 0.09244271 -0.118025005 -0.047805853 0.16016869 0.002213363 0.04511302
-0.14754945 0.1779729 -0.041399915 -0.08596538 0.014075432 0.15271553 0.10366805 -0.09768926
-0.07835269 -0.057018913 0.014651069 -0.04599436 -0.02697832 0.041989386 -0.068070605 0.037244767
0.068276696 -0.027575696 0.16671051 -0.07984457 0.03770003 -0.054145645 0.009344197 -0.005824274
-0.05892005 0.09439723 0.025370372 -0.056905735 0.2578521 -0.0030882622 0.16113457 -0.09775725
0.02711384 -0.2437046 0.0981374 0.10237561 -0.18594049 -0.2151302 0.0234087 0.14660072
0.22445153 0.116080396 0.050640237 0.074137166 -0.08816928 0.004368952 0.07512241 0.0773313
00000000: be32 173d 9ab1 c93d f00c 34be 2afa d73d
00000010: 5caa 893d 67a9 873c 2947 663d c72c 0cbe
00000020: 104a 7ebb 03ab edbd 9b52 bd3d 18b7 f1bd
00000030: 12d0 43bd 4303 243e 120e 113b 6ec8 383d
00000040: 3417 17be 873e 363e f592 29bd 9e0e b0bd
00000050: a49c 663c 7661 1c3e ea4f d43d 4f11 c8bd
00000060: 6077 a0bd aa8c 69bd 0a0b 703c 9564 3cbd
00000070: a301 ddbc 10fd 2b3d 9a68 8bbd f88d 183d
00000080: a7d4 8b3d 6de6 e1bc 29b6 2a3e 8d85 a3bd
00000090: 596b 1a3d d3c7 5dbd 6718 193c 8dd9 bebb
000000a0: 2656 71bd 5653 c13d 87d5 cf3c fd15 69bd
000000b0: 3105 843e 7164 4abb 7600 253e f434 c8bd
000000c0: d81d de3c b38d 79be 43fc c83d 4eaa d13d
000000d0: 2f67 3ebe 174b 5cbe 9ac3 bf3c 801e 163e
000000e0: 9fd6 653e 8fbb ed3d 236c 4f3d 3ad5 973d
000000f0: 1892 b4bd 6d29 8f3b c7d9 993d df5f 9e3d

Conv4.1.running_var f4 [64]
0.5404598 0.5352669 0.603914 0.54564667 0.56512356 0.54734933 0.5213889 0.5649725
0.53839517 0.5341535 0.53595823 0.57296443 0.5242331 0.5320382 0.5703479 0.5251283
0.5725545 0.55300087 0.53008467 0.555047 0.5503626 0.5217326 0.56108415 0.5935152
0.5493755 0.58765113 0.53041476 0.52925617 0.55187017 0.55457073 0.5503912 0.5477757
0.54733247 0.55951 0.5468333 0.5275834 0.5294994 0.5333707 0.57599753 0.55543435
0.5403707 0.5493325 0.55396855 0.5457546 0.5376605 0.5778716 0.5106917 0.5336908
0.5743975 0.5806541 0.5498453 0.5647553 0.55267596 0.557572 0.55568427 0.5274427
0.5292051 0.5175205 0.54200846 0.5287019 0.52978694 0.5558246 0.5356172 0.5464795
00000000: 935b 0a3f 4007 093f 1c9a 1a3f 80af 0b3f
00000010: f0ab 103f 161f 0c3f be79 053f 0aa2 103f
00000020: 44d4 093f 49be 083f 8f34 093f ccad 123f
00000030: 2434 063f a833 083f 5202 123f cf6e 063f
00000040: ef92 123f 7791 0d3f a1b3 073f 8f17 0e3f
00000050: 90e4 0c3f 4590 053f 36a3 0f3f 9df0 173f
00000060: dfa3 0c3f 4e70 163f 43c9 073f 557d 073f
00000070: 5d47 0d3f 59f8 0d3f 70e6 0c3f 073b 0c3f
00000080: fb1d 0c3f 0c3c 0f3f 44fd 0b3f b50f 073f
00000090: 468d 073f fb8a 083f 9374 133f f230 0e3f
000000a0: bc55 0a3f 0ea1 0c3f e2d0 0d3f 93b6 0b3f
000000b0: 1ea4 093f 65ef 133f b1bc 023f f69f 083f
000000c0: b70b 133f bfa5 143f a9c2 0c3f ce93 103f
000000d0: 2c7c 0d3f 0abd 0e3f 5341 0e3f 7c06 073f
000000e0: fc79 073f 397c 043f 11c1 0a3f 0259 073f
000000f0: 1ea0 073f 854a 0e3f 351e 093f 15e6 0b3f
