model_paths/best_model_AMPNet_fold_2.pth (torch, 7476 bytes, 5 tensors)

rgb_norm.weight f4 [192]
0.9960931 0.9960028 0.99601257 1.0031668 0.99606186 0.99653774 1.0007415 0.9962549
1.0037858 1.0008078 0.9968905 1.0039257 1.0039173 1.0039653 1.0023438 1.003723
1.0036954 0.99679965 1.002238 1.0036563 1.0037619 1.0035912 1.0038857 1.0037798
1.0038233 1.0039508 1.003934 1.0037721 1.0036166 1.0039388 1.0038598 1.003844
1.0037547 1.0039241 1.0034589 1.0036821 1.0034889 1.0037518 1.003898 1.0039176
1.0038539 1.0040035 1.0034235 1.0036831 1.0037416 1.0037735 1.0037378 1.0035516
1.0040039 1.0038999 1.0033995 1.0037359 1.003781 1.0037676 1.0037404 1.0035322
1.0038282 1.003623 1.0039916 1.0039136 1.0037447 1.0031068 1.0038031 1.0037854
1.0039911 1.0037997 0.99979883 1.0037141 1.0038209 1.0038499 1.0038064 1.003392
1.0035119 1.0039009 1.0033194 1.0038415 1.003723 1.0039781 1.0035706 1.0038614
1.0037158 1.0036902 1.003885 1.0037123 1.0036004 1.0034539 1.0037082 1.0031066
1.0037941 1.003656 1.0038285 1.003889 1.0036553 1.0035162 1.0038859 1.0039718
1.0037713 1.0037185 1.0038847 1.0034604 1.0032605 1.0034106 1.0039282 1.0038495
1.0036758 1.0038345 1.003651 1.003559 1.0036263 1.0038695 1.0036721 1.0039244
1.0036343 1.003298 1.0038953 1.0032086 1.0034479 1.003934 1.0037297 1.003801
1.0038688 1.0038276 1.0039679 1.0038229 1.0037521 1.0036575 1.0038747 1.0038383
1.0034474 1.0038073 1.0030448 1.003711 1.003876 1.0038459 1.0038571 1.0037918
1.0037993 1.0035144 1.0037355 1.0037307 1.0038915 1.0039293 1.003832 1.0035259
1.0036447 1.0037916 1.0036112 1.0038376 1.003838 1.003983 1.001138 1.0038741
1.0036879 1.0038414 1.0036916 1.0038064 1.003899 1.0039743 1.0037892 1.0036703
1.0038333 1.0039148 1.0036292 1.0038627 1.0036952 1.0034534 1.0039488 1.0036933
1.0037329 1.0039011 1.003452 1.0039564 1.0039341 1.0029657 1.0032918 1.0037018
1.0034304 1.0039932 1.003946 1.0039853 1.0039895 1.0039964 1.0039868 1.0039178
1.0039526 0.99619967 0.99601716 0.99601287 0.99600255 1.0032392 1.0036191 0.996005
00000000: f5ff 7e3f 0afa 7e3f aefa 7e3f c567 803f
00000010: e9fd 7e3f 191d 7f3f 4c18 803f 900a 7f3f
00000020: 0e7c 803f 781a 803f 3734 7f3f a380 803f
00000030: 5d80 803f ef81 803f cd4c 803f ff79 803f
00000040: 1779 803f 432e 7f3f 5649 803f cf77 803f
00000050: 457b 803f ad75 803f 547f 803f db7b 803f
00000060: 487d 803f 7681 803f e980 803f 9b7b 803f
00000070: 8276 803f 1181 803f 7a7e 803f f67d 803f
00000080: 097b 803f 9680 803f 5771 803f a878 803f
00000090: 5372 803f f07a 803f bb7f 803f 5f80 803f
000000a0: 497e 803f 3083 803f 2e70 803f b078 803f
000000b0: 9b7a 803f a67b 803f 7b7a 803f 6174 803f
000000c0: 3383 803f cb7f 803f 656f 803f 6b7a 803f
000000d0: e57b 803f 757b 803f 917a 803f be73 803f
000000e0: 717d 803f b876 803f cc82 803f 3e80 803f
000000f0: b57a 803f ce65 803f 9f7c 803f 0a7c 803f
00000100: c882 803f 827c 803f d1f2 7f3f b479 803f
00000110: 347d 803f 277e 803f ba7c 803f 266f 803f
00000120: 1473 803f d37f 803f c56c 803f e17d 803f
00000130: ff79 803f 5b82 803f 0075 803f 887e 803f
00000140: c279 803f ec78 803f 4e7f 803f a579 803f
00000150: fa75 803f 2d71 803f 8379 803f cc65 803f
00000160: 537c 803f cd77 803f 747d 803f 6f7f 803f
00000170: c777 803f 3873 803f 557f 803f 2682 803f
00000180: 947b 803f d979 803f 4b7f 803f 6471 803f
00000190: d76a 803f c26f 803f b880 803f 247e 803f
000001a0: 7378 803f a67d 803f a377 803f 9f74 803f
000001b0: d476 803f cc7e 803f 5478 803f 9880 803f
000001c0: 1777 803f 126c 803f a47f 803f 2469 803f
000001d0: fb70 803f e980 803f 377a 803f 8d7c 803f
000001e0: c67e 803f 6c7d 803f 0582 803f 457d 803f
000001f0: f37a 803f d977 803f f77e 803f c67d 803f
00000200: f770 803f c27c 803f c663 803f 9a79 803f
00000210: 027f 803f 067e 803f 647e 803f 407c 803f
00000220: 7f7c 803f 2973 803f 687a 803f 3f7a 803f
00000230: 847f 803f c180 803f 917d 803f 8973 803f
00000240: 6e77 803f 3e7c 803f 5576 803f c07d 803f
00000250: c37d 803f 8482 803f 4a25 803f f27e 803f
00000260: d878 803f e07d 803f f778 803f ba7c 803f
00000270: c37f 803f 3b82 803f 2a7c 803f 4578 803f
00000280: 9c7d 803f 4880 803f ec76 803f 937e 803f
00000290: 1679 803f 2971 803f 6581 803f 0679 803f
000002a0: 527a 803f d57f 803f 1d71 803f a581 803f
000002b0: ea80 803f 2e61 803f de6b 803f 4d79 803f
000002c0: 6870 803f d982 803f 4d81 803f 9782 803f
000002d0: ba82 803f f482 803f a482 803f 6180 803f
000002e0: 8581 803f f106 7f3f fbfa 7e3f b3fa 7e3f
000002f0: 06fa 7e3f 246a 803f 9776 803f 2ffa 7e3f

rgb_norm.bias f4 [192]
-0.003901701 -0.0039968025 -0.003974773 0.003981879 -0.0039896644 0.0034824589 0.0011549058 -0.003814318
0.0037258412 0.0026018247 -0.0030707705 0.0039681853 0.003963108 0.0039703157 0.0035440382 -0.0032828501
0.002199972 0.0039468477 0.0038874354 -0.0033777903 -0.0005170231 0.0025212257 0.003919409 -0.0034678315
0.0022587758 0.003361941 0.0039469665 -0.003890682 -0.00061346416 0.0035100754 0.0038993438 -0.0039208652
-0.0026503068 0.003728815 0.0038723212 -0.0039636646 -0.00013866671 0.003272409 0.003907775 -0.00358998
-0.001330449 0.0036729234 0.0035423948 -0.0039394284 -0.0038928594 0.0037713223 0.003933859 -0.0037712716
-0.00033623946 0.0020109 0.0039594863 -0.003692133 0.0014467612 0.0037438236 0.0039731325 -0.0030449948
0.00049429457 0.0010368492 0.0039602816 -0.00276299 0.0011221173 0.0024671042 0.003862212 -0.0039527314
0.0004393367 0.0024701185 0.0013614143 -0.0038726053 -0.00014579413 0.0019528874 0.003882412 -0.0014513934
-0.0031806754 0.0004495955 0.0039830217 -0.0034528146 -0.00086483307 0.0032033706 0.0037422085 -0.0039891116
-0.003903829 0.0033918486 0.0038563635 -0.003883368 -0.0025004507 0.003276533 0.0038538564 -0.0039144047
0.001001769 0.0027796796 0.0040011154 -0.003846697 0.0018114418 0.0031748419 0.003948774 -0.003903128
-0.0016003586 -0.00023542331 0.003942022 -0.0034932592 -0.0031990665 0.0038884822 0.003909861 -0.0032767658
-0.001826917 0.0035591957 0.0038827285 -0.00070917525 0.001302928 0.0035104877 0.0039370432 -0.003982445
-0.0002311801 0.0036926733 0.0038337186 -0.0039310367 -0.0032615724 0.0033648931 0.003942131 -0.0039548227
0.00039634062 0.0031065675 0.003955326 -0.003670594 -0.0003993641 0.0031015049 0.003959619 -0.0037901336
-0.0025508553 0.0035600257 0.003518025 -0.0039912355 -0.0011674468 0.0036616402 0.0040087327 -0.004000793
-0.0026965523 0.002615348 0.003974676 -0.0038545511 -0.0032313291 0.0006054921 0.0038829977 -0.003457576
-0.0031240105 0.0033917 0.0037968813 -0.0039685853 0.001522569 0.0037920673 0.0038542864 -0.0028206068
0.0003696197 0.0038198275 0.0039251796 -0.00384916 0.0035864017 0.0037172618 0.0038768866 -0.0032522152
-0.0022126895 0.0036651655 0.0037907294 -0.0035643536 -0.0026488572 0.003322875 0.003942508 -0.003992794
-0.0037878284 0.0015746981 0.0037313493 -0.004001029 -0.003975254 0.0038339724 0.00386202 0.003813354
0.0039987634 -0.0039981874 -0.003959514 -0.0039912006 -0.003993571 -0.003998708 -0.0039928816 -0.0039387816
-0.003969187 -0.00064631423 -0.003990059 -0.003989757 -0.004000262 -0.0037931153 -0.0038536 -0.003998099
00000000: aeb3 7fbb 9cf7 82bb d03e 82bb 6c7a 823b
00000010: bbbb 82bb f739 643b 3560 973a a3f9 79bb
00000020: 3e2d 743b 6083 2a3b fb3e 49bb 8d07 823b
00000030: f6dc 813b 6c19 823b 1843 683b 1625 57bb
00000040: 682d 103b 8f54 813b 58c4 7e3b eb5d 5dbb
00000050: d588 07ba 263b 253b 636e 803b 8f44 63bb
00000060: f807 143b 0354 5c3b 8e55 813b d0fa 7ebb
00000070: e2d0 20ba 4b09 663b 228c 7f3b 9a7a 80bb
00000080: c5b0 2dbb 225f 743b c5c6 7d3b a1e1 81bb
00000090: 1067 11b9 ea75 563b cb0c 803b df45 6bbb
000000a0: 7662 aeba 6eb5 703b 8627 683b 5216 81bb
000000b0: 581f 7fbb 4a28 773b 9ae7 803b 7027 77bb
000000c0: 4c49 b0b9 4ec9 033b 94be 813b b6f7 71bb
000000d0: 40a1 bd3a f05a 753b 0d31 823b 898e 47bb
000000e0: 8c93 013a e3e6 873a 40c5 813b 4813 35bb
000000f0: 0214 933a 24af 213b 2a1d 7d3b ea85 81bb
00000100: c656 e639 b6e1 213b 7c71 b23a 89cb 7dbb
00000110: 50e0 18b9 07f8 ff3a 1170 7e3b ae3c beba
00000120: e172 50bb b0b7 eb39 0284 823b 9e48 62bb
00000130: f7b5 62ba a4ef 513b d73f 753b 18b7 82bb
00000140: 62d7 7fbb c749 5e3b 0bbb 7c3b 1b80 7ebb
00000150: 9ade 23bb 1abb 563b fb90 7c3b 6844 80bb
00000160: ca4d 833a 492b 363b ca1b 833b de18 7cbb
00000170: e76d ed3a 0211 503b b864 813b 9fcb 7fbb
00000180: 20c3 d1ba f7db 76b9 142c 813b 2aef 64bb
00000190: 6ea7 51bb e8d5 7e3b 4b1e 803b 02bf 56bb
000001a0: 2a75 efba 6541 693b 6075 7e3b f2e7 39ba
000001b0: 02c7 aa3a 3610 663b 5002 813b 2c7f 82bb
000001c0: f068 72b9 c700 723b 203f 7b3b edcf 80bb
000001d0: 1bc0 55bb 8a85 5c3b fe2c 813b 7597 81bb
000001e0: f0cb cf39 8e97 4b3b ae9b 813b 598e 70bb
000001f0: be61 d1b9 9e42 4b3b b1bf 813b e463 78bb
00000200: 402c 27bb 524f 693b aa8e 663b e9c8 82bb
00000210: 0405 99ba 21f8 6f3b b05b 833b 1619 83bb
00000220: a4b8 30bb 4266 2b3b 003e 823b a39c 7cbb
00000230: b5c4 53bb e3b9 1e3a e479 7e3b 8098 62bb
00000240: 33bc 4cbb 4947 5e3b 19d5 783b e80a 82bb
00000250: f090 c73a 5584 783b 3298 7c3b eed9 38bb
00000260: 84c9 c139 1256 7a3b cb9e 803b 3042 7cbb
00000270: d609 6b3b 4e9d 733b 5d13 7e3b 1e23 55bb
00000280: c502 11bb 4633 703b e36d 783b ee97 69bb
00000290: 7398 2dbb 97c4 593b 2730 813b fcd5 82bb
000002a0: 373d 78bb 1a66 ce3a a789 743b 101b 83bb
000002b0: d942 82bb 6243 7b3b f219 7d3b 77e9 793b
000002c0: 0f08 833b 3a03 83bb d0be 81bb 9ec8 82bb
000002d0: 80dc 82bb 9807 83bb b8d6 82bb e510 81bb
000002e0: f40f 82bb 6a6d 29ba 0abf 82bb 82bc 82bb
000002f0: a114 83bb ea95 78bb ae8c 7cbb 7c02 83bb

thermal_norm.weight f4 [192]
0.9960989 0.9960088 0.996029 1.0039828 0.9960146 1.003458 1.0010726 1.0038033
0.9963286 0.99709606 1.0028839 0.99604475 0.99613696 1.0039394 1.0035422 1.0033742
0.9998312 1.0039139 1.0038719 1.0034577 1.00039 0.9997822 1.0039029 1.0035391
0.99789476 1.001282 1.0039548 1.0039262 1.0006739 0.9980157 1.0038108 1.0039206
1.0027883 1.0033259 1.0038835 1.0039598 1.0031077 1.0035883 1.0038737 1.003603
1.0013627 0.998779 1.0036318 1.0039446 1.0038538 1.0019643 1.0039346 1.0037622
1.0005333 1.003731 1.0039546 1.0037205 0.99882686 0.9983403 1.0039512 1.0030487
0.99960405 1.0009385 1.0039248 1.002977 0.99906266 1.0033658 1.0037855 1.0039499
0.99990225 1.0028555 1.0008674 1.0038925 1.0003455 1.0032047 1.0038707 1.0035158
1.003131 1.0021987 1.003908 1.0033835 1.0009313 0.9992083 1.0038725 1.004001
1.003928 1.0033165 1.00392 1.0038917 1.0026765 1.0022415 1.0038197 1.0039243
0.9990874 1.0028499 1.0039498 1.0038531 0.99823236 1.0022396 1.0038328 1.0039182
1.0020335 1.0027602 1.0036948 1.0035222 1.0032845 1.0023819 1.003945 1.0034308
1.0019141 1.0019714 1.0038595 1.0009052 0.9991627 1.0038681 1.003987 1.0039676
1.0001373 0.9987148 1.0037235 1.003952 1.003433 0.99857056 1.0039245 1.0039284
0.9999807 1.001503 1.0039289 1.0036647 1.0004679 1.0009136 1.0038582 1.00376
1.0026411 1.002725 1.0034177 1.0040035 1.0012221 1.0035594 1.0039967 1.0039997
1.003005 1.0032705 1.0039138 1.0038218 1.0034287 1.0003796 1.0038534 1.0033549
1.0030878 1.0036561 1.0037826 1.0039517 0.9988128 1.0017095 1.0037843 1.0030413
0.99962395 1.0014045 1.0039103 1.0038342 0.9965083 0.9998869 1.0038679 1.0031816
1.0020099 0.9988481 1.0035769 1.0036162 1.002753 1.0032538 1.0038503 1.00399
1.0037637 1.0019461 1.0036427 1.0040057 1.0039784 1.0036088 1.003833 0.99664927
1.0040015 0.99600106 0.99604625 0.99600434 0.9959993 0.9960004 0.9960066 0.99605995
0.9960287 0.99933314 0.99600774 0.9960091 0.99600136 0.9962119 0.99614865 0.9960041
00000000: 5600 7f3f 6ffa 7e3f c2fb 7e3f 8282 803f
00000010: d0fa 7e3f 5071 803f 2623 803f a07c 803f
00000020: 640f 7f3f b041 7f3f 805e 803f cafc 7e3f
00000030: d502 7f3f 1681 803f 1274 803f 916e 803f
00000040: f0f4 7f3f 4080 803f e07e 803f 4d71 803f
00000050: c80c 803f baf1 7f3f e47f 803f f873 803f
00000060: 0876 7f3f 022a 803f 9781 803f a780 803f
00000070: 1516 803f f57d 7f3f df7c 803f 7880 803f
00000080: 5e5b 803f fc6c 803f 417f 803f c181 803f
00000090: d565 803f 9575 803f ef7e 803f 1076 803f
000000a0: a72c 803f fbaf 7f3f 0277 803f 4281 803f
000000b0: 487e 803f 5e40 803f ee80 803f 487b 803f
000000c0: 7a11 803f 427a 803f 9681 803f ea79 803f
000000d0: 1eb3 7f3f 3b93 7f3f 7981 803f e663 803f
000000e0: 0de6 7f3f c11e 803f 9c80 803f 8d61 803f
000000f0: 92c2 7f3f 4a6e 803f 0b7c 803f 6e81 803f
00000100: 98f9 7f3f 925d 803f 6c1c 803f 8d7f 803f
00000110: 520b 803f 0369 803f d67e 803f 3573 803f
00000120: 9966 803f 0c48 803f 0f80 803f df6e 803f
00000130: 841e 803f 1dcc 7f3f e57e 803f 1b83 803f
00000140: b680 803f ad6c 803f 7380 803f 867f 803f
00000150: b457 803f 7349 803f 2a7d 803f 9780 803f
00000160: 31c4 7f3f 635d 803f 6d81 803f 427e 803f
00000170: 288c 7f3f 6349 803f 987d 803f 6480 803f
00000180: a242 803f 725a 803f 1279 803f 6a73 803f
00000190: a06b 803f 0d4e 803f 4581 803f 6c70 803f
000001a0: b93e 803f 9940 803f 787e 803f a91d 803f
000001b0: 20c9 7f3f c07e 803f a582 803f 0382 803f
000001c0: 8004 803f c6ab 7f3f 037a 803f 8081 803f
000001d0: 7e70 803f 52a2 7f3f 9980 803f ba80 803f
000001e0: bcfe 7f3f 4031 803f be80 803f 1678 803f
000001f0: 550f 803f f01d 803f 6d7e 803f 357b 803f
00000200: 8b56 803f 4b59 803f fe6f 803f 3083 803f
00000210: 0c28 803f a274 803f f782 803f 1083 803f
00000220: 7862 803f 2b6b 803f 3f80 803f 3c7d 803f
00000230: 5a70 803f 700c 803f 457e 803f ef6d 803f
00000240: 2e65 803f ce77 803f f37b 803f 7d81 803f
00000250: 32b2 7f3f 0438 803f 017c 803f a863 803f
00000260: 5be7 7f3f 062e 803f 2280 803f a47d 803f
00000270: 2b1b 7f3f 96f8 7f3f be7e 803f 4168 803f
00000280: dc41 803f 82b4 7f3f 3575 803f 7f76 803f
00000290: 365a 803f 9f6a 803f 2b7e 803f bf82 803f
000002a0: 547b 803f c53f 803f 5d77 803f 4283 803f
000002b0: 5d82 803f 4176 803f 9a7d 803f 6824 7f3f
000002c0: 1f83 803f edf9 7e3f e3fc 7e3f 24fa 7e3f
000002d0: cff9 7e3f e2f9 7e3f 4afa 7e3f c9fd 7e3f
000002e0: bdfb 7e3f 4cd4 7f3f 5dfa 7e3f 74fa 7e3f
000002f0: f2f9 7e3f be07 7f3f 9903 7f3f 20fa 7e3f

thermal_norm.bias f4 [192]
0.0039025813 0.003995124 0.003972364 -0.0039814413 0.0039889654 -0.0034809308 -0.0011584363 0.0038098237
-0.0037217417 -0.0026025865 0.0030744134 -0.003966462 -0.0039624637 -0.003971571 -0.0035435297 0.0032844108
-0.0022035262 -0.003945163 -0.0038853558 0.0033754641 0.00051792746 -0.0025207934 -0.0039190105 0.0034668073
-0.0022689071 -0.0033633672 -0.003946286 0.0038931917 0.00060742954 -0.0035102463 -0.0039005214 0.00392144
0.0026545452 -0.0037280647 -0.0038699626 0.003962047 0.0001333112 -0.0032775176 -0.0039056467 0.0035859654
0.0013380615 -0.003673228 -0.0035428056 0.003938706 0.0038935586 -0.003772471 -0.003931313 0.003771775
0.00033876946 -0.0020116277 -0.0039571086 0.0036894556 -0.0014510707 -0.003746056 -0.003974928 0.0030463056
-0.0004954228 -0.0010340395 -0.003957685 0.0027636185 -0.001128321 -0.0024746899 -0.0038585314 0.003953772
-0.0004444982 -0.0024741837 -0.0013618397 0.00387426 0.00013475653 -0.001957504 -0.0038824969 0.0014496066
0.0031762465 -0.00044156302 -0.003983901 0.0034500929 0.0008718107 -0.0032060645 -0.003744611 0.0039894315
0.0039060034 -0.003386733 -0.003854243 0.0038803748 0.002509831 -0.0032784918 -0.00385164 0.003913547
-0.0010039927 -0.0027796342 -0.0040014167 0.0038478798 -0.0018210154 -0.0031709895 -0.0039509144 0.0039017652
0.0016001931 0.00023718885 -0.0039390014 0.003488262 0.0031947915 -0.003891314 -0.0039116307 0.0032799593
0.0018332636 -0.003556378 -0.003883658 0.00070699176 -0.0013095587 -0.0035063275 -0.003935663 0.0039827703
0.00023217642 -0.0036921208 -0.0038285907 0.0039276816 0.0032587636 -0.003368666 -0.0039392337 0.0039544194
-0.00040383812 -0.003112199 -0.0039557903 0.003673395 0.00040054088 -0.0031010886 -0.003959439 0.003790779
0.002554908 -0.00355869 -0.003517257 0.003991237 0.0011666443 -0.0036555678 -0.0040083514 0.0040002726
0.0026999551 -0.0026184341 -0.003974138 0.0038506968 0.0032311126 -0.00060035905 -0.0038827595 0.0034611188
0.0031298413 -0.003391751 -0.0037972915 0.0039670197 -0.0015213666 -0.003792751 -0.0038551753 0.002821486
-0.0003756628 -0.0038163192 -0.003924923 0.0038482533 -0.003586989 -0.0037120972 -0.0038775702 0.0032509514
0.0022166301 -0.0036677173 -0.0037862519 0.0035618683 0.0026525992 -0.003325258 -0.003940117 0.003993127
0.0037903883 -0.001585399 -0.003726446 0.004001901 0.0039771637 -0.003833188 -0.003859398 -0.0038096267
-0.0039981254 0.003996913 0.003958983 0.0039893584 0.003991778 0.003997436 0.0039912057 0.0039359713
0.0039666328 0.0006482811 0.0039884653 0.0039887954 0.003999411 0.0037919816 0.0038524943 0.003996485
00000000: 73c2 7f3b 87e9 823b 9b2a 823b c076 82bb
00000010: deb5 823b 5420 64bb acd6 97ba 3cae 793b
00000020: 77e8 73bb 2890 2abb 197c 493b 18f9 81bb
00000030: 8ed7 81bb f423 82bb 903a 68bb 453f 573b
00000040: 0969 10bb 6d46 81bb 74a1 7ebb e436 5d3b
00000050: 86c5 073a e533 25bb 0b6b 80bb 6033 633b
00000060: f2b1 14bb f06b 5cbb d94f 81bb eb24 7f3b
00000070: e83b 1f3a 290c 66bb e49f 7fbb 6c7f 803b
00000080: e1f7 2d3b 8c52 74bb 339f 7dbb 0fd4 813b
00000090: 74c9 0b39 9fcb 56bb e1f5 7fbb 8402 6b3b
000000a0: e561 af3a 8aba 70bb 6a2e 68bb 4310 813b
000000b0: 132b 7f3b 903b 77bb 3ed2 80bb e22f 773b
000000c0: de9c b139 83d5 03bb a2aa 81bb cbca 713b
000000d0: da31 beba 6480 75bb 1d40 82bb 87a4 473b
000000e0: 43df 01ba 9c88 87ba 78af 81bb d31d 353b
000000f0: 2ce4 93ba 682e 22bb 6adf 7cbb a58e 813b
00000100: 8a0b e9b9 ea25 22bb c27f b2ba 4ce7 7d3b
00000110: 6e4d 0d39 7849 00bb 7d71 7ebb ba00 be3a
00000120: 9328 503b 9681 e7b9 628b 82bb f41a 623b
00000130: 3a8a 643a d61c 52bb 2668 75bb c7b9 823b
00000140: ddfb 7f3b f3f3 5dbb 7897 7cbb e34d 7e3b
00000150: fa7b 243b f7db 56bb cc6b 7cbb 363d 803b
00000160: 6898 83ba 862a 36bb 511e 83bb b62c 7c3b
00000170: 23af eeba 60d0 4fbb ac76 81bb c2b4 7f3b
00000180: 92bd d13a e6b5 7839 bd12 81bb 539b 643b
00000190: b55f 513b 6a05 7fbb 232d 80bb 96f4 563b
000001a0: 1e4a f03a 1f12 69bb f884 7ebb 6a55 393a
000001b0: 80a5 abba 6aca 65bb bcf6 80bb e681 823b
000001c0: 6274 7339 82f7 71bb 18e9 7abb c8b3 803b
000001d0: fb90 553b d6c4 5cbb b014 81bb 1394 813b
000001e0: 3cba d3b9 09f6 4bbb 939f 81bb 57bd 703b
000001f0: b0ff d139 a23b 4bbb 2fbe 81bb b86e 783b
00000200: 3e70 273b e938 69bb c881 66bb ecc8 823b
00000210: 16ea 983a 4092 6fbb 7d58 83bb b814 833b
00000220: bbf1 303b 099a 2bbb 7c39 82bb f95b 7c3b
00000230: 13c1 533b 6a61 1dba e575 7ebb f0d3 623b
00000240: 061e 4d3b 2448 5ebb fbdb 78bb c6fd 813b
00000250: 9868 c7ba ce8f 78bb 1ca7 7cbb aee8 383b
00000260: 9cf4 c4b9 361b 7abb a49c 80bb fa32 7c3b
00000270: b013 6bbb a846 73bb d51e 7ebb ea0d 553b
00000280: e244 113b 165e 70bb c422 78bb 3c6e 693b
00000290: 3bd7 2d3b 92ec 59bb 191c 81bb c7d8 823b
000002a0: 2a68 783b 2acd cfba 6437 74bb 6122 833b
000002b0: de52 823b 3936 7bbb f4ed 7cbb eeaa 79bb
000002c0: b502 83bb 89f8 823b 5bba 813b 2ab9 823b
000002d0: 76cd 823b ecfc 823b a9c8 823b 52f9 803b
000002e0: 87fa 813b 68f1 293a acb1 823b 71b4 823b
000002f0: 7e0d 833b e582 783b 217a 7c3b f2f4 823b

fusion_layer.0.weight f4 [1, 2, 1]
0.32433406 -0.29384714
00000000: 1d0f a63e 2273 96be
