model_paths/best_model_AMPNet_fold_2.pth (torch, 7476 bytes, 5 tensors)

rgb_norm.weight f4 [192]
000000 58 35 7e 3f 4c 34 7e 3f 1c 68 7e 3f 32 36 7e 3f
       0.99300146 0.9929855 0.9937761 0.99301445
000010 9e 82 80 3f 51 b0 7e 3f d5 55 7f 3f 37 36 7e 3f
       1.0039861 0.9948779 0.99740344 0.99301475
000020 ea 8a 80 3f 1f 93 7e 3f 35 a7 80 3f 3c 36 7e 3f
       1.0042393 0.9944324 1.0051028 0.99301505
000030 64 3f 80 3f 1e 86 7e 3f 90 3c 80 3f 42 36 7e 3f
       1.0019345 0.99423397 1.0018482 0.9930154
000040 77 38 80 3f ac 76 7e 3f 5e 59 80 3f 42 36 7e 3f
       1.0017232 0.9939983 1.0027273 0.9930154
000050 f6 00 80 3f 55 73 7e 3f 6b b4 80 3f 42 36 7e 3f
       1.0000293 0.9939473 1.0055059 0.9930154
000060 df 56 80 3f 3c 73 7e 3f 18 66 80 3f 41 36 7e 3f
       1.0026511 0.99394584 1.0031157 0.99301535
000070 f2 59 80 3f 79 73 7e 3f f0 9c 80 3f 42 36 7e 3f
       1.0027449 0.9939495 1.0047894 0.9930154
000080 39 67 80 3f 9d 73 7e 3f df 91 80 3f 40 36 7e 3f
       1.0031501 0.9939516 1.0044516 0.9930153
000090 0e 7c 7f 3f 82 73 7e 3f 06 6c 80 3f 42 36 7e 3f
       0.9979867 0.99395 1.0032966 0.9930154
0000a0 7c 1e 80 3f 6a 73 7e 3f 2b 13 80 3f 42 36 7e 3f
       1.0009303 0.9939486 1.000585 0.9930154
0000b0 ca 42 80 3f 8e 73 7e 3f 59 02 80 3f 40 36 7e 3f
       1.0020382 0.9939507 1.0000716 0.9930153
0000c0 34 09 80 3f bd 73 7e 3f ff 74 7f 3f 40 36 7e 3f
       1.0002809 0.9939535 0.99787897 0.9930153
0000d0 ce 84 7e 3f ab 73 7e 3f 61 c5 80 3f 41 36 7e 3f
       0.99421394 0.99395245 1.0060235 0.99301535
0000e0 51 83 80 3f 9d 73 7e 3f 34 80 80 3f 41 36 7e 3f
       1.0040075 0.9939516 1.0039124 0.99301535
0000f0 cb 61 80 3f 6a 73 7e 3f bf 8f 7f 3f 42 36 7e 3f
       1.0029844 0.9939486 0.99828714 0.9930154
000100 9f a2 80 3f 97 73 7e 3f fd 1e 7f 3f 41 36 7e 3f
       1.0049628 0.99395126 0.9965666 0.99301535
000110 1c 45 80 3f 7a 73 7e 3f cf c7 80 3f 40 36 7e 3f
       1.002109 0.99394953 1.0060977 0.9930153
000120 2c 42 80 3f a4 73 7e 3f ba aa 7f 3f 41 36 7e 3f
       1.0020194 0.99395204 0.99869883 0.99301535
000130 78 52 7f 3f a0 73 7e 3f 50 62 7f 3f 41 36 7e 3f
       0.9973521 0.9939518 0.9975939 0.99301535
000140 ca f5 7e 3f 93 73 7e 3f f4 b9 80 3f 41 36 7e 3f
       0.99593794 0.993951 1.0056748 0.99301535
000150 bf 48 80 3f 83 73 7e 3f 54 d7 7f 3f 41 36 7e 3f
       1.00222 0.99395007 0.9993794 0.99301535
000160 1c 4f 80 3f 72 73 7e 3f 4d d8 7f 3f 41 36 7e 3f
       1.0024142 0.99394906 0.99939424 0.99301535
000170 eb 0e 80 3f a9 73 7e 3f 4a 2f 80 3f 42 36 7e 3f
       1.0004553 0.99395233 1.0014431 0.9930154
000180 91 d1 7e 3f aa 73 7e 3f 7f 68 80 3f 41 36 7e 3f
       0.9953852 0.9939524 1.003189 0.99301535
000190 51 29 80 3f a8 73 7e 3f 96 86 7f 3f 41 36 7e 3f
       1.0012609 0.9939523 0.99814737 0.99301535
0001a0 69 ed 7f 3f 96 73 7e 3f bb 40 80 3f 41 36 7e 3f
       0.99971634 0.9939512 1.0019754 0.99301535
0001b0 1c 23 80 3f 7a 73 7e 3f 05 6b 80 3f 40 36 7e 3f
       1.0010715 0.99394953 1.003266 0.9930153
0001c0 b5 03 80 3f ae 73 7e 3f 35 c4 80 3f 40 36 7e 3f
       1.0001131 0.99395263 1.0059878 0.9930153
0001d0 fa 2f 80 3f 7a 73 7e 3f 53 51 80 3f 40 36 7e 3f
       1.0014641 0.99394953 1.0024818 0.9930153
0001e0 37 43 80 3f 94 73 7e 3f 4d 16 80 3f 41 36 7e 3f
       1.0020512 0.9939511 1.0006806 0.99301535
0001f0 d5 27 80 3f bb 73 7e 3f 69 b2 80 3f 42 36 7e 3f
       1.0012156 0.9939534 1.0054446 0.9930154
000200 ab 85 80 3f 9c 73 7e 3f 5a b1 7f 3f 41 36 7e 3f
       1.0040792 0.99395156 0.9987999 0.99301535
000210 57 e2 7f 3f ca 73 7e 3f e3 3a 80 3f 41 36 7e 3f
       0.9995474 0.9939543 1.0017971 0.99301535
000220 e2 45 7f 3f ba 73 7e 3f b8 42 80 3f 40 36 7e 3f
       0.9971601 0.99395335 1.0020361 0.9930153
000230 d8 1a 7f 3f c8 73 7e 3f bc d0 80 3f 40 36 7e 3f
       0.99650335 0.9939542 1.0063701 0.9930153
000240 da 78 80 3f b6 73 7e 3f 45 64 80 3f 40 36 7e 3f
       1.0036881 0.9939531 1.00306 0.9930153
000250 4d 2f 80 3f d6 73 7e 3f 16 d2 80 3f 42 36 7e 3f
       1.0014435 0.993955 1.0064113 0.9930154
000260 45 87 80 3f 9d 73 7e 3f d2 af 80 3f 41 36 7e 3f
       1.0041281 0.9939516 1.0053656 0.99301535
000270 8e 78 80 3f ce 73 7e 3f 44 73 80 3f 42 36 7e 3f
       1.003679 0.99395454 1.0035176 0.9930154
000280 4d 61 7f 3f c6 73 7e 3f 69 67 80 3f 41 36 7e 3f
       0.99757844 0.99395406 1.0031558 0.99301535
000290 b4 67 80 3f a2 73 7e 3f 46 e3 7f 3f 42 36 7e 3f
       1.0031648 0.9939519 0.99956167 0.9930154
0002a0 98 5f 80 3f d2 73 7e 3f 10 59 80 3f 40 36 7e 3f
       1.0029173 0.9939548 1.002718 0.9930153
0002b0 36 3e 80 3f d8 73 7e 3f 62 c6 80 3f 42 36 7e 3f
       1.0018985 0.99395514 1.0060542 0.9930154
0002c0 b5 71 80 3f 6b 76 7e 3f 23 e0 7f 3f 40 36 7e 3f
       1.0034701 0.9939944 0.9995138 0.9930153
0002d0 1c e3 7f 3f 5f 79 7e 3f ca 67 80 3f 43 36 7e 3f
       0.99955916 0.9940395 1.0031674 0.99301547
0002e0 1d 52 80 3f 9c 6e 7e 3f 31 9a 7f 3f 3e 36 7e 3f
       1.0025059 0.99387527 0.9984465 0.99301517
0002f0 a9 a7 7f 3f 25 34 7e 3f 8d f6 7f 3f 52 e6 80 3f
       0.99865204 0.99298316 0.9998558 1.0070288

rgb_norm.bias f4 [192]
000000 2e 54 e5 3b 1c e7 e5 3b 9e f4 cb bb b8 ec e4 3b
       0.0069985604 0.007016076 -0.006224229 0.006986227
000010 03 9e 82 3b f7 b6 c8 3b a2 2c 2a 3b 1c ea e4 3b
       0.0039861216 0.0061253267 0.0025966545 0.006985916
000020 d3 e8 8a 3b 61 e4 cf 3b 02 36 a7 bb 4b e7 e4 3b
       0.0042391806 0.0063443636 -0.005102874 0.00698558
000030 42 92 fd 3a 0e ec d2 3b 49 54 f2 ba 4a e4 e4 3b
       0.0019345956 0.0064368313 -0.0018488254 0.006985222
000040 86 dc e1 3a cb c0 d6 3b ef ba 32 bb 2a e4 e4 3b
       0.0017231859 0.0065537444 -0.0027272066 0.006985207
000050 e0 9f f5 37 6a 9d d7 3b e2 6d b4 bb 31 e4 e4 3b
       2.9280724e-05 0.0065800445 -0.005506263 0.0069852103
000060 98 bb 2d 3b 83 a6 d7 3b 86 3b 4c bb 46 e4 e4 3b
       0.002650952 0.006581129 -0.0031163408 0.00698522
000070 14 e1 33 3b b9 96 d7 3b 4f f1 9c bb e2 e3 e4 3b
       0.002744739 0.006579247 -0.0047895084 0.0069851736
000080 10 6f 4e 3b 71 8a d7 3b 88 df 91 bb df e4 e4 3b
       0.0031499304 0.006577783 -0.004451696 0.0069852914
000090 ca f0 03 bb 06 95 d7 3b 7a 14 58 bb ed e3 e4 3b
       -0.0020132535 0.0065790443 -0.003297119 0.0069851787
0000a0 ee de 73 3a 9d 99 d7 3b a6 5a 19 ba 22 e4 e4 3b
       0.00093029335 0.0065795914 -0.00058499945 0.0069852034
0000b0 25 97 05 3b bd 91 d7 3b 0e f0 96 b8 91 e4 e4 3b
       0.0020384279 0.0065786527 -7.197271e-05 0.006985255
0000c0 74 4a 93 39 1e 82 d7 3b 51 05 0b 3b 08 e5 e4 3b
       0.00028093497 0.0065767905 0.0021212886 0.0069853105
0000d0 8a 98 bd bb 1a 86 d7 3b 4b 65 c5 bb a5 e4 e4 3b
       -0.0057860063 0.0065772654 -0.006024038 0.0069852644
0000e0 b4 50 83 3b 38 88 d7 3b 01 36 80 bb 56 e4 e4 3b
       0.0040074233 0.006577518 -0.003912688 0.0069852276
0000f0 ed 94 43 3b c6 9b d7 3b c8 a7 e0 3a 18 e4 e4 3b
       0.0029843405 0.006579849 0.0017139846 0.0069851987
000100 14 a0 a2 3b 35 8c d7 3b a2 05 61 3b 6e e4 e4 3b
       0.0049629305 0.0065779933 0.0034335633 0.0069852388
000110 77 37 0a 3b 43 94 d7 3b 95 cf c7 bb ca e4 e4 3b
       0.0021090189 0.0065789535 -0.0060977438 0.0069852816
000120 db 59 04 3b f4 8a d7 3b ed 93 aa 3a 46 e4 e4 3b
       0.002019516 0.006577844 0.0013014056 0.00698522
000130 b1 86 2d bb 24 8d d7 3b 4f b2 1d 3b 96 e4 e4 3b
       -0.0026477987 0.0065781046 0.002406258 0.0069852574
000140 2a 1b 85 bb 20 90 d7 3b 39 f8 b9 bb 54 e4 e4 3b
       -0.004062076 0.0065784603 -0.0056753424 0.0069852266
000150 f7 7c 11 3b f8 95 d7 3b 47 97 22 3a 83 e4 e4 3b
       0.002219973 0.006579157 0.00062023517 0.0069852485
000160 fe 34 1e 3b 9a 9a d7 3b 0c d8 1e 3a 38 e4 e4 3b
       0.0024140473 0.0065797092 0.0006059415 0.0069852136
000170 f0 ac ee 39 18 89 d7 3b ce 29 bd ba 4c e4 e4 3b
       0.00045523746 0.006577622 -0.0014432014 0.006985223
000180 e2 36 97 bb 5d 89 d7 3b f4 fd 50 bb d7 e4 e4 3b
       -0.004614697 0.0065776543 -0.003188965 0.0069852876
000190 f2 44 a5 3a 0b 87 d7 3b 24 df f2 3a 56 e4 e4 3b
       0.0012609048 0.0065773777 0.0018529636 0.0069852276
0001a0 e7 ab 94 b9 f9 90 d7 3b bf 7a 01 bb 8a e4 e4 3b
       -0.00028356837 0.0065785614 -0.0019757 0.006985252
0001b0 56 73 8c 3a e2 97 d7 3b 62 12 56 bb a9 e4 e4 3b
       0.0010715525 0.006579385 -0.0032664766 0.006985266
0001c0 84 28 ed 38 c9 86 d7 3b 0d 38 c4 bb 9f e4 e4 3b
       0.00011308587 0.006577347 -0.005988127 0.0069852616
0001d0 69 eb bf 3a fb 95 d7 3b 3b a3 22 bb 10 e5 e4 3b
       0.0014642301 0.0065791584 -0.0024816531 0.006985314
0001e0 e9 6b 06 3b e6 8a d7 3b ae 7e 32 ba 71 e4 e4 3b
       0.0020511097 0.0065778373 -0.0006809038 0.00698524
0001f0 fa 53 9f 3a 74 7e d7 3b cf 6a b2 bb 0e e4 e4 3b
       0.0012155764 0.0065763537 -0.0054448615 0.006985194
000200 45 ab 85 3b c0 8a d7 3b 77 44 9d 3a 87 e4 e4 3b
       0.004079255 0.0065778196 0.0011998554 0.0069852504
000210 17 48 ed b9 2c 7c d7 3b bf 98 eb ba 70 e4 e4 3b
       -0.00045257874 0.0065760817 -0.0017974599 0.0069852397
000220 d2 1b 3a bb 4c 84 d7 3b 9d 78 05 bb aa e4 e4 3b
       -0.002839793 0.0065770503 -0.002036608 0.0069852667
000230 1b 27 65 bb ba 81 d7 3b 21 c9 d0 bb d5 e4 e4 3b
       -0.0034965936 0.006576744 -0.0063716327 0.0069852867
000240 f0 b2 71 3b 65 85 d7 3b 1d 86 48 bb c2 e4 e4 3b
       0.0036880337 0.006577181 -0.0030597516 0.006985278
000250 88 36 bd 3a 85 79 d7 3b 2f 18 d2 bb e1 e3 e4 3b
       0.0014435807 0.0065757656 -0.0064115743 0.006985173
000260 79 43 87 3b ee 8d d7 3b 76 d4 af bb 41 e4 e4 3b
       0.0041279164 0.0065781986 -0.0053659035 0.006985218
000270 64 1a 71 3b 63 7b d7 3b 8d 8b 66 bb ac e3 e4 3b
       0.0036789412 0.006575988 -0.0035178394 0.0069851484
000280 a3 b3 1e bb fe 7e d7 3b b5 d7 4e bb 8a e4 e4 3b
       -0.0024215959 0.006576418 -0.0031561677 0.006985252
000290 35 68 4f 3b c9 8a d7 3b ec da e5 39 fe e3 e4 3b
       0.0031647806 0.006577824 0.00043841393 0.0069851866
0002a0 a0 30 3f 3b 57 79 d7 3b 00 2f 32 bb 7e e4 e4 3b
       0.002917327 0.006575744 -0.0027188659 0.006985246
0002b0 c7 d7 f8 3a bc 7e d7 3b fa 69 c6 bb 0f e4 e4 3b
       0.0018985205 0.006576387 -0.006055114 0.0069851945
0002c0 a6 6b 63 3b ea d0 d6 3b 2a b9 fe 39 fc e4 e4 3b
       0.0034701615 0.006555666 0.00048584613 0.006985305
0002d0 d4 26 e7 b9 d2 1d d6 3b e9 9a 4f bb 76 e3 e4 3b
       -0.00044088683 0.0065343166 -0.0031678027 0.0069851233
0002e0 36 3a 24 3b 5e 3f d9 3b 32 9f cb 3a e1 e5 e4 3b
       0.002505911 0.0066298684 0.0015535115 0.0069854115
0002f0 6d a8 b0 ba 7d 8b e6 bb 8b 93 17 39 b6 52 e6 bb
       -0.0013477929 -0.0070356713 0.00014455446 -0.007028903

thermal_norm.weight f4 [192]
000000 8f 35 7e 3f a6 e5 80 3f 5c cb 80 3f b2 e4 80 3f
       0.99300474 1.0070083 1.006206 1.0069792
000010 c8 fa 7e 3f 74 cc 80 3f a0 55 7f 3f b0 e4 80 3f
       0.9960141 1.0062394 0.9974003 1.006979
000020 64 e9 7e 3f 74 d1 80 3f 9c a7 80 3f ad e4 80 3f
       0.99574876 1.006392 1.005115 1.0069786
000030 d2 7f 7f 3f 1d d4 80 3f 9b 3c 80 3f aa e4 80 3f
       0.99804413 1.0064732 1.0018495 1.0069783
000040 6e 8e 7f 3f b1 d7 80 3f a1 59 80 3f aa e4 80 3f
       0.99826705 1.0065824 1.0027353 1.0069783
000050 cc ff 7f 3f 83 d8 80 3f 7c b4 80 3f aa e4 80 3f
       0.9999969 1.0066074 1.005508 1.0069783
000060 d2 4f 7f 3f 8b d8 80 3f 53 66 80 3f aa e4 80 3f
       0.9973117 1.0066084 1.0031227 1.0069783
000070 d3 4a 7f 3f 7c d8 80 3f ee 9c 80 3f aa e4 80 3f
       0.9972355 1.0066066 1.0047891 1.0069783
000080 95 30 7f 3f 71 d8 80 3f e2 91 80 3f ab e4 80 3f
       0.99683505 1.0066053 1.004452 1.0069784
000090 d8 42 80 3f 7b d8 80 3f 54 6c 80 3f aa e4 80 3f
       1.0020399 1.0066065 1.0033059 1.0069783
0000a0 67 c3 7f 3f 7d d8 80 3f b4 13 80 3f aa e4 80 3f
       0.99907535 1.0066067 1.0006013 1.0069783
0000b0 91 78 7f 3f 77 d8 80 3f 58 01 80 3f aa e4 80 3f
       0.99793345 1.006606 1.000041 1.0069783
0000c0 9b ed 7f 3f 68 d8 80 3f 3e 74 7f 3f ac e4 80 3f
       0.9997193 1.0066042 0.99786747 1.0069785
0000d0 2a bd 80 3f 6c d8 80 3f 71 c5 80 3f ab e4 80 3f
       1.0057728 1.0066047 1.0060254 1.0069784
0000e0 d7 f8 7e 3f 6e d8 80 3f 7c 80 80 3f aa e4 80 3f
       0.9959845 1.0066049 1.003921 1.0069783
0000f0 34 3d 7f 3f 82 d8 80 3f 16 8e 7f 3f aa e4 80 3f
       0.99702764 1.0066073 0.9982618 1.0069783
000100 5a bb 7e 3f 73 d8 80 3f 8a 1e 7f 3f aa e4 80 3f
       0.99504626 1.0066055 0.99655974 1.0069783
000110 31 78 7f 3f 7a d8 80 3f 13 c7 80 3f ab e4 80 3f
       0.9979277 1.0066063 1.0060753 1.0069784
000120 d0 7d 7f 3f 73 d8 80 3f 6b a8 7f 3f aa e4 80 3f
       0.9980135 1.0066055 0.9986636 1.0069783
000130 49 57 80 3f 75 d8 80 3f 01 60 7f 3f aa e4 80 3f
       1.0026637 1.0066057 0.99755865 1.0069783
000140 76 85 80 3f 77 d8 80 3f 40 ba 80 3f aa e4 80 3f
       1.0040729 1.006606 1.0056839 1.0069783
000150 42 6d 7f 3f 7c d8 80 3f bf d8 7f 3f aa e4 80 3f
       0.9977609 1.0066066 0.99940103 1.0069783
000160 20 60 7f 3f 81 d8 80 3f fe d8 7f 3f aa e4 80 3f
       0.9975605 1.0066072 0.9994048 1.0069783
000170 6b e3 7f 3f 6f d8 80 3f ac 2f 80 3f aa e4 80 3f
       0.9995639 1.006605 1.0014548 1.0069783
000180 a8 97 80 3f 71 d8 80 3f 1d 69 80 3f ab e4 80 3f
       1.0046282 1.0066053 1.0032078 1.0069784
000190 79 aa 7f 3f 6d d8 80 3f 6d 85 7f 3f aa e4 80 3f
       0.99869496 1.0066048 0.99812967 1.0069783
0001a0 ab 08 80 3f 77 d8 80 3f 99 41 80 3f aa e4 80 3f
       1.0002645 1.006606 1.0020019 1.0069783
0001b0 49 ba 7f 3f 7e d8 80 3f 45 6b 80 3f ab e4 80 3f
       0.99893624 1.0066068 1.0032736 1.0069784
0001c0 ba fa 7f 3f 6d d8 80 3f 4c c4 80 3f aa e4 80 3f
       0.99991953 1.0066048 1.0059905 1.0069783
0001d0 76 9d 7f 3f 7b d8 80 3f b4 51 80 3f ac e4 80 3f
       0.9984964 1.0066065 1.0024934 1.0069785
0001e0 6b 7c 7f 3f 72 d8 80 3f 89 15 80 3f aa e4 80 3f
       0.9979922 1.0066054 1.0006572 1.0069783
0001f0 e4 af 7f 3f 64 d8 80 3f c0 b1 80 3f aa e4 80 3f
       0.9987776 1.0066037 1.0054245 1.0069783
000200 cd f3 7e 3f 71 d8 80 3f 06 b1 7f 3f aa e4 80 3f
       0.9959076 1.0066053 0.9987949 1.0069783
000210 5b 0f 80 3f 63 d8 80 3f 5a 3b 80 3f ab e4 80 3f
       1.0004686 1.0066036 1.0018113 1.0069784
000220 d3 5d 80 3f 6b d8 80 3f 3e 42 80 3f ab e4 80 3f
       1.0028633 1.0066046 1.0020216 1.0069784
000230 38 73 80 3f 6a d8 80 3f 36 d1 80 3f ab e4 80 3f
       1.0035162 1.0066044 1.0063846 1.0069784
000240 87 0c 7f 3f 6c d8 80 3f 9a 64 80 3f ab e4 80 3f
       0.9962849 1.0066047 1.0030701 1.0069784
000250 c4 a0 7f 3f 60 d8 80 3f e4 d1 80 3f aa e4 80 3f
       0.99854684 1.0066032 1.0064054 1.0069783
000260 a6 f0 7e 3f 75 d8 80 3f 3a af 80 3f aa e4 80 3f
       0.9958595 1.0066057 1.0053475 1.0069783
000270 34 0d 7f 3f 63 d8 80 3f 86 73 80 3f aa e4 80 3f
       0.9962952 1.0066036 1.0035255 1.0069783
000280 15 4f 80 3f 65 d8 80 3f 04 68 80 3f aa e4 80 3f
       1.0024134 1.0066038 1.0031743 1.0069783
000290 c2 2f 7f 3f 71 d8 80 3f 7c e1 7f 3f aa e4 80 3f
       0.9968225 1.0066053 0.99953437 1.0069783
0002a0 af 40 7f 3f 60 d8 80 3f 6b 59 80 3f aa e4 80 3f
       0.99708074 1.0066032 1.0027288 1.0069783
0002b0 9c 83 7f 3f 65 d8 80 3f 44 c6 80 3f aa e4 80 3f
       0.99810195 1.0066038 1.0060506 1.0069783
0002c0 55 1c 7f 3f c0 d7 80 3f d5 df 7f 3f ac e4 80 3f
       0.99652606 1.0065842 0.99950916 1.0069785
0002d0 2f 0f 80 3f 16 d7 80 3f 78 68 80 3f aa e4 80 3f
       1.0004634 1.0065639 1.0031881 1.0069783
0002e0 89 5b 7f 3f 12 da 80 3f 18 99 7f 3f ad e4 80 3f
       0.99749047 1.006655 0.9984298 1.0069786
0002f0 b1 2c 80 3f 6d 32 7e 3f 12 f4 7f 3f d2 33 7e 3f
       1.0013639 0.99295694 0.99981797 0.9929782

thermal_norm.bias f4 [192]
000000 72 38 e5 3b 3f a6 e5 3b 55 5b cb bb 0f b2 e4 3b
       0.006995254 0.0070083435 -0.006205956 0.006979234
000010 f7 9b 82 3b ee b0 cc 3b 38 60 2a 3b 84 af e4 3b
       0.0039858776 0.0062466776 0.0025997292 0.006978931
000020 8f 4d 8b 3b 45 8b d1 3b eb 9c a7 bb c9 ac e4 3b
       0.004251189 0.006394776 -0.0051151416 0.0069786054
000030 e9 2d 00 3b 02 2e d4 3b da 68 f2 ba fc a9 e4 3b
       0.0019558615 0.006475211 -0.0018494383 0.0069782715
000040 ac 24 e3 3a 21 bd d7 3b 3e 43 33 bb ce a9 e4 3b
       0.0017329655 0.006583825 -0.0027353312 0.00697825
000050 00 a8 54 36 69 8e d8 3b ea 7b b4 bb cc a9 e4 3b
       3.168825e-06 0.0066087735 -0.005507936 0.006978249
000060 1e 2e 30 3b 5c 97 d8 3b ec a4 4c bb ea a9 e4 3b
       0.0026882957 0.0066098403 -0.003122623 0.006978263
000070 f4 2d 35 3b 63 88 d8 3b 94 ee 9c bb 7f a9 e4 3b
       0.0027645798 0.0066080554 -0.004789183 0.0069782133
000080 80 6a 4f 3b 5e 7c d8 3b ba e3 91 bb 8b aa e4 3b
       0.0031649172 0.0066066226 -0.004452196 0.006978338
000090 12 af 05 bb ca 86 d8 3b c5 a9 58 bb 8c a9 e4 3b
       -0.002039854 0.006607865 -0.0033060175 0.0069782194
0000a0 e2 61 72 3a c8 8a d8 3b 58 9d 1d ba c6 a9 e4 3b
       0.0009246153 0.006608341 -0.0006012521 0.0069782464
0000b0 bf 6e 07 3b ab 83 d8 3b 76 2d 2c b8 32 aa e4 3b
       0.0020665375 0.006607493 -4.1050334e-05 0.0069782967
0000c0 64 30 93 39 80 74 d8 3b 7a c1 0b 3b bf aa e4 3b
       0.0002807408 0.0066056848 0.0021325038 0.0069783623
0000d0 13 2a bd bb 1e 78 d8 3b 45 72 c5 bb 49 aa e4 3b
       -0.005772838 0.006606116 -0.006025585 0.0069783074
0000e0 fe 94 83 3b fa 79 d8 3b 95 7b 80 bb f8 a9 e4 3b
       0.004015564 0.0066063376 -0.003920982 0.0069782697
0000f0 e2 ca 42 3b 46 8d d8 3b 06 d5 e3 3a bd a9 e4 3b
       0.0029722978 0.006608638 0.0017382212 0.006978242
000100 f1 52 a2 3b 19 7e d8 3b 4f 75 61 3b 14 aa e4 3b
       0.004953735 0.006606829 0.0034402197 0.0069782827
000110 52 d1 07 3b cc 85 d8 3b c4 12 c7 bb 74 aa e4 3b
       0.002072413 0.0066077467 -0.006075235 0.0069783274
000120 53 31 02 3b 27 7d d8 3b 84 2a af 3a e6 a9 e4 3b
       0.0019865825 0.006606716 0.0013364111 0.0069782613
000130 e8 92 2e bb 57 7f d8 3b f9 fe 1f 3b 33 aa e4 3b
       -0.0026637856 0.006606977 0.002441345 0.006978297
000140 5a 74 85 bb 69 82 d8 3b 16 41 ba bb f2 a9 e4 3b
       -0.004072708 0.006607343 -0.0056840284 0.006978267
000150 5c bd 12 3b f7 87 d8 3b 84 06 1d 3a 2e aa e4 3b
       0.00223907 0.006608005 0.00059900456 0.006978295
000160 cf e0 1f 3b 5a 8c d8 3b a5 ff 1b 3a d8 a9 e4 3b
       0.002439547 0.006608528 0.0005950875 0.0069782548
000170 32 a0 e4 39 44 7b d8 3b 56 b0 be ba f8 a9 e4 3b
       0.00043606904 0.0066064913 -0.0014548402 0.0069782697
000180 4a a7 97 bb 85 7b d8 3b 03 37 52 bb 88 aa e4 3b
       -0.0046280967 0.0066065216 -0.0032076247 0.0069783367
000190 9a 10 ab 3a f6 78 d8 3b 83 26 f5 3a f0 a9 e4 3b
       0.0013051212 0.0066062165 0.0018703494 0.006978266
0001a0 88 bc 8a b9 2f 83 d8 3b 82 33 03 bb 30 aa e4 3b
       -0.00026461878 0.006607435 -0.0020019715 0.0069782957
0001b0 be 68 8b 3a 9e 89 d8 3b 00 8a 56 bb 4c aa e4 3b
       0.0010636074 0.006608202 -0.0032736063 0.006978309
0001c0 c4 c6 a8 38 15 79 d8 3b 34 4d c4 bb 45 aa e4 3b
       8.047887e-05 0.006606231 -0.0059906486 0.0069783055
0001d0 1b 14 c5 3a bd 87 d8 3b c1 65 23 bb c2 aa e4 3b
       0.0015035899 0.006607978 -0.0024932476 0.0069783637
0001e0 16 96 03 3b ac 7c d8 3b 3c 42 2c ba 19 aa e4 3b
       0.0020078472 0.006606659 -0.0006571149 0.006978285
0001f0 90 36 a0 3a 93 70 d8 3b 42 bf b1 bb b5 a9 e4 3b
       0.0012223292 0.006605217 -0.005424411 0.0069782385
000200 04 1a 86 3b b7 7c d8 3b 23 f0 9d 3a 33 aa e4 3b
       0.004092457 0.006606664 0.0012049716 0.006978297
000210 b9 b5 f5 b9 95 6e d8 3b 47 69 ed ba 15 aa e4 3b
       -0.00046865435 0.0066049793 -0.001811304 0.006978283
000220 64 a3 3b bb ec 76 d8 3b 4e 7d 04 bb 4a aa e4 3b
       -0.0028631324 0.0066059735 -0.002021629 0.006978308
000230 ef 70 66 bb 91 74 d8 3b b6 35 d1 bb 7e aa e4 3b
       -0.0035162529 0.0066056927 -0.0063845767 0.006978332
000240 8a 78 73 3b cb 77 d8 3b 6c 34 49 bb 71 aa e4 3b
       0.0037150704 0.0066060773 -0.0030701412 0.006978326
000250 88 76 be 3a 38 6c d8 3b ff e4 d1 bb 8a a9 e4 3b
       0.0014531175 0.0066046976 -0.0064054723 0.0069782184
000260 8c ac 87 3b 26 80 d8 3b dd 39 af bb db a9 e4 3b
       0.0041404422 0.0066070734 -0.005347474 0.006978256
000270 26 cc 72 3b c4 6d d8 3b 7b 0c 67 bb 43 a9 e4 3b
       0.0037047951 0.006604882 -0.0035255242 0.0069781854
000280 f0 29 1e bb 58 71 d8 3b 35 08 50 bb 2e aa e4 3b
       -0.0024133883 0.0066053085 -0.0031743173 0.006978295
000290 7e 3e 50 3b e2 7c d8 3b 9a 1a f4 39 94 a9 e4 3b
       0.003177553 0.006606684 0.00046559126 0.006978223
0002a0 bb 51 3f 3b c9 6b d8 3b b0 d8 32 bb 27 aa e4 3b
       0.0029193002 0.006604646 -0.00272898 0.0069782916
0002b0 05 c8 f8 3a ab 71 d8 3b 70 45 c6 bb b4 a9 e4 3b
       0.0018980509 0.006605347 -0.006050758 0.006978238
0002c0 f6 a9 63 3b 5a cc d7 3b cf aa 00 3a a1 aa e4 3b
       0.0034738756 0.00658564 0.0004908265 0.0069783484
0002d0 b2 f8 f2 b9 3f 23 d7 3b c7 ee 50 bb 14 a9 e4 3b
       -0.0004634313 0.006565481 -0.0031880604 0.0069781635
0002e0 98 76 24 3b c2 1d da 3b 81 d0 cd 3a 73 ab e4 3b
       0.0025095101 0.0066563794 0.0015702398 0.006978446
0002f0 de c2 b2 ba b4 cc e6 bb 8e e0 3e 39 7e 17 e6 bb
       -0.0013638397 -0.0070434455 0.00018203465 -0.0070218435

fusion_layer.0.weight f4 [1, 2, 1]
000000 2c 34 0a be fa d4 07 bf
       -0.13496464 -0.5305935
