model_paths/best_model_AMPNet_fold_1.pth (torch, 7476 bytes, 5 tensors)

rgb_norm.weight f4 [192]
0	0x3f7e33f2	0.9929801
1	0x3f80e47f	1.0069731
2	0x3f80daf1	1.0066816
3	0x3f80e4c6	1.0069816
4	0x3f7e396c	0.9930637
5	0x3f80def7	1.0068043
6	0x3f7e3c57	0.9931082
7	0x3f80e4c6	1.0069816
8	0x3f7e4a03	0.9933168
9	0x3f80df0a	1.0068066
10	0x3f7e36bd	0.99302274
11	0x3f80e4c6	1.0069816
12	0x3f7e6153	0.99367255
13	0x3f80def7	1.0068043
14	0x3f7e3a72	0.9930793
15	0x3f80e4c6	1.0069816
16	0x3f7e73ea	0.9939562
17	0x3f80def8	1.0068045
18	0x3f7e33e8	0.9929795
19	0x3f80e4c6	1.0069816
20	0x3f7e37bc	0.99303794
21	0x3f80df01	1.0068055
22	0x3f7e3b54	0.9930928
23	0x3f80e4c6	1.0069816
24	0x3f7e4abb	0.9933278
25	0x3f80defe	1.0068052
26	0x3f7e3ceb	0.99311703
27	0x3f80e4c6	1.0069816
28	0x3f7e4e0a	0.9933783
29	0x3f80defe	1.0068052
30	0x3f7e33d6	0.99297845
31	0x3f80e4c6	1.0069816
32	0x3f7e5a60	0.9935665
33	0x3f80deff	1.0068053
34	0x3f7e37fe	0.9930419
35	0x3f80e4c6	1.0069816
36	0x3f7e4853	0.9932911
37	0x3f80deff	1.0068053
38	0x3f7e3665	0.9930175
39	0x3f80e4c6	1.0069816
40	0x3f7e4144	0.9931834
41	0x3f80deff	1.0068053
42	0x3f7e3902	0.99305737
43	0x3f80e4c6	1.0069816
44	0x3f7e585f	0.99353594
45	0x3f80df00	1.0068054
46	0x3f7e396f	0.99306387
47	0x3f80e4c6	1.0069816
48	0x3f7e3f28	0.9931512
49	0x3f80defe	1.0068052
50	0x3f7e4543	0.99324435
51	0x3f80e4c6	1.0069816
52	0x3f7e524a	0.99344313
53	0x3f80deff	1.0068053
54	0x3f7e357c	0.9930036
55	0x3f80e4c6	1.0069816
56	0x3f7e4630	0.9932585
57	0x3f80defb	1.0068048
58	0x3f7e3705	0.99302703
59	0x3f80e4c6	1.0069816
60	0x3f7e5221	0.9934407
61	0x3f80deff	1.0068053
62	0x3f7e3e43	0.99313754
63	0x3f80e4c6	1.0069816
64	0x3f7e417d	0.9931868
65	0x3f80deff	1.0068053
66	0x3f7e3372	0.9929725
67	0x3f80e4c6	1.0069816
68	0x3f7e52f2	0.99345315
69	0x3f80defe	1.0068052
70	0x3f7e3d72	0.9931251
71	0x3f80e4c6	1.0069816
72	0x3f7e424e	0.9931992
73	0x3f80defd	1.0068051
74	0x3f7e437b	0.9932172
75	0x3f80e4c6	1.0069816
76	0x3f7e4fcd	0.99340516
77	0x3f80defe	1.0068052
78	0x3f7e3965	0.9930633
79	0x3f80e4c6	1.0069816
80	0x3f7e48f4	0.9933007
81	0x3f80df01	1.0068055
82	0x3f7e32ec	0.9929645
83	0x3f80e4c6	1.0069816
84	0x3f7e4cd0	0.99335957
85	0x3f80defd	1.0068051
86	0x3f7e4352	0.9932147
87	0x3f80e4c6	1.0069816
88	0x3f7e3e17	0.9931349
89	0x3f80defc	1.006805
90	0x3f7e3f2d	0.9931515
91	0x3f80e4c6	1.0069816
92	0x3f7e4334	0.99321294
93	0x3f80deff	1.0068053
94	0x3f7e41dc	0.99319243
95	0x3f80e4c6	1.0069816
96	0x3f7e67ba	0.99377024
97	0x3f80defe	1.0068052
98	0x3f7e3c58	0.9931083
99	0x3f80e4c6	1.0069816
100	0x3f7e51b2	0.9934341
101	0x3f80df00	1.0068054
102	0x3f7e39fb	0.9930722
103	0x3f80e4c6	1.0069816
104	0x3f7e5d1d	0.9936083
105	0x3f80deff	1.0068053
106	0x3f7e3b64	0.9930937
107	0x3f80e4c6	1.0069816
108	0x3f7e4e0a	0.9933783
109	0x3f80defe	1.0068052
110	0x3f7e3b17	0.99308914
111	0x3f80e4c6	1.0069816
112	0x3f7e4537	0.99324363
113	0x3f80defd	1.0068051
114	0x3f7e364a	0.9930159
115	0x3f80e4c6	1.0069816
116	0x3f7e4af7	0.9933314
117	0x3f80defe	1.0068052
118	0x3f7e39a8	0.99306726
119	0x3f80e4c6	1.0069816
120	0x3f7e49d5	0.9933141
121	0x3f80defd	1.0068051
122	0x3f7e3cd7	0.99311584
123	0x3f80e4c6	1.0069816
124	0x3f7e36c8	0.9930234
125	0x3f80defe	1.0068052
126	0x3f7e3914	0.99305844
127	0x3f80e4c6	1.0069816
128	0x3f7e4000	0.99316406
129	0x3f80defd	1.0068051
130	0x3f7e36ff	0.9930267
131	0x3f80e4c6	1.0069816
132	0x3f7e4ca0	0.9933567
133	0x3f80deff	1.0068053
134	0x3f7e3c19	0.9931045
135	0x3f80e4c6	1.0069816
136	0x3f7e5fc0	0.9936485
137	0x3f80df01	1.0068055
138	0x3f7e397b	0.9930646
139	0x3f80e4c6	1.0069816
140	0x3f7e42ab	0.9932048
141	0x3f80defd	1.0068051
142	0x3f7e34d0	0.99299335
143	0x3f80e4c6	1.0069816
144	0x3f7e546b	0.9934756
145	0x3f80deff	1.0068053
146	0x3f7e3505	0.9929965
147	0x3f80e4c6	1.0069816
148	0x3f7e3cfe	0.99311817
149	0x3f80defc	1.006805
150	0x3f7e3cf1	0.9931174
151	0x3f80e4c6	1.0069816
152	0x3f7e57cc	0.9935272
153	0x3f80deff	1.0068053
154	0x3f7e41a0	0.99318886
155	0x3f80e4c6	1.0069816
156	0x3f7e447d	0.99323255
157	0x3f80defb	1.0068048
158	0x3f7e3ea9	0.9931436
159	0x3f80e4c6	1.0069816
160	0x3f7e4948	0.9933057
161	0x3f80df01	1.0068055
162	0x3f7e3c09	0.99310356
163	0x3f80e4c6	1.0069816
164	0x3f7e40c1	0.99317557
165	0x3f80defc	1.006805
166	0x3f7e38ca	0.99305403
167	0x3f80e4c6	1.0069816
168	0x3f7e4bd3	0.9933445
169	0x3f80deff	1.0068053
170	0x3f7e3983	0.99306506
171	0x3f80e4c6	1.0069816
172	0x3f7e3e5a	0.9931389
173	0x3f80df00	1.0068054
174	0x3f7e3e7f	0.9931411
175	0x3f80e4c6	1.0069816
176	0x3f7e3b52	0.99309266
177	0x3f80defa	1.0068047
178	0x3f7e3d4c	0.9931228
179	0x3f80e4c6	1.0069816
180	0x3f7e557a	0.99349177
181	0x3f80deee	1.0068033
182	0x3f7e3f21	0.9931508
183	0x3f80e4c6	1.0069816
184	0x3f7e4a66	0.99332273
185	0x3f80debb	1.0067972
186	0x3f7e3a88	0.9930806
187	0x3f80e4c6	1.0069816
188	0x3f7e4a10	0.9933176
189	0x3f80e63c	1.0070262
190	0x3f7e38cb	0.9930541
191	0x3f80e4cc	1.0069823

rgb_norm.bias f4 [192]
0	0x3be6073c	0.0070199054
1	0xbbe47fa4	-0.0069732238
2	0x3bdaf24d	0.0066817165
3	0xbbe4c458	-0.006981414
4	0xbbe349fa	-0.006936309
5	0xbbdf4348	-0.0068134405
6	0x3be1d4e7	0.006891835
7	0xbbe4c468	-0.0069814213
8	0xbbdafe4c	-0.0066831466
9	0xbbdf54be	-0.006815522
10	0x3be4a198	0.0069772713
11	0xbbe4c47d	-0.006981431
12	0xbbcf55c5	-0.006327363
13	0xbbdf444a	-0.0068135606
14	0x3be2c76a	0.0069207447
15	0xbbe4c482	-0.0069814334
16	0xbbc60ad0	-0.0060437694
17	0xbbdf46c0	-0.006813854
18	0x3be60bc2	0.0070204446
19	0xbbe4c479	-0.006981429
20	0xbbe4223f	-0.0069620903
21	0xbbdf4bfe	-0.006814479
22	0x3be25601	0.006907225
23	0xbbe4c47b	-0.00698143
24	0xbbdaa2b2	-0.006672227
25	0xbbdf4a8e	-0.0068143075
26	0x3be18ac6	0.006882998
27	0xbbe4c477	-0.0069814282
28	0xbbd8fbc4	-0.0066218097
29	0xbbdf4ad2	-0.006814339
30	0x3be6150e	0.007021553
31	0xbbe4c475	-0.0069814273
32	0xbbd2d015	-0.0064334967
33	0xbbdf4b05	-0.006814363
34	0x3be40193	0.0069581955
35	0xbbe4c47b	-0.00698143
36	0xbbdbd6d1	-0.0067089577
37	0xbbdf4b24	-0.0068143774
38	0x3be4cd9d	0.006982519
39	0xbbe4c479	-0.006981429
40	0xbbdf5dfe	-0.0068166247
41	0xbbdf4b5d	-0.006814404
42	0x3be37f7e	0.0069426885
43	0xbbe4c481	-0.006981433
44	0xbbd3d127	-0.006464142
45	0xbbdf4b71	-0.0068144132
46	0x3be3490c	0.006936198
47	0xbbe4c47c	-0.0069814306
48	0xbbe06b69	-0.006848742
49	0xbbdf4ac4	-0.0068143327
50	0x3bdd5ef7	0.0067557055
51	0xbbe4c47e	-0.0069814315
52	0xbbd6dad8	-0.00655685
53	0xbbdf4b04	-0.0068143625
54	0x3be54247	0.0069964263
55	0xbbe4c47d	-0.006981431
56	0xbbdce796	-0.0067414744
57	0xbbdf4a4a	-0.006814276
58	0x3be47df0	0.0069730207
59	0xbbe4c481	-0.006981433
60	0xbbd6ef60	-0.0065592974
61	0xbbdf4b31	-0.0068143834
62	0x3be0deca	0.006862496
63	0xbbe4c478	-0.0069814287
64	0xbbdf41a8	-0.0068132468
65	0xbbdf4b54	-0.0068143997
66	0x3be6476d	0.0070275576
67	0xbbe4c47f	-0.006981432
68	0xbbd686da	-0.0065468373
69	0xbbdf4af5	-0.0068143555
70	0x3be147da	0.0068750205
71	0xbbe4c479	-0.006981429
72	0xbbded8ca	-0.0068007456
73	0xbbdf4a87	-0.0068143043
74	0x3bde4370	0.0067829415
75	0xbbe4c478	-0.0069814287
76	0xbbd8198a	-0.0065948414
77	0xbbdf4ade	-0.006814345
78	0x3be34d94	0.0069367383
79	0xbbe4c474	-0.006981427
80	0xbbdb855d	-0.0066992478
81	0xbbdf4bf8	-0.006814476
82	0x3be68a50	0.007035531
83	0xbbe4c478	-0.0069814287
84	0xbbd99859	-0.0066404757
85	0xbbdf4a5a	-0.0068142833
86	0x3bde5771	0.006785326
87	0xbbe4c476	-0.006981428
88	0xbbe0f50d	-0.00686515
89	0xbbdf4a36	-0.0068142666
90	0x3be069bb	0.0068485416
91	0xbbe4c46c	-0.006981423
92	0xbbde65fd	-0.0067870603
93	0xbbdf4b28	-0.0068143792
94	0x3bdf130c	0.0068076905
95	0xbbe4c474	-0.006981427
96	0xbbcc2292	-0.006229707
97	0xbbdf4ac0	-0.006814331
98	0x3be1d4aa	0.0068918066
99	0xbbe4c473	-0.0069814264
100	0xbbd72724	-0.006565945
101	0xbbdf4b95	-0.00681443
102	0x3be302e6	0.0069278358
103	0xbbe4c476	-0.006981428
104	0xbbd1722e	-0.006391785
105	0xbbdf4b27	-0.006814379
106	0x3be24e1e	0.006906285
107	0xbbe4c481	-0.006981433
108	0xbbd8fb2f	-0.0066217403
109	0xbbdf4abe	-0.00681433
110	0x3be274b6	0.0069108857
111	0xbbe4c47e	-0.0069814315
112	0xbbdd64f3	-0.006756419
113	0xbbdf4acf	-0.006814338
114	0x3be4dac3	0.0069840862
115	0xbbe4c485	-0.0069814348
116	0xbbda8498	-0.0066686384
117	0xbbdf4ac4	-0.0068143327
118	0x3be32c72	0.0069327885
119	0xbbe4c476	-0.006981428
120	0xbbdb1573	-0.0066859066
121	0xbbdf4acc	-0.0068143364
122	0x3be194d2	0.006884196
123	0xbbe4c476	-0.006981428
124	0xbbe49b20	-0.0069765
125	0xbbdf4b0d	-0.0068143667
126	0x3be37684	0.0069416184
127	0xbbe4c47b	-0.00698143
128	0xbbdfff74	-0.0068358723
129	0xbbdf4af1	-0.0068143536
130	0x3be4808a	0.006973331
131	0xbbe4c475	-0.0069814273
132	0xbbd9b033	-0.006643319
133	0xbbdf4b43	-0.006814392
134	0x3be1f3df	0.006895527
135	0xbbe4c47c	-0.0069814306
136	0xbbd01ea2	-0.006351308
137	0xbbdf4bd0	-0.0068144575
138	0x3be34254	0.006935397
139	0xbbe4c486	-0.006981435
140	0xbbdeaa7e	-0.0067952266
141	0xbbdf4b02	-0.0068143615
142	0x3be5984f	0.007006682
143	0xbbe4c481	-0.006981433
144	0xbbd5ca69	-0.0065243733
145	0xbbdf4b33	-0.0068143844
146	0x3be57dfb	0.0070035434
147	0xbbe4c47a	-0.0069814296
148	0xbbe180c3	-0.0068818047
149	0xbbdf4a46	-0.006814274
150	0x3be18766	0.006882596
151	0xbbe4c476	-0.006981428
152	0xbbd41a43	-0.006472857
153	0xbbdf4af3	-0.0068143546
154	0x3bdf3062	0.0068111876
155	0xbbe4c47e	-0.0069814315
156	0xbbddc209	-0.0067675156
157	0xbbdf4a11	-0.0068142493
158	0x3be0ac75	0.006856496
159	0xbbe4c473	-0.0069814264
160	0xbbdb5bdc	-0.0066943
161	0xbbdf4bfe	-0.006814479
162	0x3be1fc14	0.006896505
163	0xbbe4c47a	-0.0069814296
164	0xbbdf9f70	-0.0068244264
165	0xbbdf4a1a	-0.0068142535
166	0x3be39b32	0.006945991
167	0xbbe4c476	-0.006981428
168	0xbbda1696	-0.0066555245
169	0xbbdf4b14	-0.00681437
170	0x3be33f85	0.0069350624
171	0xbbe4c47c	-0.0069814306
172	0xbbe0d327	-0.006861109
173	0xbbdf4aea	-0.0068143504
174	0x3be0c0a6	0.006858903
175	0xbbe4c485	-0.0069814348
176	0xbbe25672	-0.0069072777
177	0xbbdf4742	-0.0068139145
178	0x3be15ace	0.00687728
179	0xbbe4c488	-0.006981436
180	0xbbd54306	-0.006508234
181	0xbbdf3d0b	-0.006812697
182	0x3be06fc7	0.0068492624
183	0xbbe4c479	-0.006981429
184	0xbbdaccc6	-0.006677243
185	0xbbdf0f76	-0.006807263
186	0x3be2bb6d	0.0069193156
187	0xbbe4c47e	-0.0069814315
188	0xbbdaf84c	-0.0066824313
189	0x3be6445a	0.007027191
190	0x3be39aee	0.0069459593
191	0xbbe4caa2	-0.0069821635

thermal_norm.weight f4 [192]
0	0x3f80e629	1.0070239
1	0x3f80e4b3	1.0069793
2	0x3f80db3b	1.0066904
3	0x3f80e4f4	1.0069871
4	0x3f7e391b	0.99305886
5	0x3f80df91	1.0068227
6	0x3f80e1f5	1.0068957
7	0x3f80e4f4	1.0069871
8	0x3f7e496f	0.993308
9	0x3f80dfa4	1.006825
10	0x3f80e4bf	1.0069808
11	0x3f80e4f4	1.0069871
12	0x3f7e6103	0.9936678
13	0x3f80df93	1.006823
14	0x3f80e2f2	1.0069258
15	0x3f80e4f4	1.0069871
16	0x3f7e733c	0.99394584
17	0x3f80df95	1.0068232
18	0x3f80e621	1.007023
19	0x3f80e4f4	1.0069871
20	0x3f7e37af	0.99303716
21	0x3f80df99	1.0068237
22	0x3f80e28d	1.0069138
23	0x3f80e4f4	1.0069871
24	0x3f7e4a56	0.9933218
25	0x3f80df99	1.0068237
26	0x3f80e1d2	1.0068915
27	0x3f80e4f4	1.0069871
28	0x3f7e4d64	0.9933684
29	0x3f80df99	1.0068237
30	0x3f80e624	1.0070233
31	0x3f80e4f4	1.0069871
32	0x3f7e5a22	0.9935628
33	0x3f80df99	1.0068237
34	0x3f80e415	1.0069605
35	0x3f80e4f4	1.0069871
36	0x3f7e47d8	0.99328375
37	0x3f80df99	1.0068237
38	0x3f80e4f5	1.0069872
39	0x3f80e4f4	1.0069871
40	0x3f7e40ae	0.99317443
41	0x3f80df99	1.0068237
42	0x3f80e3af	1.0069484
43	0x3f80e4f4	1.0069871
44	0x3f7e5804	0.9935305
45	0x3f80df99	1.0068237
46	0x3f80e382	1.006943
47	0x3f80e4f4	1.0069871
48	0x3f7e3f23	0.9931509
49	0x3f80df99	1.0068237
50	0x3f80ddb8	1.0067663
51	0x3f80e4f4	1.0069871
52	0x3f7e5219	0.9934402
53	0x3f80df99	1.0068237
54	0x3f80e560	1.007
55	0x3f80e4f4	1.0069871
56	0x3f7e45df	0.99325365
57	0x3f80df98	1.0068235
58	0x3f80e4a4	1.0069776
59	0x3f80e4f4	1.0069871
60	0x3f7e5161	0.99342924
61	0x3f80df99	1.0068237
62	0x3f80e10b	1.0068678
63	0x3f80e4f4	1.0069871
64	0x3f7e418b	0.9931876
65	0x3f80df99	1.0068237
66	0x3f80e65e	1.0070302
67	0x3f80e4f4	1.0069871
68	0x3f7e525d	0.99344426
69	0x3f80df99	1.0068237
70	0x3f80e186	1.0068824
71	0x3f80e4f4	1.0069871
72	0x3f7e41dd	0.9931925
73	0x3f80df99	1.0068237
74	0x3f80de9c	1.0067935
75	0x3f80e4f4	1.0069871
76	0x3f7e4f5e	0.99339855
77	0x3f80df99	1.0068237
78	0x3f80e37a	1.006942
79	0x3f80e4f4	1.0069871
80	0x3f7e4857	0.9932913
81	0x3f80df9b	1.0068239
82	0x3f80e6a0	1.0070381
83	0x3f80e4f4	1.0069871
84	0x3f7e4c77	0.99335426
85	0x3f80df99	1.0068237
86	0x3f80de9d	1.0067936
87	0x3f80e4f4	1.0069871
88	0x3f7e3de3	0.9931318
89	0x3f80df98	1.0068235
90	0x3f80e0aa	1.0068562
91	0x3f80e4f4	1.0069871
92	0x3f7e42cb	0.9932067
93	0x3f80df99	1.0068237
94	0x3f80df45	1.0068136
95	0x3f80e4f4	1.0069871
96	0x3f7e677f	0.9937667
97	0x3f80df99	1.0068237
98	0x3f80e217	1.0068997
99	0x3f80e4f4	1.0069871
100	0x3f7e5175	0.99343044
101	0x3f80df99	1.0068237
102	0x3f80e337	1.006934
103	0x3f80e4f4	1.0069871
104	0x3f7e5c6e	0.99359787
105	0x3f80df99	1.0068237
106	0x3f80e27a	1.0069115
107	0x3f80e4f4	1.0069871
108	0x3f7e4dfc	0.99337745
109	0x3f80df99	1.0068237
110	0x3f80e29d	1.0069157
111	0x3f80e4f4	1.0069871
112	0x3f7e44d2	0.9932376
113	0x3f80df99	1.0068237
114	0x3f80e4fa	1.0069878
115	0x3f80e4f4	1.0069871
116	0x3f7e4a5a	0.993322
117	0x3f80df99	1.0068237
118	0x3f80e34d	1.0069367
119	0x3f80e4f4	1.0069871
120	0x3f7e4958	0.99330664
121	0x3f80df99	1.0068237
122	0x3f80e1d3	1.0068916
123	0x3f80e4f4	1.0069871
124	0x3f7e3676	0.9930185
125	0x3f80df99	1.0068237
126	0x3f80e3ac	1.006948
127	0x3f80e4f4	1.0069871
128	0x3f7e3fb2	0.9931594
129	0x3f80df99	1.0068237
130	0x3f80e4a8	1.006978
131	0x3f80e4f4	1.0069871
132	0x3f7e4c59	0.9933525
133	0x3f80df99	1.0068237
134	0x3f80e21c	1.0069003
135	0x3f80e4f4	1.0069871
136	0x3f7e5fbb	0.99364823
137	0x3f80df9a	1.0068238
138	0x3f80e372	1.0069411
139	0x3f80e4f4	1.0069871
140	0x3f7e4270	0.99320126
141	0x3f80df98	1.0068235
142	0x3f80e5a8	1.0070086
143	0x3f80e4f4	1.0069871
144	0x3f7e5449	0.9934736
145	0x3f80df99	1.0068237
146	0x3f80e590	1.0070057
147	0x3f80e4f4	1.0069871
148	0x3f7e3cbf	0.9931144
149	0x3f80df98	1.0068235
150	0x3f80e1be	1.0068891
151	0x3f80e4f4	1.0069871
152	0x3f7e5717	0.9935164
153	0x3f80df98	1.0068235
154	0x3f80df6e	1.0068185
155	0x3f80e4f4	1.0069871
156	0x3f7e43e5	0.9932235
157	0x3f80df98	1.0068235
158	0x3f80e0e7	1.0068635
159	0x3f80e4f4	1.0069871
160	0x3f7e491d	0.9933031
161	0x3f80df9a	1.0068238
162	0x3f80e232	1.0069029
163	0x3f80e4f4	1.0069871
164	0x3f7e40ca	0.9931761
165	0x3f80df98	1.0068235
166	0x3f80e3ca	1.0069516
167	0x3f80e4f4	1.0069871
168	0x3f7e4c00	0.99334717
169	0x3f80df99	1.0068237
170	0x3f80e379	1.0069419
171	0x3f80e4f4	1.0069871
172	0x3f7e3e1f	0.9931354
173	0x3f80df99	1.0068237
174	0x3f80e0fe	1.0068662
175	0x3f80e4f4	1.0069871
176	0x3f7e3b22	0.9930898
177	0x3f80df95	1.0068232
178	0x3f80e19c	1.006885
179	0x3f80e4f4	1.0069871
180	0x3f7e54cd	0.99348146
181	0x3f80df8d	1.0068222
182	0x3f80e0b7	1.0068578
183	0x3f80e4f4	1.0069871
184	0x3f7e49f7	0.9933161
185	0x3f80df5f	1.0068167
186	0x3f80e2e3	1.006924
187	0x3f80e4f4	1.0069871
188	0x3f7e4a0a	0.99331725
189	0x3f7e334a	0.9929701
190	0x3f80e3a9	1.0069476
191	0x3f80e4fb	1.0069879

thermal_norm.bias f4 [192]
0	0xbbe6279a	-0.007023764
1	0x3be4b1a7	0.0069791856
2	0xbbdb3c83	-0.006690563
3	0x3be4f3da	0.006987077
4	0x3be372ac	0.00694116
5	0x3bdf9249	0.0068228585
6	0xbbe1f550	-0.0068956986
7	0x3be4f3e9	0.006987084
8	0x3bdb4810	0.00669194
9	0x3bdfa37b	0.0068249083
10	0xbbe4bf1c	-0.00698079
11	0x3be4f3fc	0.006987093
12	0x3bcf7e52	0.006332197
13	0x3bdf9344	0.0068229754
14	0xbbe2f2b9	-0.0069259075
15	0x3be4f404	0.0069870967
16	0x3bc66286	0.0060542254
17	0x3bdf95b2	0.006823265
18	0xbbe62128	-0.0070229955
19	0x3be4f3f8	0.006987091
20	0x3be428ce	0.006962872
21	0x3bdf9adc	0.0068238806
22	0xbbe28d26	-0.006913799
23	0x3be4f3fd	0.0069870935
24	0x3bdad44d	0.0066781403
25	0x3bdf9973	0.0068237125
26	0xbbe1d0b5	-0.006891335
27	0x3be4f3f7	0.0069870907
28	0x3bd94dee	0.0066316044
29	0x3bdf99b6	0.0068237437
30	0xbbe62380	-0.007023275
31	0x3be4f3f6	0.00698709
32	0x3bd2eefb	0.00643718
33	0x3bdf99e8	0.006823767
34	0xbbe4143e	-0.006960421
35	0x3be4f3fd	0.0069870935
36	0x3bdc141b	0.006716264
37	0x3bdf9a08	0.006823782
38	0xbbe4f461	-0.00698714
39	0x3be4f3fc	0.006987093
40	0x3bdfa8f4	0.0068255607
41	0x3bdf9a3a	0.006823805
42	0xbbe3afc2	-0.006948442
43	0x3be4f404	0.0069870967
44	0x3bd3fe50	0.0064695254
45	0x3bdf9a51	0.006823816
46	0xbbe381b5	-0.0069429525
47	0x3be4f3fc	0.006987093
48	0x3be06e70	0.0068491027
49	0x3bdf99a7	0.0068237367
50	0xbbddb8fe	-0.0067664376
51	0x3be4f3fd	0.0069870935
52	0x3bd6f34a	0.006559764
53	0x3bdf99e5	0.0068237656
54	0xbbe55fe6	-0.0069999574
55	0x3be4f3fc	0.006987093
56	0x3bdd10d1	0.0067463894
57	0x3bdf9932	0.006823682
58	0xbbe4a384	-0.0069775004
59	0x3be4f402	0.006987096
60	0x3bd74f78	0.0065707527
61	0x3bdf9a12	0.0068237865
62	0xbbe10b36	-0.0068677915
63	0x3be4f3f8	0.006987091
64	0x3bdf3b10	0.0068124607
65	0x3bdf9a36	0.0068238033
66	0xbbe65dbe	-0.007030218
67	0x3be4f3ff	0.0069870944
68	0x3bd6d1da	0.006555778
69	0x3bdf99da	0.0068237605
70	0xbbe185e7	-0.0068824175
71	0x3be4f3fb	0.0069870926
72	0x3bdf1125	0.0068074637
73	0x3bdf996b	0.006823709
74	0xbbde9af0	-0.0067933723
75	0x3be4f3f8	0.006987091
76	0x3bd85108	0.0066014566
77	0x3bdf99c1	0.006823749
78	0xbbe378ec	-0.0069419052
79	0x3be4f3f3	0.006987089
80	0x3bdbd4ae	0.006708703
81	0x3bdf9ad7	0.0068238783
82	0xbbe69e9f	-0.007037952
83	0x3be4f3f9	0.0069870916
84	0x3bd9c472	0.0066457326
85	0x3bdf9941	0.006823689
86	0xbbde9b72	-0.006793433
87	0x3be4f3f8	0.006987091
88	0x3be10ed0	0.006868221
89	0x3bdf991c	0.006823672
90	0xbbe0aa45	-0.006856235
91	0x3be4f3ec	0.0069870856
92	0x3bde9a42	0.0067932913
93	0x3bdf9a08	0.006823782
94	0xbbdf44e8	-0.006813634
95	0x3be4f3f4	0.0069870893
96	0x3bcc3ffe	0.0062332144
97	0x3bdf99a3	0.006823735
98	0xbbe2170e	-0.006899721
99	0x3be4f3f6	0.00698709
100	0x3bd7458f	0.0065695713
101	0x3bdf9a75	0.0068238326
102	0xbbe336bc	-0.006934015
103	0x3be4f3f8	0.006987091
104	0x3bd1c91e	0.006402149
105	0x3bdf9a06	0.006823781
106	0xbbe27a1e	-0.00691153
107	0x3be4f401	0.0069870953
108	0x3bd901c8	0.006622527
109	0x3bdf99a2	0.0068237344
110	0xbbe29c3e	-0.006915598
111	0x3be4f3ff	0.0069870944
112	0x3bdd973d	0.006762414
113	0x3bdf99b2	0.006823742
114	0xbbe4f9e0	-0.0069877952
115	0x3be4f405	0.006987097
116	0x3bdad2e3	0.0066779717
117	0x3bdf99a8	0.006823737
118	0xbbe34d28	-0.006936688
119	0x3be4f3f6	0.00698709
120	0x3bdb537c	0.0066933017
121	0x3bdf99b1	0.0068237414
122	0xbbe1d3bc	-0.006891696
123	0x3be4f3f7	0.0069870907
124	0x3be4c43c	0.006981401
125	0x3bdf99ef	0.0068237702
126	0xbbe3aca6	-0.0069480715
127	0x3be4f3fb	0.0069870926
128	0x3be0272c	0.006840607
129	0x3bdf99d7	0.006823759
130	0xbbe4a712	-0.006977924
131	0x3be4f3f6	0.00698709
132	0x3bd9d2d4	0.006647447
133	0x3bdf9a24	0.006823795
134	0xbbe21b3f	-0.0069002206
135	0x3be4f3ff	0.0069870944
136	0x3bd0226e	0.0063517606
137	0x3bdf9aad	0.0068238587
138	0xbbe37172	-0.006941014
139	0x3be4f406	0.0069870977
140	0x3bdec804	0.006798746
141	0x3bdf99e4	0.006823765
142	0xbbe5a8bb	-0.0070086396
143	0x3be4f401	0.0069870953
144	0x3bd5dc2a	0.0065264897
145	0x3bdf9a13	0.006823787
146	0xbbe58fa3	-0.007005648
147	0x3be4f3fa	0.006987092
148	0x3be1a016	0.006885539
149	0x3bdf992a	0.0068236785
150	0xbbe1bd66	-0.006889033
151	0x3be4f3f6	0.00698709
152	0x3bd4745b	0.006483597
153	0x3bdf99d8	0.0068237595
154	0xbbdf6d56	-0.006818454
155	0x3be4f3ff	0.0069870944
156	0x3bde0d21	0.0067764674
157	0x3bdf98f9	0.0068236557
158	0xbbe0e5b8	-0.006863322
159	0x3be4f3f4	0.0069870893
160	0x3bdb71a5	0.006696897
161	0x3bdf9adb	0.00682388
162	0xbbe230f8	-0.00690281
163	0x3be4f3fb	0.0069870926
164	0x3bdf9afe	0.0068238964
165	0x3bdf98ff	0.0068236585
166	0xbbe3c84c	-0.0069513675
167	0x3be4f3f7	0.0069870907
168	0x3bd9ff70	0.006652765
169	0x3bdf99f6	0.0068237735
170	0xbbe37767	-0.006941724
171	0x3be4f3fc	0.006987093
172	0x3be0f0b8	0.0068646334
173	0x3bdf99cd	0.0068237544
174	0xbbe0fe41	-0.006866247
175	0x3be4f404	0.0069870967
176	0x3be26f54	0.006910244
177	0x3bdf9634	0.0068233255
178	0xbbe19bc4	-0.006885024
179	0x3be4f408	0.0069870986
180	0x3bd599bc	0.0065185707
181	0x3bdf8c24	0.006822126
182	0xbbe0b7df	-0.0068578566
183	0x3be4f3f9	0.0069870916
184	0x3bdb0472	0.0066838795
185	0x3bdf5f40	0.0068167746
186	0xbbe2e328	-0.006924052
187	0x3be4f3fe	0.006987094
188	0x3bdafb1a	0.0066827657
189	0xbbe65b9c	-0.0070299637
190	0xbbe3a729	-0.0069474173
191	0x3be4f9dc	0.0069877934

fusion_layer.0.weight f4 [1, 2, 1]
0	0x3edc84e6	0.43070143
1	0xbef5dba1	-0.48019126
