model_paths/best_model_AMPNet_fold_1.pth (torch, 7476 bytes, 5 tensors)

rgb_norm.weight f4 [192]
0	0x3f7f028e	0.99613273
1	0x3f808351	1.0040075
2	0x3f80833e	1.0040052
3	0x3f7f01df	0.9961223
4	0x3f7effa5	0.9960883
5	0x3f7f9b75	0.99846584
6	0x3f808219	1.0039703
7	0x3f8081f4	1.0039659
8	0x3f8082f5	1.0039965
9	0x3f8082a7	1.0039872
10	0x3f8082b0	1.0039883
11	0x3f8081a5	1.0039564
12	0x3f80803b	1.0039133
13	0x3f807bf3	1.0037826
14	0x3f807ce9	1.003812
15	0x3f8082e7	1.0039948
16	0x3f806eb5	1.0033785
17	0x3f806f52	1.0033972
18	0x3f807c69	1.0037967
19	0x3f807d3e	1.0038221
20	0x3f807f88	1.003892
21	0x3f8079f6	1.003722
22	0x3f806bc9	1.0032893
23	0x3f808082	1.0039217
24	0x3f80817f	1.0039519
25	0x3f807b56	1.0037639
26	0x3f8081d5	1.0039622
27	0x3f808066	1.0039184
28	0x3f808156	1.003947
29	0x3f8060e8	1.0029573
30	0x3f808201	1.0039674
31	0x3f807988	1.0037088
32	0x3f808256	1.0039775
33	0x3f808035	1.0039126
34	0x3f8074e6	1.0035675
35	0x3f807b4f	1.0037631
36	0x3f8076ef	1.0036296
37	0x3f802643	1.0011677
38	0x3f8073b9	1.0035316
39	0x3f8080a9	1.0039264
40	0x3f807d09	1.0038158
41	0x3f8079fc	1.0037227
42	0x3f807fac	1.0038962
43	0x3f808120	1.0039406
44	0x3f807f39	1.0038825
45	0x3f807a62	1.0037348
46	0x3f807dcf	1.0038394
47	0x3f8080b6	1.003928
48	0x3f8080f5	1.0039355
49	0x3f806b2d	1.0032707
50	0x3f807ed3	1.0038704
51	0x3f807d48	1.0038233
52	0x3f807a18	1.003726
53	0x3f807531	1.0035764
54	0x3f807f9c	1.0038943
55	0x3f8073b4	1.003531
56	0x3f807cf2	1.003813
57	0x3f808107	1.0039376
58	0x3f807d10	1.0038166
59	0x3f80832d	1.0040032
60	0x3f807fbc	1.0038981
61	0x3f808142	1.0039446
62	0x3f807e2c	1.0038505
63	0x3f807cdb	1.0038103
64	0x3f807903	1.003693
65	0x3f80710f	1.0034503
66	0x3f807469	1.0035526
67	0x3f807f2a	1.0038807
68	0x3f80806e	1.0039194
69	0x3f80831c	1.0040011
70	0x3f808085	1.0039221
71	0x3f807d18	1.0038176
72	0x3f8080a0	1.0039253
73	0x3f80748b	1.0035566
74	0x3f807890	1.0036793
75	0x3f807b61	1.0037652
76	0x3f807de7	1.0038422
77	0x3f807f7c	1.0038905
78	0x3f807dd0	1.0038395
79	0x3f8071f0	1.0034771
80	0x3f8082bb	1.0039896
81	0x3f806a7e	1.0032499
82	0x3f807fdc	1.003902
83	0x3f807d54	1.0038247
84	0x3f807fad	1.0038964
85	0x3f808150	1.0039463
86	0x3f808326	1.0040023
87	0x3f807ea9	1.0038654
88	0x3f807d25	1.0038191
89	0x3f807fb6	1.0038974
90	0x3f808053	1.0039161
91	0x3f8079d7	1.0037183
92	0x3f8077ab	1.003652
93	0x3f807d91	1.003832
94	0x3f80778a	1.003648
95	0x3f808291	1.0039846
96	0x3f807fe1	1.0039026
97	0x3f807f2d	1.0038811
98	0x3f807216	1.0034816
99	0x3f807c0f	1.003786
100	0x3f807778	1.0036459
101	0x3f808239	1.0039741
102	0x3f80813e	1.0039442
103	0x3f807f15	1.0038782
104	0x3f807bd3	1.0037788
105	0x3f806fda	1.0034134
106	0x3f807f6a	1.0038884
107	0x3f807bab	1.003774
108	0x3f807db9	1.0038368
109	0x3f808156	1.003947
110	0x3f807fb2	1.003897
111	0x3f807f50	1.0038853
112	0x3f8080e8	1.0039339
113	0x3f80795b	1.0037035
114	0x3f808229	1.0039722
115	0x3f80815b	1.0039476
116	0x3f807e2b	1.0038503
117	0x3f807c25	1.0037886
118	0x3f807d5f	1.003826
119	0x3f80829f	1.0039862
120	0x3f8080a5	1.0039259
121	0x3f80791a	1.0036957
122	0x3f807450	1.0035496
123	0x3f807dd3	1.0038399
124	0x3f80805c	1.0039172
125	0x3f808019	1.0039092
126	0x3f80804c	1.0039153
127	0x3f808079	1.0039207
128	0x3f8080c9	1.0039302
129	0x3f806cf4	1.003325
130	0x3f807d56	1.003825
131	0x3f8077e7	1.0036591
132	0x3f807631	1.0036069
133	0x3f807ce7	1.0038117
134	0x3f807bd6	1.0037792
135	0x3f807c4f	1.0037936
136	0x3f80725b	1.0034899
137	0x3f808059	1.0039169
138	0x3f8079f7	1.0037221
139	0x3f807d6e	1.0038278
140	0x3f807dec	1.0038428
141	0x3f80754d	1.0035797
142	0x3f8078b9	1.0036842
143	0x3f8082f5	1.0039965
144	0x3f808079	1.0039207
145	0x3f807d4b	1.0038236
146	0x3f808232	1.0039732
147	0x3f807bbf	1.0037764
148	0x3f80833a	1.0040047
149	0x3f8082ea	1.0039952
150	0x3f80803e	1.0039136
151	0x3f8080bf	1.003929
152	0x3f807ccf	1.0038089
153	0x3f807f7c	1.0038905
154	0x3f808043	1.0039142
155	0x3f8079c8	1.0037165
156	0x3f807fbe	1.0038984
157	0x3f806e6a	1.0033696
158	0x3f807ce9	1.003812
159	0x3f807447	1.0035485
160	0x3f807456	1.0035503
161	0x3f80821f	1.003971
162	0x3f807950	1.0037022
163	0x3f807dff	1.0038451
164	0x3f807df2	1.0038435
165	0x3f807e12	1.0038474
166	0x3f808241	1.003975
167	0x3f8082b1	1.0039884
168	0x3f807ac9	1.0037471
169	0x3f807a67	1.0037354
170	0x3f807312	1.0035117
171	0x3f807bc8	1.0037775
172	0x3f8082d2	1.0039923
173	0x3f807f84	1.0038915
174	0x3f8074f7	1.0035695
175	0x3f8080e9	1.003934
176	0x3f806e54	1.003367
177	0x3f7efb9f	0.99602693
178	0x3f7efd5a	0.99605334
179	0x3f7ef995	0.9959958
180	0x3f7efb06	0.9960178
181	0x3f7efa2c	0.9960048
182	0x3f7ef989	0.9959951
183	0x3f7ef963	0.99599284
184	0x3f7ef9a2	0.9959966
185	0x3f7f5a21	0.997469
186	0x3f80834a	1.0040066
187	0x3f808289	1.0039836
188	0x3f808004	1.0039067
189	0x3f7f0e79	0.9963146
190	0x3f7f05ea	0.996184
191	0x3f7f0628	0.9961877

rgb_norm.bias f4 [192]
0	0xbb811b7d	-0.0039400444
1	0x3b834ea1	0.004007176
2	0x3b8345d2	0.004006126
3	0xbb80aa36	-0.0039265407
4	0xbb806bd2	-0.003919103
5	0x39f1a351	0.00046088782
6	0x3b82716b	0.0039808056
7	0x3b8269dc	0.0039799046
8	0x3b82fc4e	0.003997362
9	0x3b82e61f	0.0039947177
10	0x3b82e954	0.0039951
11	0x3b826856	0.003979723
12	0x3b8129e4	0.0039417613
13	0x3a48cc24	0.0007659814
14	0x3b34b9bd	0.002757653
15	0xbb805466	-0.003916311
16	0xbb5e7535	-0.0033944373
17	0xbb821ffa	-0.003971097
18	0xbb80ce70	-0.0039308593
19	0xbb79c8a3	-0.0038113974
20	0xbb682bee	-0.0035426575
21	0xbb7e0359	-0.003875932
22	0xbb2671df	-0.0025397462
23	0x38fe02d8	0.000121121935
24	0xbb26a4ff	-0.0025427935
25	0xbb7ac326	-0.003826329
26	0xbb40b2ae	-0.0029403376
27	0xbb05dd04	-0.0020425925
28	0xb8718248	-5.758021e-05
29	0xbb72b916	-0.003703659
30	0xba7fef78	-0.00097631617
31	0xbb535f38	-0.00322528
32	0x3ab8dc2c	0.0014103702
33	0xbb825608	-0.003977541
34	0xb95a0e34	-0.00020795391
35	0x3a116be8	0.00055473903
36	0x3a2e6482	0.000665255
37	0xbb749629	-0.0037320948
38	0x3a340ddc	0.000686852
39	0x3b330e82	0.002732188
40	0xb9b60284	-0.0003471562
41	0xbb64a757	-0.0034889781
42	0x3b6b4919	0.0035901724
43	0x3ad4ffaa	0.001625051
44	0x3b6d2c1e	0.0036189626
45	0xbb7a45a7	-0.0038188489
46	0xbb64f957	-0.0034938657
47	0xbb729dc6	-0.003702031
48	0xba89f4eb	-0.0010525262
49	0xbb7389bc	-0.0037160954
50	0xbb757224	-0.0037452066
51	0xbab73018	-0.0013976125
52	0xbb3f554a	-0.0029195123
53	0xbb7cfb73	-0.0038602024
54	0xbb427cbb	-0.0029676396
55	0xb96f6962	-0.00022832074
56	0x38314010	4.225975e-05
57	0xbb649664	-0.003487968
58	0x3a937a05	0.0011251575
59	0x3a796162	0.00095131074
60	0x3b2274e2	0.0024788906
61	0xbb8226aa	-0.0039718943
62	0x3b718993	0.0036855682
63	0xbb65b658	-0.0035051312
64	0x3a7762cb	0.00094370235
65	0xbb5f20f9	-0.0034046753
66	0xbb5f5ef6	-0.00340837
67	0xbb32e542	-0.0027297293
68	0x3aba67fa	0.0014221661
69	0xbb803d04	-0.0039135236
70	0x38a3c4f0	7.809128e-05
71	0x36076164	2.0173256e-06
72	0xba279a51	-0.00063935394
73	0xbb7d5249	-0.0038653782
74	0x3b1e3fbc	0.0024146875
75	0xbb5d4391	-0.0033762197
76	0xbb51f450	-0.003203649
77	0xbb75681e	-0.0037446092
78	0xbacc5639	-0.0015589661
79	0x3add4231	0.0016880688
80	0x3abfeab5	0.0014642092
81	0xbb6ed458	-0.0036442485
82	0x3b517d94	0.003196572
83	0x3b2afe5a	0.0026091547
84	0x3b73b5b4	0.003718716
85	0xbb802fdf	-0.0039119567
86	0x3af69139	0.001881159
87	0xbb69c093	-0.0035667762
88	0xb96009f0	-0.00021366007
89	0xbb7fd8ee	-0.0039039212
90	0xbb2bac88	-0.0026195366
91	0x3a2cdf08	0.00065945135
92	0x3b25801f	0.0025253368
93	0xbb7d1996	-0.0038619987
94	0xbb681d2f	-0.0035417785
95	0xbab9d6e1	-0.0014178419
96	0x3ab0e86c	0.0013497001
97	0xbb80250a	-0.0039106654
98	0xbb401084	-0.002930672
99	0xbaaadbde	-0.0013035496
100	0x39e96a9a	0.00044520647
101	0xbb5b7315	-0.0033485342
102	0x3a310c93	0.0006753888
103	0xba0accc0	-0.00052947924
104	0x3b6871df	0.0035468263
105	0xbb692bf0	-0.0035579167
106	0xbb216ef4	-0.0024632784
107	0x3aca1b05	0.0015419429
108	0xbb31b0c7	-0.0027113424
109	0xbb779fda	-0.0037784488
110	0xbb4693f6	-0.0030300594
111	0xbb59ad4e	-0.003321487
112	0xbb3e308b	-0.0029020633
113	0xbb780d2a	-0.0037849643
114	0xbb4f959b	-0.0031674865
115	0xbb73235c	-0.0037099933
116	0xbb607289	-0.0034247956
117	0xbb6d854b	-0.003624278
118	0x3ab1cc40	0.00135649
119	0x3abcb2ce	0.001439655
120	0x3b12354f	0.0022309606
121	0xbb68c972	-0.0035520461
122	0x3b1326f0	0.0022453628
123	0x3b10e3b0	0.0022108369
124	0x3b08a5f9	0.002085088
125	0xbb7773a6	-0.003775814
126	0x3b4f46a6	0.0031627803
127	0x3b089459	0.0020840375
128	0xbadb7185	-0.0016742205
129	0xbb782866	-0.0037865876
130	0xba88b102	-0.0010428729
131	0xbb1095b3	-0.0022061884
132	0x3a9c9d2f	0.00119487
133	0xbb73ef20	-0.0037221387
134	0xbb0122d6	-0.0019704602
135	0xbb4d951e	-0.0031369398
136	0x3b4ed606	0.0031560673
137	0xbb80948c	-0.003923958
138	0xba1cf85e	-0.00059879373
139	0xbb41ef16	-0.002959197
140	0x3b2cb1d2	0.0026351106
141	0xbb529165	-0.003213012
142	0xba8a0c46	-0.0010532222
143	0xbb4d889e	-0.0031361948
144	0xbb35f4e6	-0.002776438
145	0xbb79beef	-0.003810819
146	0xbb37b4be	-0.0028031315
147	0xbb17f5ad	-0.0023187206
148	0x3ad41590	0.0016180743
149	0xbb646aa8	-0.003485361
150	0x3b0f8c1b	0.0021903578
151	0xb848ada2	-4.7845424e-05
152	0x3b70e4a0	0.0036757365
153	0xbb803900	-0.003913045
154	0x38a55c94	7.885057e-05
155	0xbaee3660	-0.0018174164
156	0x3ae7fcc2	0.0017699229
157	0xbb6bd2c3	-0.0035983778
158	0x3b2d0ae6	0.00264042
159	0xba076cc8	-0.0005166051
160	0xba136a07	-0.0005623404
161	0xbb7f9f3e	-0.0039004828
162	0xbb51b33d	-0.0031997703
163	0xbb2896f6	-0.0025724745
164	0xbb4015bc	-0.002930983
165	0xbb7e2cb8	-0.0038783979
166	0xbb61841c	-0.0034411019
167	0xbb65801e	-0.003501899
168	0xba9fdef4	-0.0012197183
169	0xbb64320c	-0.003481987
170	0x3a3d6e1c	0.00072261854
171	0xbb73774e	-0.0037149969
172	0xbb6242b3	-0.003452462
173	0xbb7760cb	-0.0037746902
174	0xbb80b5a2	-0.0039279023
175	0xbb80bb3c	-0.00392857
176	0xbb6650ce	-0.0035143378
177	0x3b82b62c	0.0039890017
178	0x3b81d2cc	0.0039618965
179	0x3b8327a2	0.0040025273
180	0x3b828a75	0.0039837905
181	0x3b82ed0e	0.0039955443
182	0x3b834386	0.004005852
183	0x3b834126	0.004005569
184	0x3b832a97	0.00400288
185	0xbb801d7e	-0.0039097657
186	0x3b834fbe	0.0040073087
187	0x3b81df7d	0.0039634095
188	0x3b7668d2	0.00375991
189	0x3b6b52c1	0.003590748
190	0x3b800cc4	0.003907772
191	0xbb7835c8	-0.0037873853

thermal_norm.weight f4 [192]
0	0x3f808121	1.0039407
1	0x3f7ef9b2	0.99599755
2	0x3f7ef9aa	0.9959971
3	0x3f80801f	1.00391
4	0x3f80803c	1.0039134
5	0x3f7fe311	0.9995585
6	0x3f7efcb1	0.99604326
7	0x3f80823c	1.0039744
8	0x3f8082f1	1.003996
9	0x3f8082f8	1.0039968
10	0x3f8082f3	1.0039963
11	0x3f808228	1.003972
12	0x3f807def	1.0038432
13	0x3f7fa8e9	0.9986711
14	0x3f7f432c	0.9971187
15	0x3f7f04d4	0.9961674
16	0x3f7fe2e1	0.99955565
17	0x3f8081d9	1.0039626
18	0x3f808164	1.0039487
19	0x3f7f0791	0.9962092
20	0x3f7f17cf	0.99645704
21	0x3f807d7d	1.0038296
22	0x3f804f56	1.0024211
23	0x3f7ffd91	0.99996287
24	0x3f7f5116	0.997331
25	0x3f802060	1.000988
26	0x3f806f0b	1.0033888
27	0x3f7f7f69	0.9980379
28	0x3f7ff664	0.9998534
29	0x3f806e7b	1.0033716
30	0x3f80228e	1.0010545
31	0x3f7f2be8	0.9967637
32	0x3f8026e8	1.0011873
33	0x3f801869	1.0007449
34	0x3f7fbba3	0.99895686
35	0x3f80119f	1.0005378
36	0x3f80167a	1.0006859
37	0x3f7fce36	0.9992403
38	0x3f8054ff	1.0025939
39	0x3f806193	1.0029777
40	0x3f8052dd	1.0025288
41	0x3f807222	1.003483
42	0x3f7fcc6b	0.9992129
43	0x3f80478c	1.0021834
44	0x3f80773e	1.003639
45	0x3f806036	1.0029361
46	0x3f807bf3	1.0037826
47	0x3f7f18e3	0.9964735
48	0x3f8005db	1.0001787
49	0x3f80494a	1.0022366
50	0x3f807825	1.0036665
51	0x3f7fa851	0.99866205
52	0x3f7f41da	0.99709857
53	0x3f8021a1	1.0010263
54	0x3f8054fc	1.0025935
55	0x3f7fe69d	0.9996126
56	0x3f7ff307	0.99980205
57	0x3f7fe71d	0.99962026
58	0x3f7fa323	0.998583
59	0x3f801a65	1.0008055
60	0x3f805434	1.0025697
61	0x3f805bf4	1.0028062
62	0x3f7f1c25	0.9965232
63	0x3f7f17f5	0.9964593
64	0x3f801762	1.0007136
65	0x3f80695b	1.0032152
66	0x3f806db6	1.0033481
67	0x3f7f5829	0.99743897
68	0x3f8038a0	1.001728
69	0x3f801018	1.0004911
70	0x3f80104c	1.0004973
71	0x3f8007d6	1.0002391
72	0x3f7fe961	0.9996548
73	0x3f80265e	1.0011709
74	0x3f7f8a24	0.9982016
75	0x3f7f2bed	0.996764
76	0x3f7f2786	0.9966968
77	0x3f7fe49c	0.99958205
78	0x3f802961	1.0012628
79	0x3f80383b	1.001716
80	0x3f8030df	1.0014914
81	0x3f8059bc	1.0027385
82	0x3f7f512c	0.99733233
83	0x3f805652	1.0026343
84	0x3f80770b	1.0036329
85	0x3f806335	1.0030276
86	0x3f8052be	1.0025251
87	0x3f7f1c4a	0.9965254
88	0x3f800d75	1.0004107
89	0x3f8035fd	1.0016476
90	0x3f805c9a	1.002826
91	0x3f803207	1.0015267
92	0x3f8057bc	1.0026774
93	0x3f8076df	1.0036277
94	0x3f807a51	1.0037328
95	0x3f7fa917	0.99867386
96	0x3f803428	1.0015917
97	0x3f7ff161	0.9997769
98	0x3f806a8c	1.0032516
99	0x3f7fa166	0.9985565
100	0x3f800b5e	1.0003469
101	0x3f8025d9	1.001155
102	0x3f7f3207	0.9968571
103	0x3f7fe38e	0.99956596
104	0x3f807339	1.0035163
105	0x3f7f8e08	0.998261
106	0x3f8001d3	1.0000557
107	0x3f8034f6	1.0016162
108	0x3f7f482c	0.997195
109	0x3f7f4f10	0.99730015
110	0x3f806659	1.0031234
111	0x3f7f2670	0.99668026
112	0x3f7f40fb	0.9970853
113	0x3f8017f2	1.0007308
114	0x3f8063dd	1.0030476
115	0x3f7f09be	0.9962424
116	0x3f7f224e	0.9966172
117	0x3f806efb	1.0033869
118	0x3f7fb144	0.9987986
119	0x3f8031b6	1.001517
120	0x3f8048b1	1.0022184
121	0x3f7f513f	0.99733347
122	0x3f7f907e	0.9982985
123	0x3f804def	1.0023783
124	0x3f804724	1.002171
125	0x3f807a43	1.0037311
126	0x3f7f2cc4	0.9967768
127	0x3f804b0d	1.0022904
128	0x3f7f837c	0.99810004
129	0x3f804ad4	1.0022836
130	0x3f801304	1.0005803
131	0x3f7f6ab7	0.9977221
132	0x3f8022fc	1.0010676
133	0x3f7f4ac6	0.9972347
134	0x3f802b99	1.0013305
135	0x3f7f34cd	0.9968994
136	0x3f80663b	1.0031198
137	0x3f8070f1	1.0034467
138	0x3f80094e	1.000284
139	0x3f7f436a	0.9971224
140	0x3f805288	1.0025187
141	0x3f806c5b	1.0033067
142	0x3f7fe9b3	0.9996597
143	0x3f7f37a0	0.9969425
144	0x3f7f408d	0.9970787
145	0x3f7fafca	0.9987761
146	0x3f806da1	1.0033456
147	0x3f7f66b6	0.997661
148	0x3f8035c8	1.0016413
149	0x3f80167a	1.0006859
150	0x3f7f9854	0.9984181
151	0x3f7ff83d	0.99988157
152	0x3f807d0b	1.003816
153	0x3f7fb734	0.9988892
154	0x3f803c25	1.0018355
155	0x3f7fa821	0.9986592
156	0x3f8043d2	1.0020697
157	0x3f80209d	1.0009953
158	0x3f7f42e0	0.9971142
159	0x3f7fea89	0.9996725
160	0x3f7fe4a4	0.9995825
161	0x3f806829	1.0031787
162	0x3f80673b	1.0031503
163	0x3f7f5409	0.997376
164	0x3f7f3768	0.9969392
165	0x3f7f2bc0	0.9967613
166	0x3f8076ed	1.0036293
167	0x3f7f2232	0.9966155
168	0x3f7f231d	0.99662954
169	0x3f8063fe	1.0030515
170	0x3f7fed22	0.9997121
171	0x3f7f0db7	0.996303
172	0x3f7f1a46	0.99649465
173	0x3f807ce8	1.0038118
174	0x3f807fb4	1.0038972
175	0x3f7f07d1	0.996213
176	0x3f807447	1.0035485
177	0x3f7efad9	0.99601513
178	0x3f7efcc7	0.9960446
179	0x3f7ef98f	0.99599546
180	0x3f7efa16	0.9960035
181	0x3f7efa55	0.99600726
182	0x3f7ef9ae	0.9959973
183	0x3f7ef9a4	0.9959967
184	0x3f7ef9bf	0.9959983
185	0x3f80800e	1.0039079
186	0x3f7ef985	0.99599487
187	0x3f7efc0f	0.9960336
188	0x3f7f0970	0.99623775
189	0x3f7f149f	0.9964084
190	0x3f7effec	0.99609256
191	0x3f807b99	1.0037719

thermal_norm.bias f4 [192]
0	0xbb811bb3	-0.0039400696
1	0x3b833857	0.004004519
2	0x3b8332ce	0.004003859
3	0xbb806b84	-0.003919067
4	0xbb8025f0	-0.0039107725
5	0x39f9ce90	0.00047646882
6	0x3b823a75	0.003974254
7	0x3b8232fd	0.0039733634
8	0x3b82d491	0.003992625
9	0x3b82b9ae	0.00398942
10	0x3b82bda7	0.0039898935
11	0x3b82304f	0.003973044
12	0x3b80dc04	0.003932478
13	0x3a4ae5eb	0.0007739949
14	0x3b35849a	0.0027697445
15	0xbb805726	-0.003916639
16	0xbb5e80a3	-0.0033951185
17	0xbb82391c	-0.003974093
18	0xbb80a1c7	-0.0039255354
19	0xbb7a2e1a	-0.0038174451
20	0xbb6700ef	-0.003524836
21	0xbb7d96c0	-0.003869459
22	0xbb2681a5	-0.0025406864
23	0x38fb59e8	0.00011985359
24	0xbb2838d2	-0.0025668633
25	0xbb7a9486	-0.00382355
26	0xbb4178a9	-0.0029521382
27	0xbb0692f2	-0.0020534364
28	0xb8b8f87c	-8.8200875e-05
29	0xbb71f279	-0.0036918207
30	0xba7ee8e2	-0.00097240333
31	0xbb532909	-0.0032220504
32	0x3abcb608	0.0014397511
33	0xbb826001	-0.0039787297
34	0xb949a9bc	-0.00019232085
35	0x3a153d9f	0.0005693081
36	0x3a31e6d6	0.00067864114
37	0xbb74c012	-0.0037345928
38	0x3a37f39a	0.00070171955
39	0x3b337b1a	0.0027386607
40	0xb9b802de	-0.0003509735
41	0xbb646db0	-0.0034855418
42	0x3b6b9c40	0.0035951287
43	0x3ad753c2	0.001642816
44	0x3b6c7058	0.0036077704
45	0xbb79f534	-0.0038140537
46	0xbb650db6	-0.00349508
47	0xbb72f8cc	-0.0037074564
48	0xba8a0471	-0.0010529888
49	0xbb738606	-0.0037158742
50	0xbb747552	-0.0037301374
51	0xbab6818a	-0.0013924104
52	0xbb3f93fb	-0.002923249
53	0xbb7d0294	-0.0038606273
54	0xbb43630b	-0.0029813673
55	0xb972e932	-0.0002316579
56	0x380b1f00	3.3169053e-05
57	0xbb64da26	-0.0034920066
58	0x3a936329	0.0011244762
59	0x3a7e12ba	0.00096921215
60	0x3b231b6f	0.0024888178
61	0xbb8240e4	-0.0039750207
62	0x3b7106b4	0.0036777677
63	0xbb6590d4	-0.0035028951
64	0x3a749d6e	0.000933132
65	0xbb5ea144	-0.0033970634
66	0xbb5f00bc	-0.0034027537
67	0xbb33ddf2	-0.0027445522
68	0x3abc790c	0.0014379336
69	0xbb80325c	-0.0039122533
70	0x386d8a00	5.6633726e-05
71	0xb6034d03	-1.9565348e-06
72	0xba27e3a0	-0.0006404463
73	0xbb7ca3af	-0.0038549711
74	0x3b1fc620	0.0024379566
75	0xbb5d6eac	-0.003378789
76	0xbb51782e	-0.0031962502
77	0xbb74c0ba	-0.003734632
78	0xbacc1290	-0.0015569497
79	0x3ade11ea	0.0016942595
80	0x3ac25ab6	0.0014828059
81	0xbb6eaa7c	-0.0036417535
82	0x3b50f61a	0.003188497
83	0x3b2ac796	0.0026058904
84	0x3b73b120	0.0037184432
85	0xbb8027db	-0.003911001
86	0x3af786d0	0.0018884782
87	0xbb6a16ee	-0.0035719234
88	0xb95452e8	-0.0002024878
89	0xbb7ff166	-0.0039053797
90	0xbb2c697a	-0.0026307986
91	0x3a2eb099	0.00066638883
92	0x3b25d9d3	0.0025306835
93	0xbb7c8ed9	-0.0038537292
94	0xbb68a334	-0.0035497667
95	0xbaba6908	-0.0014221976
96	0x3ab486ad	0.0013773047
97	0xbb7f9b18	-0.0039002355
98	0xbb40f183	-0.0029440827
99	0xbaad7d2e	-0.0013236159
100	0x39dba65c	0.00041894882
101	0xbb5b7f83	-0.003349275
102	0x3a31094a	0.00067533983
103	0xba0c7ab4	-0.00053588604
104	0x3b67e8dc	0.0035386598
105	0xbb69b232	-0.0035659191
106	0xbb2231d3	-0.0024748936
107	0x3acd0952	0.0015643036
108	0xbb331c2d	-0.0027330026
109	0xbb773d36	-0.0037725694
110	0xbb478a59	-0.0030447452
111	0xbb5a003c	-0.00332643
112	0xbb3ed7b7	-0.0029120275
113	0xbb77e126	-0.0037823408
114	0xbb501559	-0.0031751005
115	0xbb727ee7	-0.003700191
116	0xbb60b754	-0.003428896
117	0xbb6c99b1	-0.003610235
118	0x3ab37516	0.001369151
119	0x3abfdb38	0.0014637476
120	0x3b141ba0	0.0022599474
121	0xbb67d144	-0.0035372535
122	0x3b14a84b	0.0022683318
123	0x3b12203a	0.002229704
124	0x3b09ac31	0.0021007175
125	0xbb76d299	-0.0037662147
126	0x3b5009b0	0.0031744055
127	0x3b0922d3	0.0020925298
128	0xbadf188e	-0.0017020868
129	0xbb77d989	-0.003781887
130	0xba8a7d24	-0.0010565859
131	0xbb124981	-0.0022321644
132	0x3a9b667e	0.0011856107
133	0xbb73c627	-0.0037196965
134	0xbb028831	-0.0019917602
135	0xbb4e502d	-0.0031480894
136	0x3b4f37fa	0.0031619058
137	0xbb80dc8d	-0.0039325417
138	0xba1896b0	-0.0005820794
139	0xbb42592e	-0.0029655206
140	0x3b2d6bef	0.0026462039
141	0xbb51a780	-0.0031990707
142	0xba8da686	-0.0010807074
143	0xbb4d8a69	-0.0031363016
144	0xbb35c5fc	-0.0027736416
145	0xbb797720	-0.0038065389
146	0xbb3894a7	-0.0028164776
147	0xbb18b05b	-0.0023298475
148	0x3ad663f0	0.0016356688
149	0xbb63cf88	-0.003476115
150	0x3b106032	0.0022029993
151	0xb8226cf0	-3.8725266e-05
152	0x3b7077cc	0.0036692498
153	0xbb802e58	-0.0039117746
154	0x38a5b78c	7.9020014e-05
155	0xbaeec486	-0.0018216528
156	0x3aeb5e3c	0.0017957161
157	0xbb6bbf7c	-0.0035972288
158	0x3b2daada	0.002649954
159	0xba074236	-0.00051597075
160	0xba1643b2	-0.0005732133
161	0xbb80026e	-0.0039065396
162	0xbb514b30	-0.0031935684
163	0xbb28b4c6	-0.0025742515
164	0xbb3f6fea	-0.0029210993
165	0xbb7db011	-0.003870968
166	0xbb6109f3	-0.0034338206
167	0xbb6510d0	-0.0034952648
168	0xbaa02020	-0.0012216605
169	0xbb63fc06	-0.003478767
170	0x3a3faa59	0.00073114556
171	0xbb736a42	-0.0037142192
172	0xbb61efa6	-0.0034475117
173	0xbb7664d2	-0.0037596715
174	0xbb809341	-0.003923804
175	0xbb808770	-0.0039223954
176	0xbb6530b8	-0.0034971666
177	0x3b828727	0.0039833966
178	0x3b818b5b	0.00395338
179	0x3b830dba	0.003999439
180	0x3b826da4	0.0039803553
181	0x3b82c50a	0.003990774
182	0x3b832e8a	0.0040033506
183	0x3b832669	0.0040023816
184	0x3b83136d	0.0040001185
185	0xbb800967	-0.003907371
186	0x3b833ea2	0.004005269
187	0x3b81ea50	0.0039647
188	0x3b76c64a	0.003765481
189	0x3b6b4d2f	0.003590416
190	0x3b80034d	0.0039066435
191	0xbb774e27	-0.0037735791

fusion_layer.0.weight f4 [1, 2, 1]
0	0xbe4f60d5	-0.20251782
1	0xbd963cd5	-0.073358215
