model_paths/best_model_AMPNet_fold_1.pth (torch, 7476 bytes, 5 tensors)

rgb_norm.weight f4 [192]
0.9864469 0.9870928 1.0140971 1.0118228 1.0141963 1.0026612 1.0141168 0.9978764
1.0141965 1.0037315 1.0141168 1.0049108 1.0141965 1.0041653 1.0141165 1.0039243
1.0141965 1.0048163 1.0141168 1.0038927 1.0141965 1.0074172 1.0141166 1.0022637
1.0141965 1.0081303 1.0141166 0.9971299 1.0141965 1.0118625 1.0141168 1.004272
1.0141966 1.0079676 1.0141166 1.0056658 1.0141965 1.0076445 1.0141166 1.0012059
1.0141966 1.010622 1.0141168 1.0047473 1.0141966 1.0021437 1.0141168 1.0099628
1.0141965 1.0082583 1.0141168 1.0072106 1.0141965 1.0020427 1.0141166 1.007671
1.0141965 1.010796 1.0141168 1.0044668 1.0141965 1.0093572 1.0141168 1.0006591
1.0141966 1.0052174 1.0141166 0.99943286 1.0141965 1.0019991 1.0141166 1.0004063
1.0141965 1.0125034 1.0141166 1.010823 1.0141966 1.0104792 1.0141166 1.0015512
1.0141965 1.0054927 1.0141168 1.0047514 1.0141965 1.0097052 1.0141166 0.9984295
1.0141966 1.0047736 1.0141168 1.0060099 1.0141965 1.000706 1.0141166 1.0009221
1.0141966 1.0112892 1.0141168 0.99490845 1.0141965 1.0069513 1.0141168 1.0100664
1.0141965 1.0090585 1.0141168 0.99289805 1.0141965 1.0099692 1.0141168 1.0106232
1.0141965 1.0058455 1.0141166 1.0022792 1.0141965 1.0120214 1.0141166 1.0028846
1.0141965 1.0000955 1.0141166 1.004893 1.0141965 1.0000026 1.0141166 1.0058427
1.0141965 1.0028734 1.0141165 1.0118986 1.0141965 1.0082625 1.0141168 1.006397
1.0141966 1.0067742 1.0141168 1.0045257 1.0141965 1.0102795 1.0141166 1.004105
1.0141966 1.007879 1.0141168 1.0066231 1.0141965 1.0081165 1.0141168 1.0034708
1.0141965 1.0082314 1.0141168 1.0064954 1.0141965 1.003838 1.0141166 1.0103687
1.0141965 1.0033189 1.0141166 0.99855876 1.0141965 1.0036193 1.0141166 1.0106863
1.0141965 1.0046792 1.0141168 1.0051286 1.0141966 1.0106653 1.0141168 1.0097808
1.0141966 1.0100279 1.0141168 1.005627 1.0141968 1.0071331 1.0141166 0.9930186
1.0141966 1.0084963 1.0141168 0.9981329 1.0141968 1.0126065 1.0141556 1.0136325
00000000: c987 7c3f 1db2 7c3f efcd 813f 6983 813f
00000010: 2fd1 813f 3457 803f 94ce 813f d474 7f3f
00000020: 31d1 813f 467a 803f 94ce 813f eba0 803f
00000030: 31d1 813f 7d88 803f 92ce 813f 9780 803f
00000040: 31d1 813f d29d 803f 94ce 813f 8e7f 803f
00000050: 31d1 813f 0cf3 803f 93ce 813f 2d4a 803f
00000060: 31d1 813f 6a0a 813f 93ce 813f e843 7f3f
00000070: 31d1 813f b684 813f 94ce 813f fc8b 803f
00000080: 32d1 813f 1505 813f 93ce 813f a8b9 803f
00000090: 31d1 813f 7ffa 803f 93ce 813f 8427 803f
000000a0: 32d1 813f 105c 813f 94ce 813f 8f9b 803f
000000b0: 32d1 813f 3f46 803f 94ce 813f 7646 813f
000000c0: 31d1 813f 9c0e 813f 94ce 813f 47ec 803f
000000d0: 31d1 813f ef42 803f 93ce 813f 5dfb 803f
000000e0: 31d1 813f c361 813f 94ce 813f 5e92 803f
000000f0: 31d1 813f 9e32 813f 94ce 813f 9915 803f
00000100: 32d1 813f f7aa 803f 93ce 813f d5da 7f3f
00000110: 31d1 813f 8241 803f 93ce 813f 500d 803f
00000120: 31d1 813f b699 813f 93ce 813f a662 813f
00000130: 32d1 813f 6257 813f 93ce 813f d432 803f
00000140: 31d1 813f fcb3 803f 94ce 813f b29b 803f
00000150: 31d1 813f 053e 813f 93ce 813f 1399 7f3f
00000160: 32d1 813f 6c9c 803f 94ce 813f efc4 803f
00000170: 31d1 813f 2217 803f 93ce 813f 371e 803f
00000180: 32d1 813f ed71 813f 94ce 813f 52b2 7e3f
00000190: 31d1 813f c8e3 803f 94ce 813f db49 813f
000001a0: 31d1 813f d428 813f 94ce 813f 912e 7e3f
000001b0: 31d1 813f ac46 813f 94ce 813f 1a5c 813f
000001c0: 31d1 813f 8cbf 803f 93ce 813f af4a 803f
000001d0: 31d1 813f eb89 813f 93ce 813f 865e 803f
000001e0: 31d1 813f 2103 803f 93ce 813f 55a0 803f
000001f0: 31d1 813f 1600 803f 93ce 813f 74bf 803f
00000200: 31d1 813f 285e 803f 92ce 813f e585 813f
00000210: 31d1 813f bf0e 813f 94ce 813f 9ed1 803f
00000220: 32d1 813f fadd 803f 94ce 813f 4c94 803f
00000230: 31d1 813f d750 813f 93ce 813f 8386 803f
00000240: 32d1 813f 2e02 813f 94ce 813f 07d9 803f
00000250: 31d1 813f f609 813f 94ce 813f bb71 803f
00000260: 31d1 813f ba0d 813f 94ce 813f d7d4 803f
00000270: 31d1 813f c37d 803f 93ce 813f c353 813f
00000280: 31d1 813f c16c 803f 93ce 813f 8ca1 7f3f
00000290: 31d1 813f 9976 803f 93ce 813f 2b5e 813f
000002a0: 31d1 813f 5499 803f 94ce 813f 0ea8 803f
000002b0: 32d1 813f 7b5d 813f 94ce 813f 7f40 813f
000002c0: 32d1 813f 9848 813f 94ce 813f 63b8 803f
000002d0: 33d1 813f bde9 803f 93ce 813f 7836 7e3f
000002e0: 32d1 813f 6816 813f 94ce 813f a385 7f3f
000002f0: 33d1 813f 179d 813f dacf 813f b6be 813f

rgb_norm.bias f4 [192]
0.013552921 -0.012907271 0.01409709 -0.011838812 -0.014196351 0.002663647 0.014116883 0.0021246907
-0.014196519 0.0037320247 0.014116906 -0.0049155666 -0.014196511 0.00416556 0.014116785 -0.0039246907
-0.014196555 0.004816753 0.014116859 -0.0038935717 -0.014196533 0.007417612 0.014116837 -0.0022604608
-0.014196533 0.008130556 0.014116832 0.0028694768 -0.014196539 0.011863074 0.014116846 -0.0042711752
-0.014196547 0.007968554 0.014116838 -0.0056630806 -0.014196542 0.007645473 0.01411684 -0.0012094168
-0.014196529 0.01062239 0.014116845 -0.0047475034 -0.01419653 0.0021419825 0.01411684 -0.00996292
-0.014196541 0.008258788 0.014116868 -0.007214093 -0.014196526 0.002035641 0.014116853 -0.0076718633
-0.014196523 0.010797834 0.014116846 -0.0044675586 -0.014196534 0.00935574 0.014116844 -0.00065801555
-0.014196534 0.0052129314 0.0141168265 0.0005628149 -0.014196529 0.0019993177 0.014116833 -0.00040880317
-0.014196541 0.012504624 0.014116823 -0.0108232265 -0.014196547 0.010479566 0.014116815 -0.0015736005
-0.01419654 0.005491652 0.014116845 -0.0047560837 -0.014196525 0.009705646 0.014116846 0.0015724442
-0.014196531 0.0047763796 0.014116854 -0.006012438 -0.014196523 0.00070644746 0.014116824 -0.00092342444
-0.014196539 0.011290423 0.014116845 0.0050973883 -0.014196537 0.006951482 0.01411686 -0.010067324
-0.01419653 0.009059899 0.014116859 0.0071023577 -0.014196529 0.00997034 0.014116849 -0.010625365
-0.014196534 0.0058478937 0.014116846 -0.002281304 -0.014196534 0.012023841 0.014116832 -0.0028855493
-0.014196544 9.6031086e-05 0.01411683 -0.0048928354 -0.0141965365 2.5700429e-06 0.014116841 -0.0058452273
-0.014196541 0.002874182 0.014116829 -0.0119025335 -0.014196537 0.008263499 0.014116841 -0.0063971397
-0.0141965365 0.0067745997 0.014116842 -0.0045248037 -0.014196526 0.010282384 0.01411684 -0.004105758
-0.014196541 0.007880068 0.014116864 -0.006626785 -0.014196526 0.0081153065 0.014116858 -0.0034703799
-0.014196521 0.008231994 0.0141168395 -0.0064967144 -0.014196527 0.003838326 0.014116847 -0.010371636
-0.014196524 0.0033191876 0.01411685 0.0014426014 -0.014196524 0.0036201533 0.01411683 -0.010685835
-0.014196536 0.0046797134 0.014116836 -0.0051272023 -0.014196546 0.010666291 0.01411686 -0.009782894
-0.0141965505 0.010038766 0.014116818 -0.00562623 -0.014196697 0.007142652 0.014116842 0.0069819293
-0.014196541 0.008499056 0.014116895 0.0018665888 -0.014196738 0.012627419 0.014155364 -0.01363233
00000000: 120d 5e3c 0579 53bc 7bf7 663c 94f7 41bc
00000010: d097 68bc 9590 2e3b 804a 673c 653e 0b3b
00000020: 8498 68bc fc94 743b 984a 673c c312 a1bb
00000030: 7c98 68bc 407f 883b 164a 673c b19a 80bb
00000040: ab98 68bc dad5 9d3b 664a 673c 4b2b 7fbb
00000050: 9398 68bc 700f f33b 4e4a 673c 3d24 14bb
00000060: 9398 68bc 0636 053c 494a 673c d50d 3c3b
00000070: 9a98 68bc 575d 423c 584a 673c 37f5 8bbb
00000080: a298 68bc 8a8e 023c 4f4a 673c 5d91 b9bb
00000090: 9d98 68bc e086 fa3b 524a 673c 4b85 9eba
000000a0: 8f98 68bc 8809 2e3c 574a 673c f290 9bbb
000000b0: 9098 68bc 8160 0c3b 524a 673c 843b 23bc
000000c0: 9c98 68bc de4f 073c 704a 673c 3364 ecbb
000000d0: 8c98 68bc 6468 053b 5f4a 673c 4164 fbbb
000000e0: 8998 68bc 66e9 303c 584a 673c 9964 92bb
000000f0: 9498 68bc d148 193c 564a 673c ad7e 2cba
00000100: 9498 68bc 3dd1 aa3b 434a 673c de89 133a
00000110: 8f98 68bc fc06 033b 4a4a 673c a254 d6b9
00000120: 9c98 68bc 32e0 4c3c 3f4a 673c e753 31bc
00000130: a298 68bc 7cb2 2b3c 374a 673c 4541 ceba
00000140: 9b98 68bc 51f3 b33b 574a 673c ecd8 9bbb
00000150: 8b98 68bc 6e04 1f3c 584a 673c 791a ce3a
00000160: 9198 68bc 2d83 9c3b 614a 673c fc03 c5bb
00000170: 8998 68bc e330 393a 404a 673c f711 72ba
00000180: 9a98 68bc 77fb 383c 574a 673c fe07 a73b
00000190: 9898 68bc 42c9 e33b 674a 673c 6bf1 24bc
000001a0: 9098 68bc f86f 143c 664a 673c e5ba e83b
000001b0: 8f98 68bc a35a 233c 5b4a 673c 0316 2ebc
000001c0: 9498 68bc b09f bf3b 584a 673c ee81 15bb
000001d0: 9498 68bc a5ff 443c 494a 673c 7c1b 3dbb
000001e0: 9f98 68bc 4c64 c938 474a 673c 1454 a0bb
000001f0: 9798 68bc 0079 2c36 534a 673c 5289 bfbb
00000200: 9c98 68bc c65c 3c3b 464a 673c d802 43bc
00000210: 9898 68bc a063 073c 534a 673c 199f d1bb
00000220: 9798 68bc 76fd dd3b 544a 673c ce44 94bb
00000230: 8c98 68bc 7277 283c 524a 673c 9889 86bb
00000240: 9c98 68bc 671b 013c 6b4a 673c 8025 d9bb
00000250: 8c98 68bc 10f6 043c 654a 673c 506f 63bb
00000260: 8698 68bc 7cdf 063c 514a 673c 64e2 d4bb
00000270: 8d98 68bc 6d8c 7b3b 594a 673c cbed 29bc
00000280: 8a98 68bc ba86 593b 5c4a 673c ac15 bd3a
00000290: 8a98 68bc 1840 6d3b 474a 673c a413 2fbc
000002a0: 9698 68bc 4858 993b 4d4a 673c 1702 a8bb
000002b0: a198 68bc abc1 2e3c 674a 673c 6e48 20bc
000002c0: a698 68bc a379 243c 3a4a 673c 3d5c b8bb
000002d0: 4399 68bc e80c ea3b 544a 673c abc8 e43b
000002e0: 9c98 68bc a03f 0b3c 8d4a 673c 54a8 f43a
000002f0: 6f99 68bc 3ce3 4e3c e6eb 673c 235a 5fbc

thermal_norm.weight f4 [192]
1.0135419 1.0128084 1.0139817 1.0118859 0.98590153 0.99739623 1.0140045 0.99778044
0.98590136 0.99623686 1.0140047 1.0049268 0.98590136 0.99587 1.0140045 1.0039451
0.9859012 0.9951804 1.0140045 1.003887 0.9859013 0.99264514 1.0140045 1.0022652
0.9859013 0.9920658 1.0140045 0.99706066 0.9859012 0.98815686 1.0140045 1.0041748
0.98590124 0.99206156 1.0140045 1.0056888 0.9859012 0.992511 1.0140045 1.0012667
0.9859013 0.98951393 1.0140045 1.0046486 0.9859013 0.9977692 1.0140045 1.009832
0.98590124 0.99188155 1.0140046 1.0072194 0.9859013 0.99801785 1.0140045 1.0076437
0.9859013 0.9893127 1.0140045 1.0044047 0.98590124 0.99072355 1.0140045 1.0006969
0.9859013 0.994747 1.0140045 0.9994151 0.9859013 0.99792653 1.0140045 1.0003916
0.9859013 0.9875731 1.0140045 1.0106878 0.9859012 0.9895798 1.0140045 1.0015274
0.98590124 0.9944761 1.0140045 1.0047776 0.9859013 0.9903988 1.0140045 0.9985149
0.98590136 0.995221 1.0140045 1.0060503 0.9859013 0.99920446 1.0140045 1.0008168
0.9859012 0.98885083 1.0140046 0.9948275 0.98590124 0.9931472 1.0140045 1.0100026
0.9859013 0.99098593 1.0140045 0.99285996 0.9859013 0.9901414 1.0140045 1.0104672
0.9859013 0.9942121 1.0140045 1.0022814 0.9859013 0.98798025 1.0140045 1.0028074
0.9859012 0.9999974 1.0140045 1.00479 0.9859013 1.0000138 1.0140045 1.0058728
0.9859013 0.9970454 1.0140045 1.0118297 0.98590124 0.9917973 1.0140045 1.0064168
0.98590124 0.9933715 1.0140045 1.0044689 0.9859013 0.9897223 1.0140045 1.0039833
0.98590124 0.9921098 1.0140046 1.0066907 0.98590124 0.99194616 1.0140045 1.0034698
0.9859013 0.99186355 1.0140045 1.0064937 0.9859013 0.99623984 1.0140045 1.010393
0.9859013 0.99682474 1.0140045 0.99850506 0.9859013 0.9963691 1.0140045 1.0104944
0.98590124 0.9954478 1.0140045 1.0050998 0.9859012 0.9894404 1.0140045 1.0097358
0.9859012 0.9899397 1.0140045 1.0056847 0.98590106 0.9928363 1.0140045 0.9930745
0.9859013 0.99152416 1.0140047 0.99806255 0.985901 0.98747826 1.0140498 0.98651534
00000000: bebb 813f b5a3 813f 27ca 813f 7a85 813f
00000010: 0b64 7c3f 5c55 7f3f e6ca 813f 8a6e 7f3f
00000020: 0864 7c3f 6109 7f3f e8ca 813f 71a1 803f
00000030: 0864 7c3f 56f1 7e3f e6ca 813f 4681 803f
00000040: 0564 7c3f 25c4 7e3f e6ca 813f 5f7f 803f
00000050: 0764 7c3f fe1d 7e3f e6ca 813f 3a4a 803f
00000060: 0764 7c3f 06f8 7d3f e6ca 813f 5e3f 7f3f
00000070: 0564 7c3f d9f7 7c3f e6ca 813f cd88 803f
00000080: 0664 7c3f bff7 7d3f e6ca 813f 69ba 803f
00000090: 0564 7c3f 3315 7e3f e6ca 813f 8229 803f
000000a0: 0764 7c3f c950 7d3f e6ca 813f 5398 803f
000000b0: 0764 7c3f cd6d 7f3f e6ca 813f 2d42 813f
000000c0: 0664 7c3f f3eb 7d3f e7ca 813f 91ec 803f
000000d0: 0764 7c3f 197e 7f3f e6ca 813f 78fa 803f
000000e0: 0764 7c3f 9943 7d3f e6ca 813f 5590 803f
000000f0: 0664 7c3f 0fa0 7d3f e6ca 813f d616 803f
00000100: 0764 7c3f bda7 7e3f e6ca 813f abd9 7f3f
00000110: 0764 7c3f 1d78 7f3f e6ca 813f d50c 803f
00000120: 0764 7c3f 97d1 7c3f e6ca 813f 385e 813f
00000130: 0564 7c3f 1a55 7d3f e6ca 813f 0d32 803f
00000140: 0664 7c3f fc95 7e3f e6ca 813f 8d9c 803f
00000150: 0764 7c3f c78a 7d3f e6ca 813f ac9e 7f3f
00000160: 0864 7c3f cec6 7e3f e6ca 813f 42c6 803f
00000170: 0764 7c3f ddcb 7f3f e6ca 813f c41a 803f
00000180: 0564 7c3f 5425 7d3f e7ca 813f 04ad 7e3f
00000190: 0664 7c3f e53e 7e3f e6ca 813f c447 813f
000001a0: 0764 7c3f 41b1 7d3f e6ca 813f 122c 7e3f
000001b0: 0764 7c3f e879 7d3f e6ca 813f fd56 813f
000001c0: 0764 7c3f af84 7e3f e6ca 813f c24a 803f
000001d0: 0764 7c3f 46ec 7c3f e6ca 813f fe5b 803f
000001e0: 0564 7c3f d4ff 7f3f e6ca 813f f59c 803f
000001f0: 0764 7c3f 7400 803f e6ca 813f 71c0 803f
00000200: 0764 7c3f 5e3e 7f3f e6ca 813f a383 813f
00000210: 0664 7c3f 6ee6 7d3f e6ca 813f 44d2 803f
00000220: 0664 7c3f 984d 7e3f e6ca 813f 7092 803f
00000230: 0764 7c3f 715e 7d3f e6ca 813f 8682 803f
00000240: 0664 7c3f e8fa 7d3f e7ca 813f 3edb 803f
00000250: 0664 7c3f 2ff0 7d3f e6ca 813f b371 803f
00000260: 0764 7c3f c5ea 7d3f e6ca 813f c9d4 803f
00000270: 0764 7c3f 9309 7f3f e6ca 813f 8f54 813f
00000280: 0764 7c3f e82f 7f3f e6ca 813f 079e 7f3f
00000290: 0764 7c3f 0c12 7f3f e6ca 813f e157 813f
000002a0: 0664 7c3f abd5 7e3f e6ca 813f 1ca7 803f
000002b0: 0564 7c3f f74b 7d3f e6ca 813f 063f 813f
000002c0: 0564 7c3f b06c 7d3f e6ca 813f 47ba 803f
000002d0: 0364 7c3f 852a 7e3f e6ca 813f 213a 7e3f
000002e0: 0764 7c3f 87d4 7d3f e8ca 813f 0781 7f3f
000002f0: 0264 7c3f 60cb 7c3f 62cc 813f 458c 7c3f

thermal_norm.bias f4 [192]
-0.0135420635 0.012808215 -0.01398149 0.011886021 0.014098536 -0.0026037518 -0.014004787 -0.0022197259
0.014098735 -0.0037629998 -0.014004809 0.004926762 0.014098728 -0.004129956 -0.014004669 0.003945206
0.014098779 -0.0048197024 -0.014004758 0.0038871872 0.014098754 -0.0073548304 -0.014004731 0.0022651074
0.014098753 -0.007934188 -0.014004726 -0.00293947 0.014098763 -0.011843056 -0.01400474 0.0041748625
0.014098773 -0.007938448 -0.014004731 0.005688811 0.014098765 -0.0074890843 -0.014004734 0.0012664861
0.014098748 -0.01048613 -0.014004738 0.004648543 0.014098752 -0.0022307502 -0.014004736 0.009832104
0.014098764 -0.008118383 -0.014004771 0.0072194976 0.014098746 -0.0019821986 -0.014004749 0.00764353
0.014098743 -0.010687137 -0.014004741 0.0044047316 0.014098754 -0.009276406 -0.014004735 0.00069685536
0.014098757 -0.0052530044 -0.014004718 -0.000584992 0.0140987495 -0.0020735255 -0.014004725 0.0003916731
0.014098764 -0.0124267945 -0.014004713 0.010687895 0.014098773 -0.010420316 -0.0140047055 0.0015278553
0.0140987635 -0.005523901 -0.014004738 0.0047777514 0.014098745 -0.009601221 -0.014004741 -0.0014849908
0.014098753 -0.0047790157 -0.014004751 0.0060502677 0.014098743 -0.00079556997 -0.014004717 0.0008168136
0.014098762 -0.011149136 -0.014004739 -0.0051725437 0.014098762 -0.006852779 -0.014004758 0.010002569
0.01409875 -0.009014079 -0.014004758 -0.007140022 0.01409875 -0.009858463 -0.014004746 0.010466871
0.014098755 -0.0057878364 -0.014004742 0.0022815205 0.014098757 -0.012019694 -0.014004725 0.0028073902
0.014098767 -2.5107875e-06 -0.014004723 0.004790169 0.014098757 1.3982266e-05 -0.0140047325 0.0058729304
0.01409876 -0.0029545787 -0.0140047185 0.011829954 0.014098761 -0.008202713 -0.014004737 0.006417102
0.014098759 -0.006628579 -0.014004738 0.0044690613 0.014098749 -0.010277795 -0.014004734 0.0039833398
0.014098764 -0.007890195 -0.014004764 0.0066909725 0.014098747 -0.00805375 -0.014004757 0.0034698248
0.01409874 -0.008136484 -0.014004732 0.0064936858 0.014098749 -0.0037602023 -0.014004743 0.010393081
0.014098741 -0.003175269 -0.014004745 -0.0014949816 0.014098743 -0.0036308488 -0.014004721 0.010494341
0.014098757 -0.004552107 -0.014004728 0.0050996514 0.014098769 -0.010559547 -0.014004757 0.009735885
0.014098775 -0.010060199 -0.01400471 0.0056844647 0.01409895 -0.007163548 -0.014004733 -0.0069255293
0.014098764 -0.008475899 -0.014004789 -0.0019373577 0.014099003 -0.012521741 -0.014049655 0.013485212
00000000: 88df 5dbc 8cd9 513c 9f12 65bc 96bd 423c
00000010: 8cfd 663c b5a3 2abb 5674 65bc d278 11bb
00000020: 61fe 663c a99c 76bb 6d74 65bc ad70 a13b
00000030: 5afe 663c 9554 87bb d773 65bc c946 813b
00000040: 91fe 663c 98ee 9dbb 3674 65bc 2ec0 7e3b
00000050: 76fe 663c ca00 f1bb 1974 65bc 3272 143b
00000060: 75fe 663c 65fe 01bc 1474 65bc 20a4 40bb
00000070: 7ffe 663c 6109 42bc 2374 65bc 49cd 883b
00000080: 8afe 663c 4410 02bc 1974 65bc 3569 ba3b
00000090: 82fe 663c fe66 f5bb 1d74 65bc 3900 a63a
000000a0: 6ffe 663c 04ce 2bbc 2174 65bc ce52 983b
000000b0: 74fe 663c c731 12bb 1f74 65bc d516 213c
000000c0: 81fe 663c f702 05bc 4474 65bc 8991 ec3b
000000d0: 6dfe 663c c6e7 01bb 2d74 65bc 9476 fa3b
000000e0: 6afe 663c 1a19 2fbc 2474 65bc 9155 903b
000000f0: 76fe 663c 11fc 17bc 1e74 65bc 2cad 363a
00000100: 79fe 663c 6521 acbb 0b74 65bc 265a 19ba
00000110: 71fe 663c fce3 07bb 1374 65bc 7959 cd39
00000120: 81fe 663c c199 4bbc 0674 65bc 481c 2f3c
00000130: 8afe 663c f9b9 2abc fe73 65bc 5142 c83a
00000140: 80fe 663c d701 b5bb 2174 65bc af8e 9c3b
00000150: 6cfe 663c 714e 1dbc 2474 65bc 06a4 c2ba
00000160: 75fe 663c 4a99 9cbb 2f74 65bc 5341 c63b
00000170: 6afe 663c cc8d 50ba 0a74 65bc 6f1f 563a
00000180: 7efe 663c deaa 36bc 2274 65bc 717e a9bb
00000190: 7efe 663c 478d e0bb 3674 65bc d1e1 233c
000001a0: 72fe 663c caaf 13bc 3674 65bc d8f6 e9bb
000001b0: 72fe 663c 6485 21bc 2a74 65bc 3d7d 2b3c
000001c0: 77fe 663c e4a7 bdbb 2574 65bc 9085 153b
000001d0: 79fe 663c 40ee 44bc 1374 65bc 31fc 373b
000001e0: 84fe 663c 007f 28b6 1174 65bc daf6 9c3b
000001f0: 79fe 663c 6095 6a37 1b74 65bc b671 c03b
00000200: 7cfe 663c 9ba1 41bb 0c74 65bc 6cd2 413c
00000210: 7dfe 663c ac64 06bc 2074 65bc 8e46 d23b
00000220: 7bfe 663c 8d34 d9bb 2174 65bc 3471 923b
00000230: 70fe 663c 3264 28bc 1d74 65bc ad86 823b
00000240: 81fe 663c e045 01bc 3d74 65bc f23f db3b
00000250: 6efe 663c e0f3 03bc 3574 65bc 0066 633b
00000260: 67fe 663c e34e 05bc 1a74 65bc fcc8 d43b
00000270: 70fe 663c ba6d 76bb 2674 65bc be47 2a3c
00000280: 68fe 663c 2d18 50bb 2874 65bc 42f3 c3ba
00000290: 6afe 663c 89f3 6dbb 0f74 65bc 75f0 2b3c
000002a0: 79fe 663c d729 95bb 1674 65bc fa1a a73b
000002b0: 86fe 663c f301 2dbc 3574 65bc 4383 1f3c
000002c0: 8cfe 663c 88d3 24bc 0374 65bc bf44 ba3b
000002d0: 48ff 663c 32bc eabb 1c74 65bc 8def e2bb
000002e0: 81fe 663c 7fde 0abc 5874 65bc f0ee fdba
000002f0: 81ff 663c fd27 4dbc 8630 66bc 14f1 5c3c

fusion_layer.0.weight f4 [1, 2, 1]
-0.10795523 0.2254555
00000000: a217 ddbd cedd 663e
