model_paths/best_model_AMPNet_fold_2.pth (torch, 7476 bytes, 5 tensors)

rgb_norm.weight f4 [192]
1.0070022 1.0068384 0.9930013 1.0070325 0.99301225 1.0070189 1.0023576 1.0070348
0.9930132 1.0070189 0.99329984 1.007034 0.9930131 1.0070189 0.9988188 1.007032
0.9930129 1.0070189 0.99558675 1.0070316 0.99301285 1.0070189 0.9963719 1.0070313
0.99301285 1.0070189 0.99341816 1.0070318 0.99301285 1.0070189 0.9948119 1.0070317
0.9930131 1.0070189 0.9989818 1.0070314 0.99301296 1.0070189 0.9965313 1.0070318
0.99301314 1.0070189 0.99543494 1.0070314 0.99301285 1.0070189 0.99539083 1.0070316
0.9930127 1.0070189 0.9976405 1.0070316 0.9930128 1.0070189 0.99482614 1.0070314
0.9930128 1.007019 0.99685115 1.0070316 0.99301314 1.0070189 0.99383414 1.0070316
0.9930131 1.0070189 0.9936513 1.0070316 0.9930129 1.0070189 0.9978 1.0070318
0.9930129 1.0070189 0.99522614 1.0070316 0.99301285 1.0070189 0.9958 1.0070316
0.99301314 1.0070189 0.99954784 1.0070317 0.99301285 1.0070189 0.998199 1.0070317
0.99301314 1.0070189 0.9959079 1.0070318 0.99301296 1.0070189 0.9936723 1.0070318
0.99301296 1.0070189 0.9970075 1.0070319 0.9930129 1.0070189 0.9976919 1.0070322
0.99301296 1.0070189 0.993578 1.0070317 0.9930131 1.0070189 0.99760604 1.0070316
0.99301296 1.0070189 0.9950148 1.0070318 0.99301314 1.0070189 0.9938098 1.0070319
0.99301285 1.0070189 0.9980582 1.0070318 0.99301314 1.0070189 0.993722 1.0070316
0.993013 1.0070189 0.9983172 1.0070317 0.99301296 1.0070189 0.99345946 1.0070317
0.99301296 1.0070189 0.9937599 1.0070318 0.993013 1.0070189 0.9951712 1.0070314
0.9930129 1.0070189 0.9958436 1.0070318 0.9930132 1.0070189 0.99811774 1.0070322
0.993013 1.0070189 0.99854463 1.0070316 0.99301314 1.0070189 0.9961821 1.0070316
0.9930129 1.0070189 0.9963458 1.0070316 0.99301267 1.0070189 0.9938561 1.0070317
0.99301285 1.007019 0.9948073 1.0070316 0.99301285 1.0070189 1.0031856 1.0070312
0.9930131 1.0070189 0.9954609 1.0070297 0.9930127 1.0070189 0.9997472 1.0070337
0.993013 1.0070184 0.99541557 1.0070342 0.99301195 0.99305445 0.99306446 1.0070062
00000000: 73e5 803f 15e0 803f 5535 7e3f 71e6 803f
00000010: 0d36 7e3f ffe5 803f 414d 803f 84e6 803f
00000020: 1d36 7e3f ffe5 803f e648 7e3f 7de6 803f
00000030: 1b36 7e3f ffe5 803f 97b2 7f3f 6de6 803f
00000040: 1836 7e3f ffe5 803f c6de 7e3f 69e6 803f
00000050: 1736 7e3f ffe5 803f 3b12 7f3f 67e6 803f
00000060: 1736 7e3f ffe5 803f a750 7e3f 6be6 803f
00000070: 1736 7e3f ffe5 803f feab 7e3f 6ae6 803f
00000080: 1b36 7e3f ffe5 803f 45bd 7f3f 68e6 803f
00000090: 1936 7e3f ffe5 803f ad1c 7f3f 6be6 803f
000000a0: 1c36 7e3f ffe5 803f d3d4 7e3f 68e6 803f
000000b0: 1736 7e3f ffe5 803f efd1 7e3f 69e6 803f
000000c0: 1536 7e3f ffe5 803f 5e65 7f3f 69e6 803f
000000d0: 1636 7e3f ffe5 803f edac 7e3f 68e6 803f
000000e0: 1636 7e3f 00e6 803f a331 7f3f 69e6 803f
000000f0: 1c36 7e3f ffe5 803f ea6b 7e3f 69e6 803f
00000100: 1b36 7e3f ffe5 803f ee5f 7e3f 69e6 803f
00000110: 1836 7e3f ffe5 803f d26f 7f3f 6be6 803f
00000120: 1836 7e3f ffe5 803f 24c7 7e3f 69e6 803f
00000130: 1736 7e3f ffe5 803f c0ec 7e3f 69e6 803f
00000140: 1c36 7e3f ffe5 803f 5ee2 7f3f 6ae6 803f
00000150: 1736 7e3f ffe5 803f f889 7f3f 6ae6 803f
00000160: 1c36 7e3f ffe5 803f d2f3 7e3f 6be6 803f
00000170: 1936 7e3f ffe5 803f 4f61 7e3f 6be6 803f
00000180: 1936 7e3f ffe5 803f e23b 7f3f 6ce6 803f
00000190: 1836 7e3f ffe5 803f bd68 7f3f 6ee6 803f
000001a0: 1936 7e3f ffe5 803f 215b 7e3f 6ae6 803f
000001b0: 1b36 7e3f ffe5 803f 1c63 7f3f 69e6 803f
000001c0: 1936 7e3f ffe5 803f 4ab9 7e3f 6be6 803f
000001d0: 1c36 7e3f ffe5 803f 526a 7e3f 6ce6 803f
000001e0: 1736 7e3f ffe5 803f be80 7f3f 6be6 803f
000001f0: 1c36 7e3f ffe5 803f 9164 7e3f 69e6 803f
00000200: 1a36 7e3f ffe5 803f b791 7f3f 6ae6 803f
00000210: 1936 7e3f ffe5 803f 5c53 7e3f 6ae6 803f
00000220: 1936 7e3f ffe5 803f 0c67 7e3f 6be6 803f
00000230: 1a36 7e3f ffe5 803f 8ac3 7e3f 68e6 803f
00000240: 1836 7e3f ffe5 803f 9bef 7e3f 6be6 803f
00000250: 1d36 7e3f ffe5 803f a584 7f3f 6ee6 803f
00000260: 1a36 7e3f ffe5 803f 9fa0 7f3f 69e6 803f
00000270: 1c36 7e3f ffe5 803f ca05 7f3f 69e6 803f
00000280: 1836 7e3f ffe5 803f 8510 7f3f 69e6 803f
00000290: 1436 7e3f ffe5 803f 5a6d 7e3f 6ae6 803f
000002a0: 1736 7e3f 00e6 803f b1ab 7e3f 69e6 803f
000002b0: 1736 7e3f ffe5 803f 6368 803f 66e6 803f
000002c0: 1b36 7e3f ffe5 803f 87d6 7e3f 59e6 803f
000002d0: 1536 7e3f ffe5 803f 6fef 7f3f 7be6 803f
000002e0: 1a36 7e3f fbe5 803f 8ed3 7e3f 7fe6 803f
000002f0: 0836 7e3f d138 7e3f 7939 7e3f 94e5 803f

rgb_norm.bias f4 [192]
-0.007002239 0.0068382975 -0.0069987443 -0.007035067 0.006987753 0.0070192823 0.0023577332 -0.0070374333
0.006986806 0.0070190798 -0.006700131 -0.007036458 0.0069869356 0.0070191408 -0.0011813345 -0.0070342505
0.0069871 0.0070191734 -0.004413414 -0.0070338254 0.006987184 0.0070191976 -0.0036281217 -0.007033674
0.0069871517 0.0070191794 -0.0065818736 -0.0070340442 0.006987154 0.007019152 -0.005187829 -0.007033985
0.006986942 0.0070191836 -0.0010184601 -0.00703373 0.0069870604 0.007019143 -0.0034685433 -0.007033988
0.006986931 0.00701913 -0.0045654858 -0.0070337686 0.0069871102 0.0070191855 -0.004609275 -0.007033822
0.0069872746 0.0070191473 -0.0023593234 -0.0070338016 0.00698721 0.0070191864 -0.005173926 -0.007033827
0.0069872364 0.0070191645 -0.0031490172 -0.007033939 0.0069869617 0.0070191966 -0.0061658663 -0.0070338743
0.006986973 0.0070191678 -0.0063487045 -0.0070339013 0.0069870558 0.007019137 -0.002199859 -0.0070339423
0.0069870325 0.007019152 -0.0047737914 -0.0070338366 0.0069871787 0.0070191408 -0.0041999593 -0.0070338827
0.006986822 0.007019158 -0.00045210944 -0.0070339786 0.006987109 0.007019137 -0.0018007029 -0.007033948
0.006986901 0.0070191417 -0.004092119 -0.0070340307 0.006986975 0.007019144 -0.006327661 -0.007033947
0.0069870437 0.0070191557 -0.0029927182 -0.0070341225 0.0069870492 0.0070191463 -0.0023077184 -0.0070342496
0.0069870227 0.007019137 -0.006422032 -0.0070339856 0.006986959 0.007019143 -0.0023939293 -0.007033863
0.0069870567 0.007019166 -0.004985252 -0.0070340987 0.006986903 0.0070191487 -0.006190132 -0.0070341346
0.0069872043 0.007019133 -0.0019418843 -0.007034063 0.0069868527 0.0070191417 -0.0062780497 -0.007033792
0.0069869766 0.007019151 -0.0016829666 -0.007033872 0.0069870725 0.0070191617 -0.006540594 -0.0070339683
0.006987034 0.0070191487 -0.0062401346 -0.0070339395 0.0069869477 0.0070191375 -0.004828863 -0.007033835
0.0069870385 0.007019138 -0.004156486 -0.0070339777 0.006986837 0.007019162 -0.0018822813 -0.0070342366
0.006986981 0.00701914 -0.001455564 -0.0070338966 0.0069869505 0.0070191347 -0.0038178412 -0.007033787
0.0069870427 0.0070191855 -0.003654232 -0.0070338324 0.006987335 0.0070191715 -0.0061439583 -0.0070338035
0.006987114 0.00701919 -0.0051926477 -0.0070337523 0.006987256 0.0070191673 0.0031857314 -0.00703354
0.0069869617 0.0070191594 -0.0045391363 -0.007031528 0.006987338 0.007019073 -0.0002527699 -0.0070363088
0.0069869375 0.0070185917 -0.0045844964 -0.0070369635 0.0069880243 -0.007005496 -0.0069355033 -0.0070061213
00000000: 0a73 e5bb cc13 e03b b955 e5bb 6b86 e6bb
00000010: 85f9 e43b 0202 e63b 3384 1a3b 459a e6bb
00000020: 94f1 e43b 4f00 e63b c68c dbbb 1692 e6bb
00000030: aaf2 e43b d200 e63b 02d7 9aba 927f e6bb
00000040: 0bf4 e43b 1801 e63b 669e 90bb 017c e6bb
00000050: bff4 e43b 4c01 e63b c8c5 6dbb bc7a e6bb
00000060: 7af4 e43b 2501 e63b c2ac d7bb d77d e6bb
00000070: 7ff4 e43b ea00 e63b aafe a9bb 587d e6bb
00000080: b8f2 e43b 2e01 e63b da7d 85ba 347b e6bb
00000090: b6f3 e43b d700 e63b 8050 63bb 5e7d e6bb
000000a0: a0f2 e43b bb00 e63b 129a 95bb 877b e6bb
000000b0: 21f4 e43b 3201 e63b 6709 97bb fa7b e6bb
000000c0: 82f5 e43b e000 e63b e19e 1abb ce7b e6bb
000000d0: f7f4 e43b 3401 e63b 098a a9bb 047c e6bb
000000e0: 30f5 e43b 0501 e63b be5f 4ebb f57c e6bb
000000f0: e2f2 e43b 4a01 e63b 090b cabb 6a7c e6bb
00000100: faf2 e43b 0c01 e63b cb08 d0bb a47c e6bb
00000110: acf3 e43b ca00 e63b 822b 10bb fc7c e6bb
00000120: 7af3 e43b ea00 e63b 776d 9cbb 197c e6bb
00000130: b4f4 e43b d200 e63b d09f 89bb 7c7c e6bb
00000140: b6f1 e43b f700 e63b 1a09 edb9 4a7d e6bb
00000150: 1ef4 e43b ca00 e63b 9005 ecba 087d e6bb
00000160: 60f2 e43b d400 e63b 2f17 86bb ba7d e6bb
00000170: fff2 e43b d900 e63b 4558 cfbb 067d e6bb
00000180: 92f3 e43b f200 e63b 7b21 44bb 7f7e e6bb
00000190: 9ef3 e43b de00 e63b 173d 17bb 907f e6bb
000001a0: 65f3 e43b ca00 e63b e96f d2bb 597d e6bb
000001b0: dcf2 e43b d700 e63b 78e3 1cbb 527c e6bb
000001c0: aef3 e43b 0801 e63b 535b a3bb 4c7e e6bb
000001d0: 64f2 e43b e300 e63b 97d6 cabb 997e e6bb
000001e0: ebf4 e43b c100 e63b d386 feba ff7d e6bb
000001f0: f8f1 e43b d400 e63b 19b8 cdbb b97b e6bb
00000200: 02f3 e43b e800 e63b fd96 dcba 657c e6bb
00000210: d0f3 e43b ff00 e63b 7b52 d6bb 347d e6bb
00000220: 7df3 e43b e300 e63b 0b7a ccbb f67c e6bb
00000230: c4f2 e43b cb00 e63b 703b 9ebb 167c e6bb
00000240: 87f3 e43b cc00 e63b 2233 88bb 487d e6bb
00000250: d6f1 e43b 0001 e63b e1b6 f6ba 747f e6bb
00000260: 0bf3 e43b d000 e63b a0c8 beba 9a7c e6bb
00000270: caf2 e43b c500 e63b bf34 7abb af7b e6bb
00000280: 90f3 e43b 3201 e63b d77b 6fbb 107c e6bb
00000290: 04f6 e43b 1401 e63b 4253 c9bb d27b e6bb
000002a0: 29f4 e43b 3c01 e63b 1627 aabb 647b e6bb
000002b0: 5af5 e43b 0b01 e63b b4c7 503b 9c79 e6bb
000002c0: e2f2 e43b fa00 e63b 09bd 94bb bb68 e6bb
000002d0: 0af6 e43b 4000 e63b 3486 84b9 d690 e6bb
000002e0: aef2 e43b 37fc e53b 8b39 96bb 5496 e6bb
000002f0: ccfb e43b 5c8e e5bb 3843 e3bb 9b93 e5bb

thermal_norm.weight f4 [192]
0.99300396 0.9931701 0.9930044 1.0070305 1.0069805 0.99298596 1.0023757 1.0070332
1.0069796 0.99298626 0.9933003 1.007032 1.0069797 0.99298614 0.9988338 1.0070297
1.0069798 0.99298614 0.9955952 1.0070292 1.00698 0.99298614 0.99637324 1.007029
1.0069798 0.99298614 0.99341685 1.0070295 1.0069798 0.99298614 0.99480677 1.0070294
1.0069797 0.99298614 0.99898666 1.0070293 1.0069798 0.99298614 0.996545 1.0070295
1.0069797 0.99298614 0.99543005 1.007029 1.0069798 0.99298614 0.9953995 1.007029
1.0069801 0.99298614 0.9976335 1.0070292 1.0069801 0.99298614 0.99481726 1.0070293
1.0069801 0.99298614 0.9968511 1.0070294 1.0069798 0.99298614 0.99383855 1.0070293
1.0069797 0.99298614 0.99364877 1.0070294 1.0069798 0.99298614 0.9977981 1.0070294
1.0069798 0.99298614 0.99522686 1.0070292 1.00698 0.99298614 0.99579686 1.0070292
1.0069797 0.99298614 0.99954194 1.0070294 1.0069798 0.99298614 0.998202 1.0070294
1.0069797 0.99298614 0.99591964 1.0070295 1.0069797 0.99298614 0.99367106 1.0070294
1.0069798 0.99298614 0.99700546 1.0070297 1.0069797 0.99298614 0.99770856 1.0070297
1.0069798 0.99298614 0.99357855 1.0070294 1.0069797 0.99298614 0.9976186 1.0070292
1.0069798 0.99298614 0.99502635 1.0070295 1.0069797 0.99298614 0.99381477 1.0070297
1.0069801 0.99298614 0.9980701 1.0070295 1.0069797 0.99298614 0.9937228 1.0070292
1.0069797 0.99298614 0.9983364 1.0070293 1.0069798 0.99298614 0.99346715 1.0070294
1.0069798 0.99298614 0.9937647 1.0070293 1.0069797 0.99298614 0.995161 1.0070293
1.0069798 0.99298614 0.99583685 1.0070295 1.0069797 0.99298614 0.99810696 1.0070297
1.0069797 0.99298614 0.9985604 1.0070293 1.0069797 0.99298614 0.99617213 1.0070292
1.0069798 0.99298614 0.99634653 1.0070293 1.0069801 0.99298614 0.9938608 1.007029
1.0069798 0.99298614 0.99481755 1.007029 1.0069801 0.99298614 1.003204 1.0070288
1.0069798 0.99298614 0.9954645 1.0070268 1.0069802 0.9929862 0.9997507 1.0070319
1.0069798 0.99298674 0.9954184 1.0070326 1.0069809 1.0069994 0.9930691 0.99300045
00000000: 8235 7e3f 6540 7e3f 8935 7e3f 60e6 803f
00000010: bde4 803f 5434 7e3f d94d 803f 77e6 803f
00000020: b5e4 803f 5934 7e3f ee48 7e3f 6de6 803f
00000030: b6e4 803f 5734 7e3f 92b3 7f3f 59e6 803f
00000040: b7e4 803f 5734 7e3f 54df 7e3f 55e6 803f
00000050: b8e4 803f 5734 7e3f 5112 7f3f 54e6 803f
00000060: b7e4 803f 5734 7e3f 9150 7e3f 58e6 803f
00000070: b7e4 803f 5734 7e3f a8ab 7e3f 57e6 803f
00000080: b6e4 803f 5734 7e3f 97bd 7f3f 56e6 803f
00000090: b7e4 803f 5734 7e3f 931d 7f3f 58e6 803f
000000a0: b6e4 803f 5734 7e3f 81d4 7e3f 54e6 803f
000000b0: b7e4 803f 5734 7e3f 80d2 7e3f 54e6 803f
000000c0: b9e4 803f 5734 7e3f e964 7f3f 55e6 803f
000000d0: b9e4 803f 5734 7e3f 58ac 7e3f 56e6 803f
000000e0: b9e4 803f 5734 7e3f a231 7f3f 57e6 803f
000000f0: b7e4 803f 5734 7e3f 346c 7e3f 56e6 803f
00000100: b6e4 803f 5734 7e3f c45f 7e3f 57e6 803f
00000110: b7e4 803f 5734 7e3f b26f 7f3f 57e6 803f
00000120: b7e4 803f 5734 7e3f 30c7 7e3f 55e6 803f
00000130: b8e4 803f 5734 7e3f 8bec 7e3f 55e6 803f
00000140: b6e4 803f 5734 7e3f fbe1 7f3f 57e6 803f
00000150: b7e4 803f 5734 7e3f 2b8a 7f3f 57e6 803f
00000160: b6e4 803f 5734 7e3f 97f4 7e3f 58e6 803f
00000170: b6e4 803f 5734 7e3f 3a61 7e3f 57e6 803f
00000180: b7e4 803f 5734 7e3f c03b 7f3f 59e6 803f
00000190: b6e4 803f 5734 7e3f d469 7f3f 59e6 803f
000001a0: b7e4 803f 5734 7e3f 2a5b 7e3f 57e6 803f
000001b0: b6e4 803f 5734 7e3f ef63 7f3f 55e6 803f
000001c0: b7e4 803f 5734 7e3f 0cba 7e3f 58e6 803f
000001d0: b6e4 803f 5734 7e3f a56a 7e3f 59e6 803f
000001e0: b9e4 803f 5734 7e3f 8681 7f3f 58e6 803f
000001f0: b6e4 803f 5734 7e3f 9e64 7e3f 55e6 803f
00000200: b6e4 803f 5734 7e3f f992 7f3f 56e6 803f
00000210: b7e4 803f 5734 7e3f dd53 7e3f 57e6 803f
00000220: b7e4 803f 5734 7e3f 5d67 7e3f 56e6 803f
00000230: b6e4 803f 5734 7e3f dfc2 7e3f 56e6 803f
00000240: b7e4 803f 5734 7e3f 2aef 7e3f 58e6 803f
00000250: b6e4 803f 5734 7e3f f083 7f3f 59e6 803f
00000260: b6e4 803f 5734 7e3f a8a1 7f3f 56e6 803f
00000270: b6e4 803f 5734 7e3f 2305 7f3f 55e6 803f
00000280: b7e4 803f 5734 7e3f 9110 7f3f 56e6 803f
00000290: b9e4 803f 5734 7e3f a96d 7e3f 54e6 803f
000002a0: b7e4 803f 5734 7e3f 5dac 7e3f 54e6 803f
000002b0: b9e4 803f 5734 7e3f fd68 803f 52e6 803f
000002c0: b7e4 803f 5734 7e3f c3d6 7e3f 41e6 803f
000002d0: bae4 803f 5834 7e3f a9ef 7f3f 6ce6 803f
000002e0: b7e4 803f 6134 7e3f bed3 7e3f 72e6 803f
000002f0: c0e4 803f 5be5 803f c739 7e3f 4735 7e3f

thermal_norm.bias f4 [192]
0.006995999 -0.006829913 0.0069956263 0.0070307287 -0.006980621 -0.0070139696 -0.0023757215 0.007033333
-0.0069796187 -0.007013755 0.006699689 0.0070322556 -0.0069797533 -0.0070138182 0.0011662103 0.0070298337
-0.006979927 -0.007013853 0.0044047907 0.007029374 -0.0069800154 -0.007013879 0.0036268237 0.007029211
-0.0069799824 -0.00701386 0.0065831924 0.0070296116 -0.006979985 -0.007013831 0.005193237 0.0070295515
-0.006979763 -0.0070138643 0.0010132665 0.007029281 -0.0069798874 -0.0070138206 0.0034550126 0.007029565
-0.0069797505 -0.007013807 0.0045699296 0.007029313 -0.006979939 -0.0070138676 0.0046005 0.0070293653
-0.00698011 -0.0070138257 0.0023665417 0.007029348 -0.006980043 -0.0070138676 0.005182774 0.0070293797
-0.0069800713 -0.007013843 0.0031489576 0.0070295 -0.006979782 -0.007013878 0.0061614052 0.0070294254
-0.0069797942 -0.007013848 0.0063512144 0.00702946 -0.00697988 -0.007013814 0.002201945 0.0070295036
-0.006979858 -0.0070138318 0.004773118 0.0070293806 -0.0069800103 -0.007013819 0.0042031873 0.007029446
-0.006979637 -0.007013837 0.0004580637 0.0070295483 -0.006979936 -0.0070138145 0.0017980618 0.007029512
-0.006979719 -0.00701382 0.004080434 0.007029607 -0.006979795 -0.0070138224 0.006328993 0.007029501
-0.0069798674 -0.007013835 0.0029945197 0.0070296917 -0.0069798757 -0.0070138243 0.002291589 0.0070298426
-0.006979846 -0.007013815 0.0064214165 0.0070295585 -0.0069797803 -0.007013822 0.002381354 0.0070294193
-0.0069798813 -0.0070138457 0.0049736868 0.0070296666 -0.006979721 -0.0070138276 0.0061852806 0.0070297173
-0.006980038 -0.0070138103 0.0019298623 0.00702965 -0.006979668 -0.0070138196 0.0062772036 0.007029335
-0.006979799 -0.0070138304 0.0016636003 0.007029427 -0.0069798976 -0.007013841 0.0065329014 0.0070295385
-0.006979858 -0.007013826 0.0062353727 0.0070295054 -0.006979769 -0.007013816 0.0048390673 0.00702939
-0.006979862 -0.0070138155 0.004163134 0.0070295483 -0.0069796517 -0.0070138415 0.0018930264 0.0070298156
-0.006979803 -0.007013818 0.0014395199 0.007029472 -0.0069797705 -0.007013813 0.0038278706 0.00702934
-0.006979868 -0.0070138643 0.003653434 0.007029382 -0.0069801747 -0.007013852 0.006139256 0.007029355
-0.0069799414 -0.0070138713 0.005182413 0.007029295 -0.0069800913 -0.007013846 -0.003203998 0.007029072
-0.006979783 -0.0070138383 0.0045355298 0.0070268987 -0.0069801817 -0.007013746 0.00024929753 0.0070320806
-0.006979757 -0.007013237 0.0045814835 0.0070327874 -0.0069809062 0.006999178 0.0069309305 0.007000076
00000000: b13e e53b 76cd dfbb 913b e53b 0762 e63b
00000010: b1bd e4bb 71d5 e5bb feb1 1bbb e077 e63b
00000020: 49b5 e4bb a4d3 e5bb 1189 db3b d66e e63b
00000030: 6ab6 e4bb 2cd4 e5bb 86db 983a 855a e63b
00000040: dfb7 e4bb 77d4 e5bb 1056 903b aa56 e63b
00000050: 9db8 e4bb aed4 e5bb 01b0 6d3b 4c55 e63b
00000060: 56b8 e4bb 86d4 e5bb d2b7 d73b a858 e63b
00000070: 5cb8 e4bb 47d4 e5bb 082c aa3b 2758 e63b
00000080: 7fb6 e4bb 8fd4 e5bb 95cf 843a e255 e63b
00000090: 8ab7 e4bb 31d4 e5bb 7e6d 623b 4458 e63b
000000a0: 64b6 e4bb 14d4 e5bb 59bf 953b 2756 e63b
000000b0: f9b7 e4bb 96d4 e5bb cbbf 963b 9756 e63b
000000c0: 68b9 e4bb 3cd4 e5bb fb17 1b3b 7256 e63b
000000d0: d8b8 e4bb 96d4 e5bb 42d4 a93b b656 e63b
000000e0: 15b9 e4bb 61d4 e5bb be5e 4e3b b857 e63b
000000f0: a8b6 e4bb acd4 e5bb 9de5 c93b 1857 e63b
00000100: c2b6 e4bb 6cd4 e5bb d91d d03b 6257 e63b
00000110: 7ab7 e4bb 23d4 e5bb 824e 103b c057 e63b
00000120: 4bb7 e4bb 49d4 e5bb d167 9c3b b856 e63b
00000130: 92b8 e4bb 2ed4 e5bb e4ba 893b 4457 e63b
00000140: 70b5 e4bb 54d4 e5bb 4528 f039 2058 e63b
00000150: f2b7 e4bb 24d4 e5bb f1ac eb3a d257 e63b
00000160: 20b6 e4bb 30d4 e5bb 29b5 853b 9e58 e63b
00000170: c4b6 e4bb 35d4 e5bb 7163 cf3b ba57 e63b
00000180: 5fb7 e4bb 50d4 e5bb b43f 443b 5459 e63b
00000190: 71b7 e4bb 39d4 e5bb 7c2e 163b 985a e63b
000001a0: 31b7 e4bb 25d4 e5bb bf6a d23b 3658 e63b
000001b0: a4b6 e4bb 34d4 e5bb 7e10 1c3b 0b57 e63b
000001c0: 7db7 e4bb 67d4 e5bb 4ffa a23b 1e59 e63b
000001d0: 25b6 e4bb 40d4 e5bb e5ad ca3b 8b59 e63b
000001e0: cdb8 e4bb 1bd4 e5bb 6ff3 fc3a fa58 e63b
000001f0: b3b5 e4bb 2fd4 e5bb 00b1 cd3b 5656 e63b
00000200: ccb6 e4bb 46d4 e5bb 2a0d da3a 1c57 e63b
00000210: a0b7 e4bb 5dd4 e5bb f311 d63b 0b58 e63b
00000220: 4bb7 e4bb 3dd4 e5bb 1952 cc3b c457 e63b
00000230: 8cb6 e4bb 27d4 e5bb 0a91 9e3b cc56 e63b
00000240: 54b7 e4bb 26d4 e5bb e66a 883b 2058 e63b
00000250: 90b5 e4bb 5ed4 e5bb 6d1f f83a 5e5a e63b
00000260: d5b6 e4bb 2bd4 e5bb 46ae bc3a 7c57 e63b
00000270: 8fb6 e4bb 21d4 e5bb 03dd 7a3b 6156 e63b
00000280: 60b7 e4bb 8fd4 e5bb 746e 6f3b bb56 e63b
00000290: f3b9 e4bb 74d4 e5bb d02b c93b 8156 e63b
000002a0: feb7 e4bb 9ed4 e5bb 3bd1 a93b 0056 e63b
000002b0: 40b9 e4bb 68d4 e5bb 2bfa 51bb 2154 e63b
000002c0: aab6 e4bb 57d4 e5bb c89e 943b e641 e63b
000002d0: 02ba e4bb 91d3 e5bb 26b4 8239 5e6d e63b
000002e0: 72b6 e4bb 4ccf e5bb 4520 963b 4c73 e63b
000002f0: 16c0 e4bb 5c59 e53b dc1c e33b e560 e53b

fusion_layer.0.weight f4 [1, 2, 1]
0.61551 -0.2629345
00000000: 1092 1d3f 5a9f 86be
