mlartifacts/663904345599080160/3e0463d26fef4e71b9784516a8b67a2e/artifacts/best_model_RTrPPG_fold_2.pth (torch, 871746 bytes, 37 tensors)

Conv1.0.weight f4 [16, 3, 1, 5, 5]
00000000: c97a a3bc f1af babd 8ee0 02bd 061f e6bd
00000010: e2d6 cfbd 947f bd3d 0ac5 a43d e444 ac3d
00000020: 4d48 393c ea05 633c 04a2 4ebd b89e 563b
00000030: 0f24 d4bd 44ac dfbd 9d23 b0bb 63d5 cf3c
00000040: bf1c ddbc 6079 bbbc 6b24 4fbc b522 acbd
00000050: c41f 64bd 3767 3ebd 700b aa3d 2ed1 7c3d
00000060: dcdb 8cbb 19ee b6bd 7e62 3ebd b5de 8abd
00000070: 16a1 e8bc ddce e13d 0145 94bd 8d52 ef3c
00000080: 4d76 92bd c0c2 9ebd 525b 263d a210 b9bd
00000090: 3e54 c53c 6975 9fbd d7ce 803d f866 e8bd
000000a0: 1512 ddbd 7497 2cbd f5ba 59bd 7e62 1dbc
000000b0: ab6f 9d3d 8d35 ef3d e7f0 c93d f547 67bb
000000c0: 5c8a 883d c244 213c 96d2 643d 3db6 a03d
000000d0: e709 1c3d f845 a5bd f0c5 85bd 7a10 bebd
000000e0: fa3e 9fbd b3c6 6fbd 434c e33d e6af 8a3d
000000f0: ba8e 413d 1e6a 66bd 91ef 04bd c3f3 9a3d
00000100: 5f7c 68bc d30f 363d b4bd 863d d119 913d
00000110: b74a 4fbb d949 f03c 7edf d9bd 16a5 cf3d
00000120: ce0d d1bd b348 94bd 1a11 dcbd 5e4f c3bd
00000130: bf6a ee3d 05b0 bbbd e7d9 aa3d 8f21 2c3d
00000140: adf8 efbc 5804 cd3b a68d e0bd c5bb 1f3d
00000150: 4ccd a73d e988 fe3c e1e9 aa3c 4e68 11bd
00000160: dd17 aabd 97ef 733d b02a c43d 36d6 c6bc
00000170: 2609 d4bd ff78 d23d 34e1 cabc 01d1 c93d
00000180: f715 c8bd 6ae3 ca3d 06dd 13bd 36be 0cbd
00000190: 80fe f7bc 1dec a83d 512d bbbd a431 2dbd
000001a0: 5953 afbd eb6c a1bd ef79 9d3d bba7 ffbb
000001b0: 0f39 043d 92b7 543d b3fb 00bd 3c2e d8bd
000001c0: e705 9a3c 1e48 973c a8a1 69bd dbab 333c
000001d0: 2478 0cbd 1ab4 c3bd 92d7 633d e50b 9d3d
000001e0: 929a e63b e5c5 dbbc 47dc c0bd eb43 ab3c
000001f0: aecb 53bd 1775 5bbc 34c5 f23c 9719 aebd
00000200: e1d8 8b3d 53e1 813d 5a2b d43c 87c0 423d
00000210: e92f 533c b7bf a63c 69d9 a83b 2737 e63d
00000220: 312a 13bc 7da6 98bc 2f35 9abd 7623 cbbd
00000230: fe1f d3bd 8ad8 6fbd 104b 153d 0e00 c6bd
00000240: 2cb3 b73d 4f3b 8dbd a8f0 8dbd 6585 bcbd
00000250: 60c5 993c 991d bcbd c32b d03d e33d 983d
00000260: cfa6 623d 0c6b 813c 2671 7e3d 62d4 b53d
00000270: e761 2e3d a965 94bd a964 693d b636 233c
00000280: 2391 c5bd 3eb5 0a3d a86e bb3d 6fec 8ebd
00000290: cec7 e23c 1282 a4bd 3a24 b03c 3d69 973d
000002a0: 4c3c 9abd e5a1 993d 4993 14bd 2377 c33d
000002b0: 0811 ccbc aef9 6a3d a365 fb3c e6ee e3bd
000002c0: 03d1 573b 3a16 eabb 56b4 4d3d fad8 b93c
000002d0: 6e1f 51bd b671 c5bd 22a8 b8bd 1efb bb3b
000002e0: 0715 243c 0c03 4e3c c076 ac3d afa0 e8bd
000002f0: d426 b63c 8529 9ebd 04d1 18bd 06c3 373d
00000300: ae7e c53d 0a8e 203d d65e a33d 91eb 64ba
00000310: 66bb 0d3d eedf a13d 1f8b a03d a736 34bd
00000320: db0f 123d 48b8 bb3d 2f41 243c a52a a93c
00000330: 8b90 003d 3346 b53d b9b2 db3d 4a84 41bc
00000340: 0c82 ca3d 3412 b03d f462 2abc daf2 8d3d
00000350: 1b48 b13c 5133 eabd 7b8b 67bd 383d e7bd
00000360: 0d55 903b 8691 6fbd 7933 90bd 4fcb 403d
00000370: 7d7f 91bd 2053 da3d 5613 443d 1600 3bbd
00000380: cc8d a03c 1286 80bd ab64 55bc b940 703d
00000390: bd88 deba a9d3 db3c 2f70 943d 7c94 173d
000003a0: 9aa7 afbb 61d9 2dbd cba8 1d3d 6cdf e4bd
000003b0: 26f9 97bd bdf2 b43d 703a 86bd f4e8 c03d
000003c0: 77ab bd3d 57ec a93d cb08 583d e39f c2bd
000003d0: fb9b cb3d 9926 323d 5f9d cc3c f57e 55bd
000003e0: 2daa d5bd e8f6 c1bd bd71 1ebd 7825 d33c
000003f0: bc90 b33c c62b db3d 9f7a ebbd 6a0b d13d
-0.01995601 -0.091155894 -0.031952433 -0.11236386 -0.101484075 0.09252849 0.08045395 0.08411577
0.011308742 0.0138563905 -0.05044748 0.0032748412 -0.1035844 -0.10921529 -0.005375339 0.025370305
-0.026991246 -0.022885025 -0.01264296 -0.08405057 -0.055694357 -0.046485152 0.08302963 0.061722927
-0.00429867 -0.08932132 -0.04648065 -0.06780759 -0.028397124 0.11025784 -0.07239724 0.029214168
-0.0715147 -0.07751989 0.040614434 -0.090363756 0.024088021 -0.07786066 0.062894516 -0.11347765
-0.107944645 -0.042136624 -0.05315681 -0.009606002 0.076873146 0.11680136 0.098604016 -0.0035290692
0.06667015 0.009843053 0.055864893 0.07847259 0.03809538 -0.08069986 -0.06531894 -0.092804864
-0.07775684 -0.058539104 0.1109853 0.06771831 0.047255255 -0.056253545 -0.03245503 0.07566025
-0.014189809 0.044448685 0.06579152 0.07085002 -0.0031630227 0.029332088 -0.10638331 0.101389095
-0.10207711 -0.07240429 -0.10745449 -0.095366225 0.11641454 -0.091644324 0.08342343 0.04202419
-0.029293383 0.0062566213 -0.10964517 0.03899743 0.08193454 0.031071143 0.020863475 -0.035499863
-0.08305333 0.059554663 0.095784545 -0.024272066 -0.103533074 0.102769844 -0.024765588 0.098543175
-0.097698145 0.09906657 -0.036099456 -0.034361087 -0.030272722 0.0824816 -0.09139503 -0.04228367
-0.08560819 -0.078821026 0.076892726 -0.0078019775 0.032280978 0.05193288 -0.03149004 -0.105556935
0.018801643 0.018467005 -0.057038933 0.0109662665 -0.034294263 -0.09555836 0.055625506 0.07668284
0.007037469 -0.026827762 -0.094170146 0.02090641 -0.051707916 -0.013394616 0.02963505 -0.085009746
0.06828476 0.06341805 0.025899578 0.04754689 0.012889841 0.020355089 0.0051528704 0.11240988
-0.008982227 -0.018634075 -0.07529675 -0.09918873 -0.103088364 -0.058556117 0.03644854 -0.09667979
0.08969721 -0.06896078 -0.06930667 -0.092051305 0.018770874 -0.09185333 0.10164597 0.07433679
0.055334862 0.015798114 0.062119626 0.088783994 0.042573836 -0.07245953 0.056980763 0.009961775
-0.09646823 0.033864252 0.091519654 -0.0697869 0.027683165 -0.080326214 0.02150165 0.073931195
-0.07531032 0.07501582 -0.036273275 0.09544208 -0.024910465 0.05736702 0.030688113 -0.11129551
0.0032930977 -0.007143763 0.05022081 0.02268647 -0.051055364 -0.09640829 -0.09016444 0.0057367226
0.010014779 0.012573969 0.08421087 -0.11358773 0.022235312 -0.07722763 -0.037308708 0.044863723
0.09643303 0.03919796 0.07977073 -0.0008732612 0.034602545 0.07904039 0.07839035 -0.043997433
0.035659652 0.09166008 0.010025307 0.020650217 0.031387847 0.0885128 0.10727448 -0.011811325
0.09888086 0.08597222 -0.010399569 0.06931086 0.021640828 -0.11435569 -0.056529503 -0.112909734
0.00440467 -0.05848839 -0.07041068 0.04706889 -0.071043946 0.10660386 0.047870003 -0.04565438
0.019598864 -0.06275572 -0.013024489 0.058655474 -0.0016978007 0.026834326 0.0724796 0.03700684
-0.005360556 -0.042443637 0.03849105 -0.11175427 -0.07420568 0.08835361 -0.06554115 0.09419432
0.0926122 0.082970314 0.05274276 -0.09503152 0.0994186 0.04349384 0.024977384 -0.05212303
-0.10432849 -0.09470922 -0.038682688 0.025774702 0.0219196 0.107017085 -0.114979975 0.10207255

Conv1.0.bias f4 [16]
00000000: 1a4a b63d b2cc 02bd e3f5 1bbc 3ff7 833c
00000010: d253 e03d 30be be3d 90a6 c9bd 6f5f 99bc
00000020: 7b3e a73d b2ae b0bd ad06 b3bd 0d13 033b
00000030: 899c ccbd 9120 57bd a9f3 53bd 8333 353d
0.089008525 -0.031933494 -0.009519073 0.016109107 0.109534875 0.09313619 -0.098462224 -0.018722264
0.08166214 -0.086270705 -0.08741508 0.0020000369 -0.09990794 -0.052521292 -0.051746044 0.04423858

Conv1.1.weight f4 [16]
00000000: 583e 803f 4aa9 7f3f 1ef7 7f3f f40f 803f
00000010: b42f 803f f1da 7f3f 0459 803f 1efb 7f3f
00000020: 6022 803f 6574 7f3f 6a29 803f ff4a 803f
00000030: 61ad 7f3f 2ed9 7f3f dcaf 7f3f c9b4 7f3f
1.0019026 0.9986769 0.99986446 1.0004869 1.0014558 0.99943453 1.0027165 0.9999255
1.001049 0.9978698 1.0012639 1.0022887 0.9987393 0.99940765 0.99877715 0.9988523

Conv1.1.bias f4 [16]
00000000: 5ac1 20ba 41f3 b2ba 7971 22ba 6f9b aa3a
00000010: 7417 72ba 4759 1aba 023d 233b ac54 313b
00000020: 247f 7f3a 07f6 16bb bf1e c13a 8845 6a3a
00000030: 5c17 3aba 0df2 99ba 074b 63ba d3d7 a1ba
-0.0006132327 -0.0013652818 -0.00061967183 0.0013016294 -0.0009235062 -0.0005887937 0.002490819 0.0027058525
0.00097464235 -0.0023034827 0.0014733894 0.00089367526 -0.0007098818 -0.001174511 -0.0008670543 -0.0012347646

Conv1.1.running_mean f4 [16]
00000000: d44f 24be 26f9 36be 8b99 673e 6210 b5bd
00000010: bba1 03be 935d 043e e1fd 1dbe 8e67 ccbe
00000020: 55ab 2d3e 5a9b a4bd 3a09 10be 9e47 f93d
00000030: 7f9a 14be a2dc c53b 14d8 333d 5b80 233e
-0.16046077 -0.1786848 0.22617166 -0.088410154 -0.12854664 0.1292632 -0.15428878 -0.39922756
0.16959889 -0.080374435 -0.1406602 0.12171863 -0.1451206 0.0060382644 0.04390724 0.15966932

Conv1.1.running_var f4 [16]
00000000: 4835 fd3e 4a8e fc3e 4d2a fd3e 1d51 fd3e
00000010: 259c fd3e d0e7 fd3e 3614 fe3e 2714 ff3e
00000020: be52 fc3e 756f fb3e 5723 fc3e 80b5 fc3e
00000030: 7109 fd3e fd36 fd3e 50b8 fb3e 92c8 fc3e
0.49454713 0.49327308 0.49446335 0.49475947 0.4953319 0.4959092 0.49624795 0.49820063
0.49281877 0.49108472 0.49245712 0.49357224 0.49421266 0.49456015 0.49164057 0.49371773

Conv2.0.weight f4 [32, 16, 1, 5, 5]
00000000: 0fd9 45bd 0c92 1e3d 5ffd 303c 4bf8 bbbc
00000010: aec1 f2bc fdb1 99ba 4806 b7ba 049a ceba
00000020: f925 ba3b 91e9 17bd 62ab b13c 50be 40bc
00000030: 8c02 0c3a 9bb3 b53c 4b04 c93c f45f 0bbc
00000040: a7b1 1d3d 19a9 9f3c 36d7 17bc 9a22 1dbd
00000050: 8dc9 ed3c 3afb a9bc ac05 93bb 09bd 12bd
00000060: 2f6a ff3c 8f24 38bd fa0d a53b ad03 233c
00000070: 70b5 043d 93d0 023d 8328 60ba 9528 0dbc
00000080: f5ac 2d3d 21d8 353d 4d00 b6bc b5f4 2b3d
00000090: 1f7f ce3a 71ba 383d b6d3 ac3c b936 113d
000000a0: fdae 47bd 32d6 d7bc 1900 903b 9f58 06bd
000000b0: f8d6 313d cda7 24bc 2dc8 103d 2cee 623c
000000c0: ccf5 bb3c 51c1 683c ec0f be3c 7853 1b3c
000000d0: db72 0a3d 0e08 5dbc 0a03 0ebd d7d4 493d
000000e0: 9a84 41bd 67d4 c939 a19f 41bd 6cff 1d3d
000000f0: 4e1d fd3b 6086 223d f9a2 1cbd 7732 34bc
00000100: d576 783c f508 27bd 3089 353c e33e 2ebd
00000110: 6502 1e3d 0415 2cbc ce7b 373c 4a9d 02bd
00000120: b43e 45bc 3589 b73c 13c9 caba f908 14bd
00000130: 6391 75bc 8caa 2abd 9b26 1ebc bd2e a5bc
00000140: f88d 1abd 06b1 e1ba 151b 1dbd edd7 46bd
00000150: 0b55 10bd 11bc 38bc 0506 f53a 7aff 073d
00000160: 659b 25bd fa33 ef3b d344 fb3c 46de de3c
00000170: 2593 b03c e999 403b f01f a43c daf4 683c
00000180: bc87 14bd 8f7e 8dbc 167c 993c 4e12 90bc
00000190: c086 eb3c b3a1 35bd f791 07bd 8f09 acba
000001a0: 84b2 0b3d 9f97 183c d38e 1abc a140 ddbc
000001b0: d683 253d fb0a 373d 5baf 243d 7ee2 14bd
000001c0: 74fb 0ab9 8636 03bd 45b4 42bd 8b9e 36bd
000001d0: 98d1 453d ab8b 29bd ec21 83bc c895 d1bc
000001e0: 0b1e 7c3c 80fd 23bd d796 6dbc 9f86 843c
000001f0: ef43 173d 77f6 043d a506 bf3c f6a3 9d3b
00000200: 8bf7 6c3c bde7 963c a8a7 04bb ce89 e3bc
00000210: 3ba3 873c 0328 02bd 389f 6abc a9e6 d1bb
00000220: e0e6 933c 5dc2 a5bc 9e89 453d d582 46bd
00000230: 90c1 dbbc 8128 fabc b7e9 e1bc 14c9 3bbd
00000240: a1d6 7cbc 3df6 98bc adbe abbc dcfe 19ba
00000250: 5cb3 f93c 1fb0 ee3c 9ccf dfbb 6c7b 07bb
00000260: b213 11bd 1b25 1e3d 5d30 f6bc 063b 363d
00000270: 8a02 9b3c 368d 37bd 9421 0fbd d0c6 8bbc
00000280: 21e3 973c e2ae 3fbd 6c41 fe3c cb15 a73c
00000290: de18 ecbc ff02 0dbc 6abe 2e3d 69e2 503c
000002a0: 5371 9c3c c1e0 d2bb 7235 18bc fa3b 703c
000002b0: c66f b13b 1def 8dbc b6b5 bfbc ccbf 11bd
000002c0: 72de 113d e414 303d d652 433d 6070 253d
000002d0: 0bf1 64bc c001 7f39 62e8 07bd 68fb 4c3d
000002e0: 4b5d 46bd ad9a 3b3c 9554 953b d22b 17bd
000002f0: 3773 883a 7acf 6ebb 9043 d2bc 6316 253d
00000300: 8a2c b1bb 16c3 223d 50f8 a9bc f414 5e3c
00000310: b312 b53b 217b 29bd 65c0 4bbb 9c35 0f3d
00000320: f232 553c b1ae c0ba 954f efba fbbf ddba
00000330: 1d38 b53c b64c 1cbc 7283 b6bc c681 d2bc
00000340: 4893 54bc ee8b 43bd 44b8 43bd 147e 113d
00000350: fd93 8e3c 0b03 233d f859 f7bb c746 463d
00000360: 4868 3d3d 7d3a 22bd 2fbe aabc 2f7f 2c3d
00000370: 2168 823c 6f1e 113d 121f d63c 206d aa3c
00000380: 83ec 613c 86e5 e23c eb2e 573c eb01 08bd
00000390: 760e 193b dae0 8f3c d678 aa3c 22cf 0c3d
000003a0: 353b 323c 07f5 3d3d db72 88bc cca5 42bc
000003b0: 4702 263d 894c ee3c 469c 1e3d 63cb 9e3c
000003c0: e7a4 2a3d f2e5 0f3d dfa0 f63b 0f07 c63a
000003d0: 2f1f 363d 8822 e1bc 431a 3cbc 80b2 2b3b
000003e0: 6f88 01bb b44a 0abd 2fb5 683b 36f8 983a
000003f0: aa9a 15bb c493 643c 1bf6 c33c 13d4 3abd
-0.048302706 0.0387135 0.010802596 -0.022945544 -0.02963337 -0.0011726018 -0.0013963664 -0.0015762453
0.005680796 -0.03708798 0.021688167 -0.011764124 0.00053409557 0.02218037 0.02453818 -0.008506764
0.0384995 0.019489812 -0.009267619 -0.038363077 0.029026771 -0.020749677 -0.00448676 -0.03582481
0.031178562 -0.04495674 0.0050370665 0.009949607 0.032399595 0.031937193 -0.00085509586 -0.008615633
0.042401273 0.04439557 -0.02221694 0.041981418 0.0015754438 0.04509968 0.021097045 0.03545258
-0.048750866 -0.026347253 0.004394543 -0.03279936 0.0434179 -0.010049772 0.035347153 0.01385073
0.022944354 0.0142062465 0.023200952 0.00948035 0.03380094 -0.01349069 -0.034670867 0.049275246
-0.0472456 0.0003849596 -0.047271375 0.038573667 0.0077244407 0.03967893 -0.03824136 -0.01099836
0.0151650505 -0.040780026 0.011080071 -0.042540442 0.038576502 -0.010503057 0.011198951 -0.031888284
-0.012038875 0.022404293 -0.0015471302 -0.03614137 -0.014988276 -0.041666552 -0.009652759 -0.020163888
-0.03773305 -0.0017218895 -0.038355906 -0.048545767 -0.035237353 -0.011275307 0.001869381 0.033202626
-0.0404314 0.0072998973 0.030672466 0.027205598 0.021554539 0.0029388613 0.02003476 0.014218533
-0.03626226 -0.017272262 0.018735927 -0.017586853 0.028750777 -0.04434366 -0.033098187 -0.0013125407
0.034105793 0.009313493 -0.009433466 -0.027008357 0.04040893 0.044688206 0.040206295 -0.036348812
-0.00013254379 -0.03203442 -0.0475352 -0.044584792 0.048295587 -0.041392963 -0.016007386 -0.025584117
0.015388022 -0.04003668 -0.014501295 0.016177474 0.03693002 0.03246161 0.023318598 0.0048108054
0.014463316 0.018421048 -0.0020241532 -0.027775671 0.016557327 -0.03177644 -0.014320187 -0.0064056707
0.018054426 -0.020234281 0.048226945 -0.048464615 -0.026825696 -0.030536892 -0.027577264 -0.04584606
-0.015432031 -0.018672103 -0.020964945 -0.0005874464 0.030481033 0.029136715 -0.006830169 -0.002067293
-0.035419174 0.038609605 -0.030052358 0.044489883 0.01892211 -0.044812404 -0.034944132 -0.017062575
0.01854092 -0.04679764 0.031037055 0.020396134 -0.028820451 -0.008606671 0.04266206 0.012749293
0.019097006 -0.006435484 -0.009290086 0.014662737 0.0054149358 -0.017325932 -0.023402076 -0.035583302
0.03561253 0.042988673 0.04768642 0.040390372 -0.013973485 0.00024319347 -0.033180602 0.050044447
-0.048428815 0.011450452 0.004557202 -0.036907025 0.0010410313 -0.0036439584 -0.025666982 0.040304553
-0.005406921 0.03973683 -0.020748287 0.0135548 0.0055259108 -0.04137719 -0.0031090018 0.034963235
0.013012635 -0.00147005 -0.001825797 -0.0016918177 0.022121483 -0.009539774 -0.022279475 -0.025696646
-0.012974568 -0.04774087 -0.04778315 0.035520628 0.01740455 0.039797824 -0.007548567 0.048407342
0.04624203 -0.03960656 -0.02084264 0.04211348 0.015918793 0.035429414 0.026137862 0.020803988
0.013789299 0.027697336 0.013133745 -0.033204954 0.0023354567 0.017563272 0.020809572 0.034377225
0.010878374 0.046376254 -0.01665633 -0.011880349 0.040529516 0.02908923 0.038723253 0.019384092
0.04166117 0.035131402 0.0075265015 0.0015108305 0.044463333 -0.027482286 -0.011480871 0.0026198924
-0.0019765159 -0.03376265 0.0035508384 0.0011670652 -0.0022827783 0.013951246 0.023921063 -0.045612406

Conv2.0.bias f4 [32]
00000000: eecc 0f3d 5f54 68ba 6f97 da3c 7803 e5bc
00000010: 63e3 45bd 2487 8bbc e26c 15bd 1c08 303d
00000020: ce5f 30bd 716b 233d b89c c7bc a223 123d
00000030: ed99 73bc 36e1 80bc 2fc9 263d c11e 453d
00000040: 2fb9 c13c 825f efbc a187 11bc 2fcd b6bc
00000050: 21cd 27bc d15f 36bc c174 86bc 36c8 42bd
00000060: d6e7 b33c d125 40bb 340c 223c 2db3 183d
00000070: 5c86 2b3d e91a c23c f984 ce3c f27c 5fbc
0.035107546 -0.000886267 0.026683537 -0.027955756 -0.048312556 -0.017032214 -0.036480792 0.042976484
-0.043060116 0.039897386 -0.024366722 0.035678513 -0.014868242 -0.015732389 0.040719207 0.048125032
0.023647873 -0.029220346 -0.008882434 -0.022314636 -0.010241778 -0.011131243 -0.016413094 -0.047554217
0.021961134 -0.0029319415 0.009890605 0.03728025 0.041876182 0.023694472 0.02520989 -0.013640629

Conv2.1.weight f4 [32]
00000000: c1aa 7f3f d31b 803f a119 803f ed50 803f
00000010: 8a59 7f3f b3e9 7f3f 1ef5 7f3f 164e 803f
00000020: 420f 803f 8173 7f3f 5144 803f 9fff 7f3f
00000030: 2e80 7f3f 4c28 803f d89f 7f3f 30ff 7f3f
00000040: 4917 803f 716f 7f3f f224 803f 851e 803f
00000050: 143b 803f fa3c 803f 1397 7f3f 5305 803f
00000060: b68d 7f3f c4ff 7f3f 7805 803f 50a7 7f3f
00000070: 0397 7f3f 54ff 7f3f da56 7f3f f4d6 7f3f
0.99869925 1.0008491 1.0007821 1.0024697 0.99746 0.9996597 0.99983394 1.002383
1.0004656 0.9978562 1.0020849 0.9999942 0.9980496 1.0012298 0.9985328 0.9999876
1.0007106 0.9977942 1.0011275 1.0009314 1.0018029 1.0018609 0.99839896 1.0001625
0.9982561 0.9999964 1.0001669 0.99864674 0.998398 0.99998975 0.997419 0.9993737

Conv2.1.bias f4 [32]
00000000: 34b5 ffba cfe1 2a3a 4c7f 58ba 242c 8c3a
00000010: 1323 33bb 47d9 82b8 1ee8 94ba 01d2 5c3a
00000020: 757c 4739 8664 61ba 7f84 a43a 8c13 22ba
00000030: a2d0 28bb 8b92 dc38 6393 12bb d4b4 38ba
00000040: 797b 033b 3318 a6ba 8cb7 173a 5cf3 183a
00000050: 3062 843a 9af3 c63a f66a 12bb d2ed f6b9
00000060: 55e8 91b9 bd75 2cba a09e 0fba 70a0 66ba
00000070: c8af e4ba 7ff1 4eb9 0050 abba 712b 4bba
-0.0019508959 0.00065186335 -0.0008258715 0.0010694307 -0.0027334138 -6.239354e-05 -0.001136068 0.0008423627
0.00019024483 -0.0008598048 0.0012551694 -0.0006182722 -0.002575912 0.00010517713 -0.0022365681 -0.00070459885
0.002006261 -0.0012672007 0.00057875435 0.0005834603 0.0010100063 0.00151788 -0.0022341586 -0.00047097966
-0.00027829656 -0.00065788237 -0.0005478654 -0.0008797711 -0.0017447406 -0.00019735655 -0.0013070107 -0.0007750309

Conv2.1.running_mean f4 [32]
00000000: 52da 013f e00a d0bd 75f7 b3be 63f1 263e
00000010: 365b b13d 9f04 83be cec8 c0be cc22 4cbf
00000020: 1cd7 873e e1cc 193e f265 acbe 12ae a93e
00000030: 7bab 09bf 254e fbbb 0ac1 bb3e 9fc7 403e
00000040: 99bb 14bd 61ae 2bbe 0038 2dbf 0349 99be
00000050: 4c3f 2f3e 2880 c0be 41d4 5ebd 12d6 093e
00000060: 70ca 98bd 82b4 f8bc c0a5 58be c93d 8fbe
00000070: 5913 35bd 9237 9abe 982d f83e 1811 b83c
0.50723755 -0.10158324 -0.35149732 0.16303019 0.08659975 -0.25589463 -0.37653202 -0.79740596
0.26531303 0.15019561 -0.33671528 0.33140618 -0.53777283 -0.0076692277 0.36670715 0.1882615
-0.03631172 -0.16765739 -0.67663574 -0.29938516 0.1711399 -0.37597775 -0.05440164 0.13460568
-0.07460487 -0.03035951 -0.21156979 -0.27976826 -0.044207904 -0.30120522 0.48472285 0.022469088

Conv2.1.running_var f4 [32]
00000000: 211f 0e3f d04e 123f ba81 0c3f d789 0d3f
00000010: 3a03 0c3f 2de8 0f3f b941 0e3f 03e8 1b3f
00000020: 7e94 113f adad 0f3f ebbe 143f 7baf 0b3f
00000030: f47e 173f 8cac 0c3f 0700 0b3f 63ac 0e3f
00000040: 3f8f 0d3f 5617 0f3f 912e 193f 43f4 0c3f
00000050: 6680 113f be8a 143f 083a 113f 1e5a 123f
00000060: 9d39 0e3f 4c39 0e3f cfcf 0e3f 53e8 113f
00000070: e47c 103f 5a14 0c3f ee75 0f3f d085 103f
0.5551625 0.5715151 0.5488545 0.5528845 0.54692423 0.5621365 0.55569035 0.60900897
0.56867206 0.56124383 0.5810382 0.54564637 0.5917809 0.54950786 0.54296917 0.5573179
0.552967 0.5589498 0.5983668 0.55060214 0.56836545 0.58024204 0.56729174 0.5716876
0.5555666 0.5555618 0.5578584 0.56995124 0.5644057 0.54718554 0.5603932 0.5645418

Conv3.0.weight f4 [64, 32, 3, 3, 3]
00000000: c8ed fd3c 87f5 983c 9d07 7dbc a4bf 913c
00000010: 7ad1 bbbc bf94 f33b 7575 03bb 0339 a83c
00000020: 1062 ec3b eb18 883c 208b eabc 5b21 e23c
00000030: 63fe d33c dc89 053c 15d1 d63c 19fb a6bc
00000040: b045 b93c bcb5 8dbc 5120 9abc 169f 993c
00000050: 115f f43c 0d7e f1bb 7468 06bd 5a57 c93c
00000060: 857d 46bc 6fda ccba aded 893c d9c7 9bbb
00000070: 3196 443c 2de0 373a 8adb 3b3c 0ebb ab3c
00000080: 29a8 d43c 5dc8 febb 1c40 fa3b d5b4 9e3c
00000090: cc98 9c3b b377 893c 0b5a 05bd cad1 0abd
000000a0: f92d 47bc e9a1 5ebc 83f4 2e3c 8e17 153c
000000b0: b0f8 b73c b9fb bc3c 39e7 803c 6709 b33c
000000c0: 3c28 013c 3ba5 47bb d0c6 f03c 82ec 5cbb
000000d0: 534c 963c 6922 d03c 1d74 86bc ad43 0ebd
000000e0: 963e e73c 1106 5dbc 2cb4 ffbc c3fa ef3a
000000f0: d664 2dbc 061b 8b3c 7e60 5dbc dc80 f7bb
00000100: b962 793b 6923 843c bc93 1ab8 45e3 d8bc
00000110: 9d69 93bc ffc7 f5bc 49d3 fcbc 6d08 3eba
00000120: 527e cc39 1be0 cdbb 0d6f f6bc 6f89 0c3b
00000130: f3e6 043a 92ee 313c 9b64 e43c a791 ac3b
00000140: fe6e 153c 27ec 283c 2cdb 0bbd f5a3 9fbc
00000150: 3f49 d53c bb5c 7dba dff5 ce3c 4e44 e9bc
00000160: 6944 bb3c 3b43 1bbc 8cf4 113b a118 a9bc
00000170: 55e7 8e3c 1c81 5d3c 1ad7 343c eb8d 283c
00000180: 9236 093d 279f 8fbc b791 753c 6c36 813c
00000190: 0f43 bfbc 5508 62bc 4ce4 b6bc 516c b3bc
000001a0: a52e 9a3c 28de 443c edfd 1a3a 4914 0b3d
000001b0: 6e11 00bd 1015 f63c 6f83 2d3b 24ee a8bc
000001c0: abe2 ba3b 8f83 d0bc fccc babc abe0 b4bc
000001d0: 21b2 e5bc 6e1b a23c ebfd 6ebc 60bc 23bc
000001e0: f459 72bc be9b 843c b773 e0bc f776 f73b
000001f0: de00 cf3c c5da 28bb 95c0 163c 259e efba
00000200: 311d db3a be20 8abb cc34 063d 8151 02bb
00000210: e448 9bba ab80 b3bc a89d 653c ed75 3839
00000220: c035 3bbc c056 bd3c c8ed aa3c 5c9e 2d3c
00000230: 7fd6 daba d181 3ebb 7c54 143b 4062 fa3c
00000240: 7b5a a93c 046a a9bc ebb8 50bc 19cc c7bc
00000250: 6cf4 b0bc 5fce e63c 7032 2c3c b329 303b
00000260: 04d3 b13c ad96 cf3c b353 51bc 52a6 80bc
00000270: 05f9 b6ba 2bd0 e13c bf6a 983c 724b 0e3d
00000280: c069 9f3c 227d 2a3b 98b9 023d affd 053c
00000290: bb62 993c 8105 f2ba 90b7 70bc ef60 e1bc
000002a0: 458e bfbc f7af 323c ea86 0f3c 4735 b43c
000002b0: 53b6 d0b8 fe4d 84bc 12b8 c83c ad4c 593c
000002c0: 9c22 90bc 82b9 683c 1f7c f6bc 62af 8f3c
000002d0: 9c99 333c 9539 32bc 493f 04bd 40eb 8c3c
000002e0: f91e acbc de84 a63c efdd ab3c a951 2abc
000002f0: 6285 c7bb c988 ffbb d832 193c 53cc a5bc
00000300: c1d2 df3c 5ca1 8f3c 1b1f e33c ff94 093c
00000310: 467e bd3c 62bc c83c 8e64 99bb 6827 03bd
00000320: 3044 cebc 6861 ec3c dd9f 89bc 82c7 8a3c
00000330: 8e8e 8ebc 4458 7c3c 2dc2 d73b b9cb cf3b
00000340: d957 b0bb 77cd 86bc 0e8f 0f3c 6050 873c
00000350: 3f7b 85bc 4f51 cb3c 2b0b bfba 6c12 3bbc
00000360: b152 ab3c f5e0 b8bc 5854 fc3c 3ec0 b9bb
00000370: 8495 d43c 6bba 72bc 9bd3 813c 449b 343c
00000380: 2471 8a3c 51f5 7f3c 5cc2 9a3b 1b38 d1ba
00000390: 582c 4fbc f4e4 e3bc c4cf fd3c afc6 aabb
000003a0: 0c48 9b3c 6ef5 70bc 71a0 863b 3aa1 ae3c
000003b0: 2ffe 873c 9a9d 7abc e7dd 7d3b 751e 823c
000003c0: a750 0d3d 531b fcbc 4a91 013d 9733 093b
000003d0: 6717 3c3c a439 db3b 5118 95bc b21c a33c
000003e0: cddb d7bc 5dfb cb3c 726f 25bc fcfd 453c
000003f0: 3c99 ed3c d4dc 033c d52e e1bc dfb2 d13c
0.030997172 0.018671764 -0.01544371 0.017791577 -0.022927035 0.0074335034 -0.0020059024 0.020534998
0.0072138384 0.016613444 -0.028630793 0.027603796 0.025878137 0.008150544 0.026222745 -0.020383405
0.022616237 -0.017298572 -0.018814238 0.018752616 0.029830487 -0.0073697628 -0.032814458 0.024577785
-0.012114887 -0.0015629063 0.016836965 -0.0047540483 0.011998699 0.0007014301 0.011465916 0.020963218
0.025959091 -0.00777535 0.007637037 0.019373337 0.004778957 0.01678071 -0.032556575 -0.033891477
-0.012156957 -0.013588407 0.010678413 0.009099854 0.02245745 0.02306925 0.015735256 0.02185507
0.007883128 -0.0030463475 0.029391676 -0.0033710306 0.018346941 0.025407033 -0.016412789 -0.03473251
0.028228085 -0.013490216 -0.031213842 0.0018308986 -0.010583123 0.01698066 -0.013511775 -0.007553203
0.0038053228 0.016130166 -3.685405e-05 -0.026475558 -0.017994696 -0.030002592 -0.030862467 -0.00072491803
0.00039004028 -0.006282819 -0.03008225 0.0021444221 0.00050698145 0.010860102 0.027880004 0.0052663865
0.009120701 0.010310209 -0.034144565 -0.01948736 0.026035903 -0.0009665002 0.025263725 -0.028474953
0.022859769 -0.009476478 0.0022271005 -0.020641627 0.017444292 0.013519552 0.011037612 0.010287742
0.033499308 -0.017531944 0.014988354 0.01577302 -0.023347406 -0.013795932 -0.022325657 -0.021902235
0.01882107 0.012015857 0.00059124717 0.033954892 -0.031266622 0.03003934 0.0026476046 -0.020621367
0.0057032905 -0.025453357 -0.022802822 -0.022079786 -0.02803904 0.01978847 -0.014586906 -0.009993643
-0.014791954 0.016187545 -0.027398927 0.0075520235 0.025268968 -0.0025765162 0.009201189 -0.0018281384
0.0016717074 -0.004215329 0.032765195 -0.0019885006 -0.0011847285 -0.02191194 0.014014639 0.00017591538
-0.011426389 0.023112655 0.020865336 0.010596838 -0.0016696005 -0.0029069076 0.0022633364 0.030564427
0.020673027 -0.020680435 -0.0127394 -0.024389314 -0.021600924 0.028174577 0.010510072 0.0026880323
0.021707065 0.025340402 -0.012776303 -0.015704308 -0.0013959712 0.027565083 0.018605588 0.03473992
0.019459605 0.0026014526 0.031915277 0.008178159 0.018723836 -0.0018464775 -0.014692202 -0.027512042
-0.02338327 0.010906211 0.008760193 0.02199806 -9.9521734e-05 -0.01615047 0.024501834 0.01326291
-0.017594628 0.014204385 -0.030088482 0.017539684 0.010961916 -0.010877986 -0.032286916 0.01720202
-0.021010863 0.020327028 0.02097985 -0.010395446 -0.0060888985 -0.0077982885 0.009350501 -0.020239031
0.027322175 0.017532997 0.027724793 0.00839734 0.0231315 0.02450389 -0.0046811765 -0.032020003
-0.025178999 0.02885504 -0.016799862 0.016940836 -0.01740196 0.015401904 0.006584427 0.0063414243
-0.005381566 -0.016455395 0.008762134 0.016517818 -0.01629412 0.024819044 -0.0014575472 -0.011417966
0.020913454 -0.022568205 0.030801937 -0.005668669 0.0259502 -0.014814953 0.015847972 0.011023346
0.016899653 0.015622453 0.0047228765 -0.0015962155 -0.01264485 -0.027819134 0.03098286 -0.005211673
0.018955253 -0.0147069525 0.0041084816 0.021317113 0.016600696 -0.015296364 0.0038737 0.015883664
0.034500744 -0.030774748 0.0316327 0.002093529 0.011480189 0.006690221 -0.018200072 0.019911144
-0.026349926 0.024900133 -0.010097371 0.01208448 0.029003732 0.008048255 -0.027488152 0.025597988

Conv3.0.bias f4 [64]
00000000: 8ce9 02bc a67f 09bc 9b9a cbb9 b69e a9bc
00000010: 371b bb3c 5879 f3bc 2eee 8dbc 956a 84bc
00000020: 627b cfb9 548e 023c 6a5f 86bc 3baa 85bc
00000030: 0d81 803c 2cff d3bb a4eb e3ba b979 9abc
00000040: b439 e8bc cddb 4abc 4563 4ebc 9d4b df3c
00000050: 084f 633b 4813 95bc 424b 2e3b 4cec 96bc
00000060: d8c7 433c 60b9 b3ba ae19 cd3c ca5d e03b
00000070: 6f97 89bc 67d9 c8bb 4b39 2d3c 84cf 04bd
00000080: 01cc 283c a17c 813c 721f e2bc 865d 08bd
00000090: 118f a83b 73c7 d9bc 9081 7d3c ff00 a1bb
000000a0: 965a 09bd a526 cc3c 1a1f 053d 82bc f9bb
000000b0: 5c0a e9bc 1c76 463b 6d1a 43bc 2413 ef3c
000000c0: 2960 e4bc 5ab3 183c 6210 9d3c d4af 713c
000000d0: 9da3 80bb 7c66 ef3c 7f61 66bb afee d8bc
000000e0: d780 0d3c bb71 a63c 6b5a a93b 5da0 eb39
000000f0: 29ba ee3c 116e 82bc 85b1 c83c 57f8 043b
-0.007990252 -0.00839225 -0.00038834367 -0.020705562 0.022840125 -0.029720947 -0.017325487 -0.016164104
-0.00039574044 0.007968504 -0.016402919 -0.016316524 0.015686536 -0.006469628 -0.0017388952 -0.01885687
-0.028347827 -0.012381506 -0.01259691 0.027257735 0.0034684557 -0.01819767 0.002659515 -0.018423222
0.011949502 -0.0013711862 0.02503666 0.006847118 -0.016795842 -0.006129432 0.010572742 -0.032424465
0.010302545 0.015806498 -0.027602885 -0.033292316 0.005144008 -0.026584363 0.015472785 -0.004913449
-0.033533655 0.02492077 0.032500364 -0.007621349 -0.028447323 0.00302828 -0.011908156 0.029183932
-0.027877884 0.0093201045 0.019172851 0.014751393 -0.003925754 0.029223673 -0.0035153327 -0.026481
0.008636675 0.020317903 0.0051682494 0.00044942173 0.029141502 -0.015921624 0.02449871 0.0020289624

Conv3.1.weight f4 [64]
00000000: 9800 803f 758e 7f3f 73a5 7f3f 5a9c 7f3f
00000010: 476b 7f3f e816 803f 5123 803f 782d 803f
00000020: 5554 803f d64c 803f 728a 7f3f 7b51 803f
00000030: a020 803f b0b6 7f3f 6029 803f 3775 7f3f
00000040: ab07 803f 93c2 7f3f 16df 7f3f 09fa 7f3f
00000050: f101 803f eefd 7f3f 5c7e 7f3f 2719 803f
00000060: 9c56 7f3f 034f 803f 9f7d 7f3f e094 7f3f
00000070: 2b0c 803f f0be 7f3f 29d9 7f3f 5c3e 803f
00000080: 2d1d 803f 29ce 7f3f fb10 803f 9c45 803f
00000090: fe8a 7f3f 1c7b 7f3f 5451 803f e796 7f3f
000000a0: bd90 7f3f f8fb 7f3f 44ed 7f3f d735 803f
000000b0: eba9 7f3f 8c90 7f3f 4e63 7f3f 7215 803f
000000c0: b1f9 7f3f f919 803f 3e44 803f 6818 803f
000000d0: 9eb3 7f3f f2e6 7f3f ad0e 803f 7389 7f3f
000000e0: d4c3 7f3f 31d6 7f3f 6e2b 803f ca11 803f
000000f0: 9430 803f cb2a 803f 9d43 803f 8bfa 7f3f
1.0000181 0.9982675 0.9986183 0.9984795 0.9977307 1.000699 1.0010778 1.0013876
1.0025736 1.0023448 0.99820626 1.0024866 1.0009956 0.99888134 1.0012627 0.9978823
1.000234 0.9990627 0.9994978 0.999909 1.0000592 0.9999684 0.99802184 1.0007676
0.9974153 1.0024112 0.9980106 0.9983654 1.0003713 0.9990072 0.99940735 1.001903
1.0008904 0.9992395 1.0005182 1.0021243 0.9982146 0.99797225 1.0024819 0.99839634
0.9983023 0.9999385 0.99971414 1.0016431 0.9986865 0.99829936 0.997609 1.0006545
0.99990374 1.0007926 1.0020826 1.0007448 0.9988345 0.9996177 1.0004479 0.99819106
0.99908185 0.99936205 1.0013254 1.0005429 1.0014825 1.0013059 1.0020634 0.99991673

Conv3.1.bias f4 [64]
00000000: 6a52 85b8 3bd3 d5ba 8ef5 30bb e8e0 01bb
00000010: 9dca 20bb e1f3 103a 6c55 7c3a 3013 223b
00000020: 392a ec3a 3e31 243b 7b4e edba 8e52 2039
00000030: fd72 a03a 15ee c3b9 b333 603a 52c2 c8b9
00000040: 3333 f039 2fd1 0bbb b825 c839 7f67 26ba
00000050: eaa8 0539 c737 0a3b 2c26 04bb ce6c 233a
00000060: 85e0 f9ba 2811 963a 9155 f1ba f476 06bb
00000070: 26df 563a ba53 c9ba 50b5 d2ba 2294 ca3a
00000080: 4edd 163b 860c 57ba 0b89 5839 7d1b 713a
00000090: 1901 bcba 609d 0dbb 3028 163b ed19 a5ba
000000a0: 8331 fdba 50c7 0bb7 9c96 85ba 4937 c13a
000000b0: 3088 d2ba acf7 b9ba 10d7 00bb daa3 aeb9
000000c0: 0c27 ca38 86a5 5e3a 52b7 cc3a 9bad af38
000000d0: 440a 8dba 04a0 82b9 a3a8 a03a 2f97 38ba
000000e0: 6a9a 77ba 933d 06ba 4442 a03a d293 9a39
000000f0: 092b e43a 09d4 a73a 1221 013b 12f6 353a
-6.357285e-05 -0.0016313562 -0.002700183 -0.0019817892 -0.002453483 0.0005529505 0.0009625766 0.0024730675
0.0018017954 0.0025053765 -0.0018105054 0.00015289543 0.00122413 -0.00037370683 0.00085526257 -0.00038291753
0.00045814514 -0.00213344 0.00038175075 -0.00063478196 0.00012746794 0.0021090375 -0.0020164354 0.00062341697
-0.0019064104 0.0011449205 -0.0018412342 -0.002051768 0.0008196704 -0.0015360035 -0.0016075764 0.0015455524
0.0023020091 -0.0008203465 0.00020650418 0.00091975165 -0.0014343589 -0.0021608695 0.0022912137 -0.0012596227
-0.0019317124 -8.331452e-06 -0.001019198 0.0014741208 -0.0016062316 -0.0014188192 -0.0019659437 -0.00033309945
9.639384e-05 0.0008493293 0.0015618599 8.376987e-05 -0.0010760506 -0.00024914753 0.0012257289 -0.0007041571
-0.0009445312 -0.00051208696 0.001222678 0.00029483304 0.0017407845 0.001280428 0.001970355 0.00069412694

Conv3.1.running_mean f4 [64]
00000000: b312 0f3f 3ad1 da3e f297 dfbd c449 383e
00000010: 6759 82bd daf3 11bf c938 383e 4498 a7be
00000020: bc29 c7be d129 00be e20a 813d 6487 253f
00000030: 8055 49bf 4e13 bbbe 6347 0d3f 21b3 f13d
00000040: 7599 17bf 0368 0abd 28eb 5c3e f7c1 74bf
00000050: 8a3d 96be d9b6 01be fc9c 5dbc b85d a83e
00000060: 4009 8639 bfff 103c 121b 3dbf 8b91 ec3e
00000070: b50d ebbe 9122 75be fb04 25bf e018 d8bd
00000080: 3eaa 05bf dd66 3cbf 6105 723e 10ae 143d
00000090: c8a7 d6bd b002 49bd e797 c73e 5cc7 62bd
000000a0: 8836 9b3d 8239 d1be 24e8 493d 74f9 a03e
000000b0: 74fa 65bd 7e08 f5be 7857 1fbf 5672 463e
000000c0: 48e5 c1be 8bd8 663c 3249 483f d0a2 fbbd
000000d0: 026b 44bf 8497 943f a53e b5bd d4d8 8d3c
000000e0: bc1b 05bf 5268 4dbf cc6e 9abe 58d9 66bb
000000f0: 4914 bcbe 2a7d 9b3e a131 5c3e a301 4f3f
0.5588791 0.42737752 -0.10917653 0.1799689 -0.063647084 -0.5701271 0.17990412 -0.32733357
-0.38899028 -0.12515952 0.06300904 0.64659715 -0.7864609 -0.36538166 0.5518705 0.11801744
-0.5921853 -0.0337906 0.2157408 -0.95608467 -0.29343826 -0.12667407 -0.0135261975 0.32884002
0.00025565363 0.008850037 -0.7386943 0.4620479 -0.45908895 -0.23938967 -0.64460725 -0.105516195
-0.52212894 -0.73594457 0.23634864 0.03629881 -0.104812205 -0.04907483 0.3898308 -0.055365905
0.075787604 -0.40864187 0.049293652 0.31440318 -0.056147054 -0.47858042 -0.6224284 0.19379553
-0.3787024 0.014089714 0.7823669 -0.122869134 -0.7672578 1.1608739 -0.08849839 0.017315306
-0.51995444 -0.80237305 -0.30162656 -0.0035224762 -0.36734226 0.3036893 0.21503307 0.8086187

Conv3.1.running_var f4 [64]
00000000: 44a7 123f 84ac 183f c05f 133f 4429 223f
00000010: 766f 253f ca7f 0e3f f3eb 273f da7e 1a3f
00000020: a90d 193f 3386 1c3f 34ae 1f3f 9eaa 0e3f
00000030: 6d8f 2e3f 94f5 083f 207d 203f a5c3 253f
00000040: 3499 333f e5f5 093f 7967 1e3f afd5 563f
00000050: c7ee 173f b410 103f c72c 183f c758 2a3f
00000060: 056f 253f 00e8 183f 347e 143f 609f 0e3f
00000070: 4350 273f bc43 1c3f 52ea 283f 0e66 1d3f
00000080: e574 2d3f 2183 333f 8d57 1e3f 679a 253f
00000090: 858b 323f 0a18 173f 2094 0e3f 5ce6 273f
000000a0: 7455 143f d713 233f 15b9 1c3f 200d 1c3f
000000b0: 8822 113f 8612 493f e86d 3f3f 2a5e 393f
000000c0: df73 0e3f 339e 2c3f d786 283f a825 173f
000000d0: 34fd 0c3f 218b 4b3f 5f26 303f 73ab 2f3f
000000e0: 4665 0e3f a4f1 183f 5a2b 103f 9c88 1e3f
000000f0: 8703 5c3f 6fe1 193f 49ec 463f 8aa2 283f
0.5728648 0.5963824 0.5756798 0.63344216 0.646232 0.5566374 0.65594405 0.6034981
0.5978647 0.6114227 0.6237519 0.5572909 0.681876 0.5349972 0.62690926 0.64751655
0.70155644 0.5389083 0.61876637 0.83919805 0.5934872 0.56275487 0.59443325 0.66541713
0.6462253 0.59729004 0.5800507 0.55711937 0.65356845 0.61040854 0.65982544 0.6148385
0.6775649 0.7012196 0.6185234 0.64688724 0.6974414 0.59021056 0.5569477 0.65585876
0.5794289 0.6370215 0.6121991 0.6095753 0.56693316 0.7854389 0.7477708 0.7240931
0.55645555 0.6742889 0.6583075 0.59041834 0.5507386 0.7950917 0.6880855 0.68620986
0.5562328 0.59743714 0.5631615 0.619272 0.8594288 0.6010961 0.7770429 0.65873015

Conv4.0.weight f4 [64, 64, 3, 3, 3]
00000000: 3faf 4ebc 5e71 33bb 2fd1 483c 4649 bcbc
00000010: cf5e 79bb 86a1 bc3c 2043 b3bb fa8f 28bc
00000020: 7bb1 57bc 89b6 25bc efd3 8a3c a662 aabc
00000030: c006 a0bc c2f2 63bc 5ff5 a0bc d4ac 06bc
00000040: 8843 52bc 5ae1 20bc 9a33 64ba 9caf 88bb
00000050: 8085 193c f7fd 5cbc 3e69 aaba 4807 85bc
00000060: a15c 413c f287 033b d0c2 b2bc 7bc8 89ba
00000070: 19bd b4bb 72a4 aabc a08c de3b 6d03 9c3c
00000080: 75bd e5bb 5adc 2e3c 910b 8abb d694 06bc
00000090: 01af a6bc 923f 983c 3cd3 03bc 35a0 b2bc
000000a0: f48a 7e3c 0fcb bdba 0fbb b7bc 507a ce3b
000000b0: 024e 82bc 61bb 32bb 923d 743c 14c3 72bb
000000c0: 88cc 5d3c db9e 8ebc 1d22 5ebc 50ea edbb
000000d0: 3be0 7e3b fde8 c8bb e2cb 25bc 604c fdbb
000000e0: 716a 4fbb a823 44bc fbbb 4bbb 1832 0abc
000000f0: 7a99 dabb b117 a6bb d7d2 acbc 942a 6838
00000100: e36f 1abb aa84 dc3b 6e19 ca3c 115d 983c
00000110: 669d e838 4302 603c 0bea babc 6dad 533c
00000120: 4cd4 7c3c 1690 23bc 32b0 f13b 43b8 af3c
00000130: 84c1 24bb d170 88bc 6b5b a53c 67e8 a8bc
00000140: 8c6c 35bc c5ec e33b 19d1 c43c 7bb8 a73a
00000150: 23c8 06bc e656 99bb 21d7 b03c 28bb 64bc
00000160: 9a6b 9f3c dc50 9339 e43e 923b d9f4 6f3b
00000170: 33cc 9fbc dc18 73bc a908 b53c 5927 7bbc
00000180: bb59 ad3b 1423 9e3c 044a 4b3b 3ce3 713c
00000190: 696a 8bbc 0c18 273b 6ce0 9abc 40c5 7f3c
000001a0: 820c ae3c 0f8a 8c3c 3cbf d8bb b49d bbba
000001b0: a7ad 7a3c 96e5 47bc 4db5 5d3c 91ef fd3b
000001c0: 1bfe 7e3c 772e e7bb f13a 75bc 70f5 6a3c
000001d0: 3ac1 033a 6105 213a fb96 48bc 7563 d63b
000001e0: 67c6 5fbc d9ec 1dbc 6d0b 9dba eb2f 9f3b
000001f0: ac0c 98bc 7c5c f43b f5b3 fb3a d047 6e3c
00000200: 3e1f 973c 31f4 0d3c 061d 87bb 5b11 a3bc
00000210: af07 83bc f6c1 23bc 3c7e 91bc 0050 5d3c
00000220: f5a1 e8bb 0d48 6abc 1b6d 7bbc 3180 cebc
00000230: 24e5 33bb 203b aabc dc3f 26bc c9f5 503c
00000240: 8f87 403b 4665 933c 96de 553c 01b0 f1bb
00000250: d7b2 87bc 58f6 183c 9d3d ab3c 040f 8fbc
00000260: de4b 93bc a06c 07bc 02a2 903c 5f6f c2bc
00000270: b73a 9d3c 603a 7dbb c838 0bbc a45e 6c3a
00000280: 8d34 923b cc40 303c a9d3 86bc ad75 ac3c
00000290: d172 94bc a2bd 98bc c921 973c fa9c 8cbc
000002a0: ad82 923c 9ed2 febb 62ed ccbc 910e 843c
000002b0: 9e5a f93b cf84 92bc 53cd 9f3b 68a6 a63c
000002c0: b18f 253c 5b34 6e3c c219 1dbc 9e7d 233c
000002d0: 3943 c23c c30c e03b 8e1f 95bc aa25 8dbc
000002e0: e170 84bb d24a e73a 3514 b33c ea5c 78bc
000002f0: 2fc5 12bc a40c ba3b 42a4 c33c 2db7 43bc
00000300: 567b 88ba acae dc3b 72ec 1f3c 747f 803c
00000310: d75b d53b cba7 933b 8266 223c d007 c33b
00000320: 5b78 f8bb 4196 68bb eac2 b5bc 4512 a7bc
00000330: 753c 3e3b b198 923b ec15 a13c 9081 c53c
00000340: 7081 10bc f65d 9c3c dd8f 363b 8fb0 47bc
00000350: 9602 03bc 70ee 7d3c ce02 583c cfea 1abc
00000360: 4d77 ddbb 4bae a5bc 2c29 81bc 3387 b7bc
00000370: 4d2c 9a3b 379e 4f3c 1401 16bc 7937 aebc
00000380: 74b6 a3bb 4ae2 b13c c448 9d3c 7927 7c3c
00000390: 7037 023c 7113 62bc e237 423a 6fd7 1dbc
000003a0: 6d0a 9dbc 65cc 8fbc f334 15bc 1d37 adbc
000003b0: d265 b5bc 0884 113c 1505 acbc 2ae3 9bbc
000003c0: 7770 afba 337e b3bc 76e1 8f3c 0a69 ab3c
000003d0: ebd7 2ebc 3d6c ffba a8af 6abc 1d84 adba
000003e0: e617 883c a886 c13b 02c0 ad3c 76e9 4d3c
000003f0: b35b 8c3c 2b7b 733c 49e6 23bc be88 e03a
-0.012615024 -0.0027380805 0.0122569045 -0.022984158 -0.0038050895 0.02302624 -0.0054706484 -0.010288233
-0.013164873 -0.010114321 0.016946761 -0.020798992 -0.019534469 -0.013912858 -0.019648252 -0.008219916
-0.0128334835 -0.009819353 -0.0008705199 -0.004171325 0.009370208 -0.013488284 -0.0013001335 -0.016238824
0.01180187 0.0020070043 -0.02182141 -0.0010512018 -0.0055157063 -0.020830367 0.006791666 0.019044602
-0.0070111104 0.010672653 -0.0042128046 -0.008214196 -0.02034712 0.018585 -0.008045968 -0.021804908
0.015536059 -0.0014480072 -0.022428064 0.006301202 -0.015906338 -0.002727233 0.014907258 -0.0037042545
0.013537534 -0.017409733 -0.013557938 -0.0072605982 0.0038890976 -0.00613129 -0.01011941 -0.007730052
-0.0031649137 -0.011971392 -0.0031087387 -0.008434795 -0.006671128 -0.005068742 -0.02109663 5.5352764e-05
-0.0023565225 0.006729682 0.024670329 0.018599065 0.0001109194 0.013672414 -0.022816679 0.012919766
0.015431475 -0.009983083 0.0073757404 0.021450168 -0.0025139758 -0.016655358 0.020185193 -0.02061863
-0.011073243 0.0069557154 0.024025487 0.0012796068 -0.008226427 -0.0046795486 0.021586956 -0.013960637
0.019460488 0.0002809827 0.0044630636 0.0036614446 -0.01950655 -0.01483747 0.022098856 -0.015329205
0.0052902377 0.019303836 0.0031019459 0.01476365 -0.017018514 0.002549651 -0.01890584 0.015610993
0.021246199 0.017155675 -0.006614594 -0.0014313967 0.015300191 -0.012200734 0.013531995 0.007749506
0.015563513 -0.0070550996 -0.014967666 0.014340743 0.00050260464 0.0006142464 -0.012243028 0.006542618
-0.013658143 -0.009638988 -0.0011981555 0.004858007 -0.01856073 0.007457314 0.0019203412 0.014543489
0.018447515 0.008664177 -0.004123333 -0.019905737 -0.015994875 -0.009994974 -0.017760389 0.013507843
-0.007099385 -0.014299405 -0.015345837 -0.02520761 -0.002744981 -0.020780146 -0.010147061 0.012753912
0.0029377674 0.017992627 0.013053557 -0.0073757176 -0.01656477 0.009336077 0.020903403 -0.017463215
-0.017980512 -0.008265644 0.017655376 -0.023734747 0.019193036 -0.003863953 -0.008497424 0.0009016788
0.004461831 0.010757636 -0.01645835 0.021052206 -0.018121155 -0.018645111 0.018448727 -0.017164696
0.017884577 -0.0077765724 -0.025015537 0.016120227 0.0076096794 -0.017885594 0.0048767715 0.02034302
0.0101050595 0.01453885 -0.009588661 0.00997868 0.023713695 0.006837459 -0.018203523 -0.017229874
-0.0040417765 0.00176462 0.021860221 -0.015158871 -0.008958145 0.0056777764 0.023882035 -0.011945528
-0.0010412734 0.0067346897 0.009760963 0.015685774 0.0065111923 0.0045060865 0.009912135 0.005951859
-0.007582707 -0.003548995 -0.022187669 -0.020394454 0.0029027734 0.0044737686 0.019663773 0.024109632
-0.008819923 0.019087773 0.0027856745 -0.012188091 -0.007996222 0.015498742 0.013184262 -0.009455397
-0.0067586065 -0.02022471 -0.015766703 -0.022403335 0.004704988 0.012671999 -0.0091555305 -0.021266686
-0.0049961153 0.021714348 0.019199736 0.01539027 0.007947788 -0.0137985805 0.000740884 -0.009633883
-0.01917001 -0.017553518 -0.009106862 -0.021144444 -0.022143278 0.008881576 -0.020998517 -0.019029219
-0.0013384958 -0.021910762 0.017563563 0.02092411 -0.010671596 -0.0019487214 -0.014324106 -0.0013238225
0.016612958 0.005905945 0.02120972 0.012567868 0.01713357 0.0148609085 -0.010003635 0.0017130596

Conv4.0.bias f4 [64]
00000000: fdc3 50bc ff90 603c c9ec 8dbc 7946 463c
00000010: cb9a adba 61d1 7c3c dfc0 dfba d429 8bbc
00000020: 03a9 0dbb f03e a03b 3908 c73c c358 f63b
00000030: 945e aebc 596d 69bc 375c 963c 26f7 a3bc
00000040: 6a82 4fbb 7e06 2e3b b103 3cbb 1ec1 11bb
00000050: 7f8d b3bc 7fa9 4cbb 7a20 8e3c d08a 94bc
00000060: 0cb5 983c ab9c 94bc bf70 a1bc 1a69 373c
00000070: 6407 b63c a9dd 913c 9afb 2b3c 27de aabc
00000080: 7629 2cbc 4c45 123c 18c9 343c 58a5 acbc
00000090: 13bc 103b 7b2c efba a197 393c 493a 283c
000000a0: 4dce 2b3c ea4a ae3c b203 babc ba74 abbc
000000b0: 540f a83c 2342 613c 6ac0 d6b9 0aaf 043c
000000c0: d206 d23b 1f20 a7bc a42a 773c cee8 f23b
000000d0: 3ff3 66bc adf7 81bb 449c 6ebc 1ef4 633c
000000e0: f07a aa3c 16f4 17ba 7874 7bbc 433e b1ba
000000f0: b6c0 9cbc c3e5 72bb 845a 8bbc e727 843c
-0.01274204 0.013706445 -0.017324822 0.012101763 -0.0013244984 0.015430779 -0.001707103 -0.016987719
-0.0021615631 0.0048903152 0.024295913 0.0075179054 -0.021285333 -0.014247262 0.018354518 -0.02001531
-0.0031663426 0.0026554163 -0.0028688724 -0.002224035 -0.021918057 -0.0031228957 0.01734947 -0.018132597
0.018641017 -0.018141111 -0.019707082 0.011194492 0.022220321 0.017805891 0.010496998 -0.020857884
-0.010507932 0.0089276545 0.011034273 -0.021074936 0.0022084757 -0.0018247509 0.011327655 0.0102678025
0.010486198 0.021275956 -0.02270684 -0.020929683 0.020515122 0.013748678 -0.0004096062 0.008098373
0.0064095045 -0.020401059 0.01508585 0.0074130064 -0.01409608 -0.003966293 -0.014563624 0.013913183
0.020810574 -0.00057965645 -0.0153475925 -0.0013522584 -0.01913486 -0.0037063218 -0.017010935 0.016132308

Conv4.1.weight f4 [64]
00000000: 2a0c 803f 71c6 7f3f b1db 7f3f 6708 803f
00000010: 86f2 7f3f 51cb 7f3f 94fc 7f3f 8f24 803f
00000020: 2bea 7f3f 1920 803f a917 803f c0e4 7f3f
00000030: 9a01 803f 53f6 7f3f 7914 803f d2e6 7f3f
00000040: 7b16 803f 6ee3 7f3f a8e1 7f3f d30e 803f
00000050: d113 803f aebe 7f3f fcea 7f3f 2408 803f
00000060: b3f0 7f3f 1ae0 7f3f 3318 803f cc1d 803f
00000070: d0c0 7f3f 4ba9 7f3f 110e 803f bda8 7f3f
00000080: 7b33 803f 2f2d 803f 1601 803f a272 7f3f
00000090: 88d7 7f3f 0e14 803f 11df 7f3f 7f0f 803f
000000a0: 88fb 7f3f 2003 803f 04da 7f3f 6bf5 7f3f
000000b0: 1829 803f a7d4 7f3f d604 803f 97e3 7f3f
000000c0: 4324 803f e7dc 7f3f 1a13 803f 8208 803f
000000d0: 5823 803f fd1a 803f 0c09 803f 4fe4 7f3f
000000e0: 20ca 7f3f 5c37 803f 93c1 7f3f 1519 803f
000000f0: cbd1 7f3f 82c7 7f3f 9618 803f 30e1 7f3f
1.0003712 0.9991217 0.999446 1.0002564 0.99979436 0.9991961 0.9999478 1.0011157
0.99966687 1.0009795 1.000722 0.9995842 1.0000489 0.99985236 1.0006248 0.9996158
1.000686 0.99956405 0.999537 1.0004524 1.0006047 0.9990033 0.9996793 1.0002484
0.9997665 0.99951327 1.0007385 1.0009093 0.99903584 0.99867696 1.0004293 0.9986685
1.001571 1.0013789 1.0000331 0.9978429 0.9993825 1.000612 0.9994975 1.0004729
0.9999318 1.0000954 0.9994204 0.99983853 1.0012541 0.99933857 1.0001476 0.9995665
1.0011066 0.99946445 1.0005829 1.0002596 1.0010786 1.0008236 1.0002761 0.99957746
0.99917793 1.0016894 0.99904746 1.0007654 0.99929494 0.999138 1.0007503 0.99952984

Conv4.1.bias f4 [64]
00000000: e049 8039 b770 9eba aadd 34ba 75ea 01bb
00000010: 724d d738 29b1 4dba 4d8b ceb9 f734 8539
00000020: 6a44 1aba 38b3 fc39 3265 323a 8557 e0b9
00000030: a052 8438 6714 17ba ae8b e939 2df2 17ba
00000040: d049 0b3a db6f cbb9 2a0c b1ba 2aed eb39
00000050: e9de 163a c8c2 9aba 3411 1aba 1030 19ba
00000060: 3dbc d4b9 b1da 21ba 69f9 be39 d09b fd39
00000070: d032 b0ba b6d4 92ba a9e5 b139 6534 a7ba
00000080: 7c79 5c3a 39f0 113a 245d 26ba b2a7 02bb
00000090: 29df 48ba ecd9 ff39 f959 2eba 5319 e039
000000a0: ae31 f5b9 da0c 1039 16ca 1fba a0f1 f4b8
000000b0: ef03 8b3a 758f 28ba d2a0 3339 1b0c 39ba
000000c0: a3fa 403a 93fc 34ba d104 9539 e000 a139
000000d0: 7a3f 633a d6fa 353a e2d4 e538 6014 10ba
000000e0: f56b afba 3ff7 bf3a 6ad9 8eba 136b 203a
000000f0: 8b36 94ba daaa 60ba 0a86 363a 93a8 7bba
0.00024469104 -0.0012088035 -0.00068994856 -0.0019823585 0.00010266424 -0.00078465283 -0.0003939517 0.000254072
-0.0005884828 0.00048198714 0.00068052404 -0.00042789817 6.3096406e-05 -0.0005763233 0.00044545293 -0.000579628
0.0005313428 -0.00038802516 -0.0013507653 0.00044999394 0.0005755262 -0.0011807317 -0.0005877197 -0.00058436487
-0.0004057604 -0.000617425 0.0003642545 0.0004837201 -0.0013442878 -0.0011202309 0.0003393118 -0.0012756704
0.00084104366 0.0005567107 -0.00063462765 -0.001993638 -0.0007662648 0.00048799755 -0.000665098 0.00042743477
-0.00046767056 0.00013737698 -0.0006095482 -0.00011679833 0.0010606031 -0.0006430068 0.0001713068 -0.0007058994
0.00073615665 -0.00069040916 0.00028423083 0.00030708965 0.00086688215 0.00069419795 0.000109592234 -0.00054962
-0.0013383614 0.0014645829 -0.0010898535 0.0006119471 -0.0011307759 -0.0008570381 0.00069627224 -0.00096000097

Conv4.1.running_mean f4 [64]
00000000: 864d 473d 1bac 9f3d 9fe4 a8bd 9ff7 d0bd
00000010: bab0 193d 64db 00bb ec93 c93d 029f 55bd
00000020: b853 39bd 532a af3c 34be 00bd 3668 b2bd
00000030: 2a6c 5d3e b1d3 02bd de84 16bd 7253 01bd
00000040: b513 45be 8ab8 3cbe 7b39 9c3d 0277 e53c
00000050: e3f4 5d3e b9bc d53d 578e ce3c 8f1e 2abe
00000060: 2865 803e 3a62 fb3d 5d03 e6bd de3f 60bc
00000070: 7962 493d b4ee 30bc a732 8d3d 7682 24be
00000080: 26a0 01be 5251 053e 40b1 f23d 3154 993d
00000090: fd03 c5bc 0b66 073e edb4 403d 8b13 ab3d
000000a0: 030f 423d fa0b 4d3e bca8 2dbc 9854 c2bb
000000b0: 4b76 d7bd 079d e2bd fe2f f93b cc18 8dbc
000000c0: 00ba 30bd 35d9 36bd 7e20 c6bd 97c8 d4bc
000000d0: 81c0 b5bd 143a 6d3d 8569 f9bd 9eb7 f1bd
000000e0: 8b5a d93d 7bf7 0ebd 702b 79bb 2632 363e
000000f0: 9f01 6d3d 4508 2cbe 6ef9 303e 82eb ab3d
0.048657916 0.077964984 -0.08246731 -0.1020348 0.037522055 -0.0019662017 0.09842667 -0.052153595
-0.045245856 0.021382486 -0.03143139 -0.08711283 0.21623293 -0.031940166 -0.036747806 -0.03157372
-0.19245799 -0.18429771 0.07628151 0.028010849 0.21675448 0.104363866 0.025214357 -0.1661322
0.25077176 0.122745946 -0.1123111 -0.013687102 0.049166176 -0.010799099 0.06894427 -0.16065392
-0.12658748 0.13019302 0.11850214 0.07486761 -0.024049753 0.1322252 0.047047544 0.08353337
0.047377598 0.200241 -0.010599311 -0.0059304945 -0.105206095 -0.11065107 0.007604598 -0.017223738
-0.043146133 -0.04464074 -0.09674166 -0.025974555 -0.08874608 0.057916716 -0.121783294 -0.118026
0.10612973 -0.034903985 -0.0038020276 0.17792568 0.057862874 -0.1680003 0.1728265 0.08394529

Conv4.1.running_var f4 [64]
00000000: 5b0b 153f b22d 143f 74ed 123f 3b33 0d3f
00000010: bb64 093f 3ef9 0e3f e740 093f f450 143f
00000020: eb03 093f c27e 243f a77a 0a3f 375e 063f
00000030: 7956 0a3f a28c 0c3f 3a79 103f c5ca 063f
00000040: a0a2 123f d2c0 093f 97d2 1b3f 55e1 093f
00000050: a344 093f 8cb0 0b3f 18d4 133f 9b89 063f
00000060: 1c5a 0f3f 8638 123f 8fbf 133f 8b19 163f
00000070: 696f 093f a7ad 093f bb43 0d3f 756b 0a3f
00000080: c546 1e3f 0fb9 1a3f 6500 103f 344f 093f
00000090: 4496 183f 676f 173f d433 053f 39e7 0b3f
000000a0: b583 0a3f 5998 133f a830 163f c196 0a3f
000000b0: afe8 1b3f 9f69 0c3f 1c9a 073f 10b0 083f
000000c0: 01e7 0a3f 4feb 103f 5c2f 093f deff 0a3f
000000d0: fa12 0c3f ed88 083f a1f3 153f 972c 0d3f
000000e0: cc99 113f 9dc6 123f 589d 043f 4761 123f
000000f0: a415 083f a81b 0a3f 3c77 083f 9288 0f3f
0.5822045 0.57882226 0.57393575 0.55156296 0.5366933 0.55849063 0.5361466 0.57936025
0.53521603 0.6425592 0.540934 0.5248751 0.54038197 0.5490209 0.5643498 0.5265315
0.57279396 0.53809845 0.6086821 0.53859454 0.53620356 0.54566264 0.57745504 0.5255372
0.5599687 0.571175 0.5771417 0.58632725 0.53685623 0.537806 0.55181473 0.54070216
0.61826736 0.60438627 0.562506 0.5363648 0.5960429 0.5915436 0.5203221 0.5464969
0.5410722 0.5765434 0.58667994 0.5413628 0.6090192 0.54848665 0.5296953 0.5339365
0.54258734 0.5660905 0.5358789 0.5429667 0.54716456 0.5333393 0.58574873 0.55146164
0.568753 0.5733431 0.5180259 0.57179683 0.5315802 0.5394845 0.5330694 0.56067765
